<?xml version="1.0" ?>
<net name="3d_unet_decathlon_tf_ov_fp32_ir" version="11">
	<layers>
		<layer id="0" name="mrimages" type="Parameter" version="opset1">
			<data element_type="f32" shape="1,144,144,144,1"/>
			<rt_info>
				<attribute name="fused_names" value="mrimages" version="0"/>
				<attribute name="old_api_map_order" value="0, 2, 3, 4, 1" version="0"/>
			</rt_info>
			<output>
				<port id="0" names="Func/StatefulPartitionedCall/input/_0:0,mrimages,mrimages:0" precision="FP32">
					<dim>1</dim>
					<dim>144</dim>
					<dim>144</dim>
					<dim>144</dim>
					<dim>1</dim>
				</port>
			</output>
		</layer>
		<layer id="1" name="mrimages/Transpose([0 4 1 2 3])/value926813623" type="Const" version="opset1">
			<data element_type="i64" offset="0" shape="5" size="40"/>
			<rt_info>
				<attribute name="fused_names" value="mrimages/Transpose([0 4 1 2 3])/value926813623" version="0"/>
			</rt_info>
			<output>
				<port id="0" precision="I64">
					<dim>5</dim>
				</port>
			</output>
		</layer>
		<layer id="2" name="mrimages/Transpose([0 4 1 2 3])" type="Transpose" version="opset1">
			<rt_info>
				<attribute name="fused_names" value="mrimages/Transpose([0 4 1 2 3])" version="0"/>
			</rt_info>
			<input>
				<port id="0" precision="FP32">
					<dim>1</dim>
					<dim>144</dim>
					<dim>144</dim>
					<dim>144</dim>
					<dim>1</dim>
				</port>
				<port id="1" precision="I64">
					<dim>5</dim>
				</port>
			</input>
			<output>
				<port id="2" precision="FP32">
					<dim>1</dim>
					<dim>1</dim>
					<dim>144</dim>
					<dim>144</dim>
					<dim>144</dim>
				</port>
			</output>
		</layer>
		<layer id="3" name="StatefulPartitionedCall/3d_unet_decathlon/encode_a_bn_0/FusedBatchNormV3/mean/Fused_Mul__copy" type="Const" version="opset1">
			<data element_type="f32" offset="40" shape="16, 1, 3, 3, 3" size="1728"/>
			<rt_info>
				<attribute name="fused_names" value="StatefulPartitionedCall/3d_unet_decathlon/encode_a_bn_0/FusedBatchNormV3/mean/Fused_Mul__copy" version="0"/>
			</rt_info>
			<output>
				<port id="0" names="StatefulPartitionedCall/3d_unet_decathlon/encode_a_conv_0/Conv3D/ReadVariableOp:0" precision="FP32">
					<dim>16</dim>
					<dim>1</dim>
					<dim>3</dim>
					<dim>3</dim>
					<dim>3</dim>
				</port>
			</output>
		</layer>
		<layer id="4" name="StatefulPartitionedCall/3d_unet_decathlon/encode_a_conv_0/Conv3D" type="Convolution" version="opset1">
			<data auto_pad="same_upper" dilations="1, 1, 1" pads_begin="0, 0, 0" pads_end="0, 0, 0" strides="1, 1, 1"/>
			<rt_info>
				<attribute name="fused_names" value="StatefulPartitionedCall/3d_unet_decathlon/encode_a_conv_0/Conv3D" version="0"/>
			</rt_info>
			<input>
				<port id="0" precision="FP32">
					<dim>1</dim>
					<dim>1</dim>
					<dim>144</dim>
					<dim>144</dim>
					<dim>144</dim>
				</port>
				<port id="1" precision="FP32">
					<dim>16</dim>
					<dim>1</dim>
					<dim>3</dim>
					<dim>3</dim>
					<dim>3</dim>
				</port>
			</input>
			<output>
				<port id="2" precision="FP32">
					<dim>1</dim>
					<dim>16</dim>
					<dim>144</dim>
					<dim>144</dim>
					<dim>144</dim>
				</port>
			</output>
		</layer>
		<layer id="5" name="data_add_7010" type="Const" version="opset1">
			<data element_type="f32" offset="1768" shape="1, 16, 1, 1, 1" size="64"/>
			<rt_info>
				<attribute name="fused_names" value="data_add_7010" version="0"/>
			</rt_info>
			<output>
				<port id="0" precision="FP32">
					<dim>1</dim>
					<dim>16</dim>
					<dim>1</dim>
					<dim>1</dim>
					<dim>1</dim>
				</port>
			</output>
		</layer>
		<layer id="6" name="StatefulPartitionedCall/3d_unet_decathlon/encode_a_conv_0/BiasAdd/Add/Fused_Add_" type="Add" version="opset1">
			<data auto_broadcast="numpy"/>
			<rt_info>
				<attribute name="fused_names" value="StatefulPartitionedCall/3d_unet_decathlon/encode_a_conv_0/BiasAdd/Add/Fused_Add_" version="0"/>
			</rt_info>
			<input>
				<port id="0" precision="FP32">
					<dim>1</dim>
					<dim>16</dim>
					<dim>144</dim>
					<dim>144</dim>
					<dim>144</dim>
				</port>
				<port id="1" precision="FP32">
					<dim>1</dim>
					<dim>16</dim>
					<dim>1</dim>
					<dim>1</dim>
					<dim>1</dim>
				</port>
			</input>
			<output>
				<port id="2" names="StatefulPartitionedCall/3d_unet_decathlon/encode_a_bn_0/FusedBatchNormV3:0" precision="FP32">
					<dim>1</dim>
					<dim>16</dim>
					<dim>144</dim>
					<dim>144</dim>
					<dim>144</dim>
				</port>
			</output>
		</layer>
		<layer id="7" name="StatefulPartitionedCall/3d_unet_decathlon/encode_a_relu_0/Relu" type="ReLU" version="opset1">
			<rt_info>
				<attribute name="fused_names" value="StatefulPartitionedCall/3d_unet_decathlon/encode_a_relu_0/Relu" version="0"/>
			</rt_info>
			<input>
				<port id="0" precision="FP32">
					<dim>1</dim>
					<dim>16</dim>
					<dim>144</dim>
					<dim>144</dim>
					<dim>144</dim>
				</port>
			</input>
			<output>
				<port id="1" names="StatefulPartitionedCall/3d_unet_decathlon/encode_a_relu_0/Relu:0" precision="FP32">
					<dim>1</dim>
					<dim>16</dim>
					<dim>144</dim>
					<dim>144</dim>
					<dim>144</dim>
				</port>
			</output>
		</layer>
		<layer id="8" name="StatefulPartitionedCall/3d_unet_decathlon/encode_a_bn_1/FusedBatchNormV3/mean/Fused_Mul__copy" type="Const" version="opset1">
			<data element_type="f32" offset="1832" shape="16, 16, 3, 3, 3" size="27648"/>
			<rt_info>
				<attribute name="fused_names" value="StatefulPartitionedCall/3d_unet_decathlon/encode_a_bn_1/FusedBatchNormV3/mean/Fused_Mul__copy" version="0"/>
			</rt_info>
			<output>
				<port id="0" names="StatefulPartitionedCall/3d_unet_decathlon/encode_a_conv_1/Conv3D/ReadVariableOp:0" precision="FP32">
					<dim>16</dim>
					<dim>16</dim>
					<dim>3</dim>
					<dim>3</dim>
					<dim>3</dim>
				</port>
			</output>
		</layer>
		<layer id="9" name="StatefulPartitionedCall/3d_unet_decathlon/encode_a_conv_1/Conv3D" type="Convolution" version="opset1">
			<data auto_pad="same_upper" dilations="1, 1, 1" pads_begin="0, 0, 0" pads_end="0, 0, 0" strides="1, 1, 1"/>
			<rt_info>
				<attribute name="fused_names" value="StatefulPartitionedCall/3d_unet_decathlon/encode_a_conv_1/Conv3D" version="0"/>
			</rt_info>
			<input>
				<port id="0" precision="FP32">
					<dim>1</dim>
					<dim>16</dim>
					<dim>144</dim>
					<dim>144</dim>
					<dim>144</dim>
				</port>
				<port id="1" precision="FP32">
					<dim>16</dim>
					<dim>16</dim>
					<dim>3</dim>
					<dim>3</dim>
					<dim>3</dim>
				</port>
			</input>
			<output>
				<port id="2" precision="FP32">
					<dim>1</dim>
					<dim>16</dim>
					<dim>144</dim>
					<dim>144</dim>
					<dim>144</dim>
				</port>
			</output>
		</layer>
		<layer id="10" name="data_add_70137018" type="Const" version="opset1">
			<data element_type="f32" offset="29480" shape="1, 16, 1, 1, 1" size="64"/>
			<rt_info>
				<attribute name="fused_names" value="data_add_70137018" version="0"/>
			</rt_info>
			<output>
				<port id="0" precision="FP32">
					<dim>1</dim>
					<dim>16</dim>
					<dim>1</dim>
					<dim>1</dim>
					<dim>1</dim>
				</port>
			</output>
		</layer>
		<layer id="11" name="StatefulPartitionedCall/3d_unet_decathlon/encode_a_conv_1/BiasAdd/Add/Fused_Add_" type="Add" version="opset1">
			<data auto_broadcast="numpy"/>
			<rt_info>
				<attribute name="fused_names" value="StatefulPartitionedCall/3d_unet_decathlon/encode_a_conv_1/BiasAdd/Add/Fused_Add_" version="0"/>
			</rt_info>
			<input>
				<port id="0" precision="FP32">
					<dim>1</dim>
					<dim>16</dim>
					<dim>144</dim>
					<dim>144</dim>
					<dim>144</dim>
				</port>
				<port id="1" precision="FP32">
					<dim>1</dim>
					<dim>16</dim>
					<dim>1</dim>
					<dim>1</dim>
					<dim>1</dim>
				</port>
			</input>
			<output>
				<port id="2" names="StatefulPartitionedCall/3d_unet_decathlon/encode_a_bn_1/FusedBatchNormV3:0" precision="FP32">
					<dim>1</dim>
					<dim>16</dim>
					<dim>144</dim>
					<dim>144</dim>
					<dim>144</dim>
				</port>
			</output>
		</layer>
		<layer id="12" name="StatefulPartitionedCall/3d_unet_decathlon/encode_a/Relu" type="ReLU" version="opset1">
			<rt_info>
				<attribute name="fused_names" value="StatefulPartitionedCall/3d_unet_decathlon/encode_a/Relu" version="0"/>
			</rt_info>
			<input>
				<port id="0" precision="FP32">
					<dim>1</dim>
					<dim>16</dim>
					<dim>144</dim>
					<dim>144</dim>
					<dim>144</dim>
				</port>
			</input>
			<output>
				<port id="1" names="StatefulPartitionedCall/3d_unet_decathlon/encode_a/Relu:0" precision="FP32">
					<dim>1</dim>
					<dim>16</dim>
					<dim>144</dim>
					<dim>144</dim>
					<dim>144</dim>
				</port>
			</output>
		</layer>
		<layer id="13" name="StatefulPartitionedCall/3d_unet_decathlon/pool_a/MaxPool3D" type="MaxPool" version="opset8">
			<data auto_pad="valid" axis="0" dilations="1, 1, 1" index_element_type="i64" kernel="2, 2, 2" pads_begin="0, 0, 0" pads_end="0, 0, 0" rounding_type="floor" strides="2, 2, 2"/>
			<rt_info>
				<attribute name="fused_names" value="StatefulPartitionedCall/3d_unet_decathlon/pool_a/MaxPool3D" version="0"/>
			</rt_info>
			<input>
				<port id="0" precision="FP32">
					<dim>1</dim>
					<dim>16</dim>
					<dim>144</dim>
					<dim>144</dim>
					<dim>144</dim>
				</port>
			</input>
			<output>
				<port id="1" names="StatefulPartitionedCall/3d_unet_decathlon/pool_a/MaxPool3D:0" precision="FP32">
					<dim>1</dim>
					<dim>16</dim>
					<dim>72</dim>
					<dim>72</dim>
					<dim>72</dim>
				</port>
				<port id="2" precision="I64">
					<dim>1</dim>
					<dim>16</dim>
					<dim>72</dim>
					<dim>72</dim>
					<dim>72</dim>
				</port>
			</output>
		</layer>
		<layer id="14" name="StatefulPartitionedCall/3d_unet_decathlon/encode_b_bn_0/FusedBatchNormV3/mean/Fused_Mul__copy" type="Const" version="opset1">
			<data element_type="f32" offset="29544" shape="32, 16, 3, 3, 3" size="55296"/>
			<rt_info>
				<attribute name="fused_names" value="StatefulPartitionedCall/3d_unet_decathlon/encode_b_bn_0/FusedBatchNormV3/mean/Fused_Mul__copy" version="0"/>
			</rt_info>
			<output>
				<port id="0" names="StatefulPartitionedCall/3d_unet_decathlon/encode_b_conv_0/Conv3D/ReadVariableOp:0" precision="FP32">
					<dim>32</dim>
					<dim>16</dim>
					<dim>3</dim>
					<dim>3</dim>
					<dim>3</dim>
				</port>
			</output>
		</layer>
		<layer id="15" name="StatefulPartitionedCall/3d_unet_decathlon/encode_b_conv_0/Conv3D" type="Convolution" version="opset1">
			<data auto_pad="same_upper" dilations="1, 1, 1" pads_begin="0, 0, 0" pads_end="0, 0, 0" strides="1, 1, 1"/>
			<rt_info>
				<attribute name="fused_names" value="StatefulPartitionedCall/3d_unet_decathlon/encode_b_conv_0/Conv3D" version="0"/>
			</rt_info>
			<input>
				<port id="0" precision="FP32">
					<dim>1</dim>
					<dim>16</dim>
					<dim>72</dim>
					<dim>72</dim>
					<dim>72</dim>
				</port>
				<port id="1" precision="FP32">
					<dim>32</dim>
					<dim>16</dim>
					<dim>3</dim>
					<dim>3</dim>
					<dim>3</dim>
				</port>
			</input>
			<output>
				<port id="2" precision="FP32">
					<dim>1</dim>
					<dim>32</dim>
					<dim>72</dim>
					<dim>72</dim>
					<dim>72</dim>
				</port>
			</output>
		</layer>
		<layer id="16" name="data_add_70217026" type="Const" version="opset1">
			<data element_type="f32" offset="84840" shape="1, 32, 1, 1, 1" size="128"/>
			<rt_info>
				<attribute name="fused_names" value="data_add_70217026" version="0"/>
			</rt_info>
			<output>
				<port id="0" precision="FP32">
					<dim>1</dim>
					<dim>32</dim>
					<dim>1</dim>
					<dim>1</dim>
					<dim>1</dim>
				</port>
			</output>
		</layer>
		<layer id="17" name="StatefulPartitionedCall/3d_unet_decathlon/encode_b_conv_0/BiasAdd/Add/Fused_Add_" type="Add" version="opset1">
			<data auto_broadcast="numpy"/>
			<rt_info>
				<attribute name="fused_names" value="StatefulPartitionedCall/3d_unet_decathlon/encode_b_conv_0/BiasAdd/Add/Fused_Add_" version="0"/>
			</rt_info>
			<input>
				<port id="0" precision="FP32">
					<dim>1</dim>
					<dim>32</dim>
					<dim>72</dim>
					<dim>72</dim>
					<dim>72</dim>
				</port>
				<port id="1" precision="FP32">
					<dim>1</dim>
					<dim>32</dim>
					<dim>1</dim>
					<dim>1</dim>
					<dim>1</dim>
				</port>
			</input>
			<output>
				<port id="2" names="StatefulPartitionedCall/3d_unet_decathlon/encode_b_bn_0/FusedBatchNormV3:0" precision="FP32">
					<dim>1</dim>
					<dim>32</dim>
					<dim>72</dim>
					<dim>72</dim>
					<dim>72</dim>
				</port>
			</output>
		</layer>
		<layer id="18" name="StatefulPartitionedCall/3d_unet_decathlon/encode_b_relu_0/Relu" type="ReLU" version="opset1">
			<rt_info>
				<attribute name="fused_names" value="StatefulPartitionedCall/3d_unet_decathlon/encode_b_relu_0/Relu" version="0"/>
			</rt_info>
			<input>
				<port id="0" precision="FP32">
					<dim>1</dim>
					<dim>32</dim>
					<dim>72</dim>
					<dim>72</dim>
					<dim>72</dim>
				</port>
			</input>
			<output>
				<port id="1" names="StatefulPartitionedCall/3d_unet_decathlon/encode_b_relu_0/Relu:0" precision="FP32">
					<dim>1</dim>
					<dim>32</dim>
					<dim>72</dim>
					<dim>72</dim>
					<dim>72</dim>
				</port>
			</output>
		</layer>
		<layer id="19" name="StatefulPartitionedCall/3d_unet_decathlon/encode_b_bn_1/FusedBatchNormV3/mean/Fused_Mul__copy" type="Const" version="opset1">
			<data element_type="f32" offset="84968" shape="32, 32, 3, 3, 3" size="110592"/>
			<rt_info>
				<attribute name="fused_names" value="StatefulPartitionedCall/3d_unet_decathlon/encode_b_bn_1/FusedBatchNormV3/mean/Fused_Mul__copy" version="0"/>
			</rt_info>
			<output>
				<port id="0" names="StatefulPartitionedCall/3d_unet_decathlon/encode_b_conv_1/Conv3D/ReadVariableOp:0" precision="FP32">
					<dim>32</dim>
					<dim>32</dim>
					<dim>3</dim>
					<dim>3</dim>
					<dim>3</dim>
				</port>
			</output>
		</layer>
		<layer id="20" name="StatefulPartitionedCall/3d_unet_decathlon/encode_b_conv_1/Conv3D" type="Convolution" version="opset1">
			<data auto_pad="same_upper" dilations="1, 1, 1" pads_begin="0, 0, 0" pads_end="0, 0, 0" strides="1, 1, 1"/>
			<rt_info>
				<attribute name="fused_names" value="StatefulPartitionedCall/3d_unet_decathlon/encode_b_conv_1/Conv3D" version="0"/>
			</rt_info>
			<input>
				<port id="0" precision="FP32">
					<dim>1</dim>
					<dim>32</dim>
					<dim>72</dim>
					<dim>72</dim>
					<dim>72</dim>
				</port>
				<port id="1" precision="FP32">
					<dim>32</dim>
					<dim>32</dim>
					<dim>3</dim>
					<dim>3</dim>
					<dim>3</dim>
				</port>
			</input>
			<output>
				<port id="2" precision="FP32">
					<dim>1</dim>
					<dim>32</dim>
					<dim>72</dim>
					<dim>72</dim>
					<dim>72</dim>
				</port>
			</output>
		</layer>
		<layer id="21" name="data_add_70297034" type="Const" version="opset1">
			<data element_type="f32" offset="195560" shape="1, 32, 1, 1, 1" size="128"/>
			<rt_info>
				<attribute name="fused_names" value="data_add_70297034" version="0"/>
			</rt_info>
			<output>
				<port id="0" precision="FP32">
					<dim>1</dim>
					<dim>32</dim>
					<dim>1</dim>
					<dim>1</dim>
					<dim>1</dim>
				</port>
			</output>
		</layer>
		<layer id="22" name="StatefulPartitionedCall/3d_unet_decathlon/encode_b_conv_1/BiasAdd/Add/Fused_Add_" type="Add" version="opset1">
			<data auto_broadcast="numpy"/>
			<rt_info>
				<attribute name="fused_names" value="StatefulPartitionedCall/3d_unet_decathlon/encode_b_conv_1/BiasAdd/Add/Fused_Add_" version="0"/>
			</rt_info>
			<input>
				<port id="0" precision="FP32">
					<dim>1</dim>
					<dim>32</dim>
					<dim>72</dim>
					<dim>72</dim>
					<dim>72</dim>
				</port>
				<port id="1" precision="FP32">
					<dim>1</dim>
					<dim>32</dim>
					<dim>1</dim>
					<dim>1</dim>
					<dim>1</dim>
				</port>
			</input>
			<output>
				<port id="2" names="StatefulPartitionedCall/3d_unet_decathlon/encode_b_bn_1/FusedBatchNormV3:0" precision="FP32">
					<dim>1</dim>
					<dim>32</dim>
					<dim>72</dim>
					<dim>72</dim>
					<dim>72</dim>
				</port>
			</output>
		</layer>
		<layer id="23" name="StatefulPartitionedCall/3d_unet_decathlon/encode_b/Relu" type="ReLU" version="opset1">
			<rt_info>
				<attribute name="fused_names" value="StatefulPartitionedCall/3d_unet_decathlon/encode_b/Relu" version="0"/>
			</rt_info>
			<input>
				<port id="0" precision="FP32">
					<dim>1</dim>
					<dim>32</dim>
					<dim>72</dim>
					<dim>72</dim>
					<dim>72</dim>
				</port>
			</input>
			<output>
				<port id="1" names="StatefulPartitionedCall/3d_unet_decathlon/encode_b/Relu:0" precision="FP32">
					<dim>1</dim>
					<dim>32</dim>
					<dim>72</dim>
					<dim>72</dim>
					<dim>72</dim>
				</port>
			</output>
		</layer>
		<layer id="24" name="StatefulPartitionedCall/3d_unet_decathlon/pool_b/MaxPool3D" type="MaxPool" version="opset8">
			<data auto_pad="valid" axis="0" dilations="1, 1, 1" index_element_type="i64" kernel="2, 2, 2" pads_begin="0, 0, 0" pads_end="0, 0, 0" rounding_type="floor" strides="2, 2, 2"/>
			<rt_info>
				<attribute name="fused_names" value="StatefulPartitionedCall/3d_unet_decathlon/pool_b/MaxPool3D" version="0"/>
			</rt_info>
			<input>
				<port id="0" precision="FP32">
					<dim>1</dim>
					<dim>32</dim>
					<dim>72</dim>
					<dim>72</dim>
					<dim>72</dim>
				</port>
			</input>
			<output>
				<port id="1" names="StatefulPartitionedCall/3d_unet_decathlon/pool_b/MaxPool3D:0" precision="FP32">
					<dim>1</dim>
					<dim>32</dim>
					<dim>36</dim>
					<dim>36</dim>
					<dim>36</dim>
				</port>
				<port id="2" precision="I64">
					<dim>1</dim>
					<dim>32</dim>
					<dim>36</dim>
					<dim>36</dim>
					<dim>36</dim>
				</port>
			</output>
		</layer>
		<layer id="25" name="StatefulPartitionedCall/3d_unet_decathlon/encode_c_bn_0/FusedBatchNormV3/mean/Fused_Mul__copy" type="Const" version="opset1">
			<data element_type="f32" offset="195688" shape="64, 32, 3, 3, 3" size="221184"/>
			<rt_info>
				<attribute name="fused_names" value="StatefulPartitionedCall/3d_unet_decathlon/encode_c_bn_0/FusedBatchNormV3/mean/Fused_Mul__copy" version="0"/>
			</rt_info>
			<output>
				<port id="0" names="StatefulPartitionedCall/3d_unet_decathlon/encode_c_conv_0/Conv3D/ReadVariableOp:0" precision="FP32">
					<dim>64</dim>
					<dim>32</dim>
					<dim>3</dim>
					<dim>3</dim>
					<dim>3</dim>
				</port>
			</output>
		</layer>
		<layer id="26" name="StatefulPartitionedCall/3d_unet_decathlon/encode_c_conv_0/Conv3D" type="Convolution" version="opset1">
			<data auto_pad="same_upper" dilations="1, 1, 1" pads_begin="0, 0, 0" pads_end="0, 0, 0" strides="1, 1, 1"/>
			<rt_info>
				<attribute name="fused_names" value="StatefulPartitionedCall/3d_unet_decathlon/encode_c_conv_0/Conv3D" version="0"/>
			</rt_info>
			<input>
				<port id="0" precision="FP32">
					<dim>1</dim>
					<dim>32</dim>
					<dim>36</dim>
					<dim>36</dim>
					<dim>36</dim>
				</port>
				<port id="1" precision="FP32">
					<dim>64</dim>
					<dim>32</dim>
					<dim>3</dim>
					<dim>3</dim>
					<dim>3</dim>
				</port>
			</input>
			<output>
				<port id="2" precision="FP32">
					<dim>1</dim>
					<dim>64</dim>
					<dim>36</dim>
					<dim>36</dim>
					<dim>36</dim>
				</port>
			</output>
		</layer>
		<layer id="27" name="data_add_70377042" type="Const" version="opset1">
			<data element_type="f32" offset="416872" shape="1, 64, 1, 1, 1" size="256"/>
			<rt_info>
				<attribute name="fused_names" value="data_add_70377042" version="0"/>
			</rt_info>
			<output>
				<port id="0" precision="FP32">
					<dim>1</dim>
					<dim>64</dim>
					<dim>1</dim>
					<dim>1</dim>
					<dim>1</dim>
				</port>
			</output>
		</layer>
		<layer id="28" name="StatefulPartitionedCall/3d_unet_decathlon/encode_c_conv_0/BiasAdd/Add/Fused_Add_" type="Add" version="opset1">
			<data auto_broadcast="numpy"/>
			<rt_info>
				<attribute name="fused_names" value="StatefulPartitionedCall/3d_unet_decathlon/encode_c_conv_0/BiasAdd/Add/Fused_Add_" version="0"/>
			</rt_info>
			<input>
				<port id="0" precision="FP32">
					<dim>1</dim>
					<dim>64</dim>
					<dim>36</dim>
					<dim>36</dim>
					<dim>36</dim>
				</port>
				<port id="1" precision="FP32">
					<dim>1</dim>
					<dim>64</dim>
					<dim>1</dim>
					<dim>1</dim>
					<dim>1</dim>
				</port>
			</input>
			<output>
				<port id="2" names="StatefulPartitionedCall/3d_unet_decathlon/encode_c_bn_0/FusedBatchNormV3:0" precision="FP32">
					<dim>1</dim>
					<dim>64</dim>
					<dim>36</dim>
					<dim>36</dim>
					<dim>36</dim>
				</port>
			</output>
		</layer>
		<layer id="29" name="StatefulPartitionedCall/3d_unet_decathlon/encode_c_relu_0/Relu" type="ReLU" version="opset1">
			<rt_info>
				<attribute name="fused_names" value="StatefulPartitionedCall/3d_unet_decathlon/encode_c_relu_0/Relu" version="0"/>
			</rt_info>
			<input>
				<port id="0" precision="FP32">
					<dim>1</dim>
					<dim>64</dim>
					<dim>36</dim>
					<dim>36</dim>
					<dim>36</dim>
				</port>
			</input>
			<output>
				<port id="1" names="StatefulPartitionedCall/3d_unet_decathlon/encode_c_relu_0/Relu:0" precision="FP32">
					<dim>1</dim>
					<dim>64</dim>
					<dim>36</dim>
					<dim>36</dim>
					<dim>36</dim>
				</port>
			</output>
		</layer>
		<layer id="30" name="StatefulPartitionedCall/3d_unet_decathlon/encode_c_bn_1/FusedBatchNormV3/mean/Fused_Mul__copy" type="Const" version="opset1">
			<data element_type="f32" offset="417128" shape="64, 64, 3, 3, 3" size="442368"/>
			<rt_info>
				<attribute name="fused_names" value="StatefulPartitionedCall/3d_unet_decathlon/encode_c_bn_1/FusedBatchNormV3/mean/Fused_Mul__copy" version="0"/>
			</rt_info>
			<output>
				<port id="0" names="StatefulPartitionedCall/3d_unet_decathlon/encode_c_conv_1/Conv3D/ReadVariableOp:0" precision="FP32">
					<dim>64</dim>
					<dim>64</dim>
					<dim>3</dim>
					<dim>3</dim>
					<dim>3</dim>
				</port>
			</output>
		</layer>
		<layer id="31" name="StatefulPartitionedCall/3d_unet_decathlon/encode_c_conv_1/Conv3D" type="Convolution" version="opset1">
			<data auto_pad="same_upper" dilations="1, 1, 1" pads_begin="0, 0, 0" pads_end="0, 0, 0" strides="1, 1, 1"/>
			<rt_info>
				<attribute name="fused_names" value="StatefulPartitionedCall/3d_unet_decathlon/encode_c_conv_1/Conv3D" version="0"/>
			</rt_info>
			<input>
				<port id="0" precision="FP32">
					<dim>1</dim>
					<dim>64</dim>
					<dim>36</dim>
					<dim>36</dim>
					<dim>36</dim>
				</port>
				<port id="1" precision="FP32">
					<dim>64</dim>
					<dim>64</dim>
					<dim>3</dim>
					<dim>3</dim>
					<dim>3</dim>
				</port>
			</input>
			<output>
				<port id="2" precision="FP32">
					<dim>1</dim>
					<dim>64</dim>
					<dim>36</dim>
					<dim>36</dim>
					<dim>36</dim>
				</port>
			</output>
		</layer>
		<layer id="32" name="data_add_70457050" type="Const" version="opset1">
			<data element_type="f32" offset="859496" shape="1, 64, 1, 1, 1" size="256"/>
			<rt_info>
				<attribute name="fused_names" value="data_add_70457050" version="0"/>
			</rt_info>
			<output>
				<port id="0" precision="FP32">
					<dim>1</dim>
					<dim>64</dim>
					<dim>1</dim>
					<dim>1</dim>
					<dim>1</dim>
				</port>
			</output>
		</layer>
		<layer id="33" name="StatefulPartitionedCall/3d_unet_decathlon/encode_c_conv_1/BiasAdd/Add/Fused_Add_" type="Add" version="opset1">
			<data auto_broadcast="numpy"/>
			<rt_info>
				<attribute name="fused_names" value="StatefulPartitionedCall/3d_unet_decathlon/encode_c_conv_1/BiasAdd/Add/Fused_Add_" version="0"/>
			</rt_info>
			<input>
				<port id="0" precision="FP32">
					<dim>1</dim>
					<dim>64</dim>
					<dim>36</dim>
					<dim>36</dim>
					<dim>36</dim>
				</port>
				<port id="1" precision="FP32">
					<dim>1</dim>
					<dim>64</dim>
					<dim>1</dim>
					<dim>1</dim>
					<dim>1</dim>
				</port>
			</input>
			<output>
				<port id="2" names="StatefulPartitionedCall/3d_unet_decathlon/encode_c_bn_1/FusedBatchNormV3:0" precision="FP32">
					<dim>1</dim>
					<dim>64</dim>
					<dim>36</dim>
					<dim>36</dim>
					<dim>36</dim>
				</port>
			</output>
		</layer>
		<layer id="34" name="StatefulPartitionedCall/3d_unet_decathlon/encode_c/Relu" type="ReLU" version="opset1">
			<rt_info>
				<attribute name="fused_names" value="StatefulPartitionedCall/3d_unet_decathlon/encode_c/Relu" version="0"/>
			</rt_info>
			<input>
				<port id="0" precision="FP32">
					<dim>1</dim>
					<dim>64</dim>
					<dim>36</dim>
					<dim>36</dim>
					<dim>36</dim>
				</port>
			</input>
			<output>
				<port id="1" names="StatefulPartitionedCall/3d_unet_decathlon/encode_c/Relu:0" precision="FP32">
					<dim>1</dim>
					<dim>64</dim>
					<dim>36</dim>
					<dim>36</dim>
					<dim>36</dim>
				</port>
			</output>
		</layer>
		<layer id="35" name="StatefulPartitionedCall/3d_unet_decathlon/pool_c/MaxPool3D" type="MaxPool" version="opset8">
			<data auto_pad="valid" axis="0" dilations="1, 1, 1" index_element_type="i64" kernel="2, 2, 2" pads_begin="0, 0, 0" pads_end="0, 0, 0" rounding_type="floor" strides="2, 2, 2"/>
			<rt_info>
				<attribute name="fused_names" value="StatefulPartitionedCall/3d_unet_decathlon/pool_c/MaxPool3D" version="0"/>
			</rt_info>
			<input>
				<port id="0" precision="FP32">
					<dim>1</dim>
					<dim>64</dim>
					<dim>36</dim>
					<dim>36</dim>
					<dim>36</dim>
				</port>
			</input>
			<output>
				<port id="1" names="StatefulPartitionedCall/3d_unet_decathlon/pool_c/MaxPool3D:0" precision="FP32">
					<dim>1</dim>
					<dim>64</dim>
					<dim>18</dim>
					<dim>18</dim>
					<dim>18</dim>
				</port>
				<port id="2" precision="I64">
					<dim>1</dim>
					<dim>64</dim>
					<dim>18</dim>
					<dim>18</dim>
					<dim>18</dim>
				</port>
			</output>
		</layer>
		<layer id="36" name="StatefulPartitionedCall/3d_unet_decathlon/encode_d_bn_0/FusedBatchNormV3/mean/Fused_Mul__copy" type="Const" version="opset1">
			<data element_type="f32" offset="859752" shape="128, 64, 3, 3, 3" size="884736"/>
			<rt_info>
				<attribute name="fused_names" value="StatefulPartitionedCall/3d_unet_decathlon/encode_d_bn_0/FusedBatchNormV3/mean/Fused_Mul__copy" version="0"/>
			</rt_info>
			<output>
				<port id="0" names="StatefulPartitionedCall/3d_unet_decathlon/encode_d_conv_0/Conv3D/ReadVariableOp:0" precision="FP32">
					<dim>128</dim>
					<dim>64</dim>
					<dim>3</dim>
					<dim>3</dim>
					<dim>3</dim>
				</port>
			</output>
		</layer>
		<layer id="37" name="StatefulPartitionedCall/3d_unet_decathlon/encode_d_conv_0/Conv3D" type="Convolution" version="opset1">
			<data auto_pad="same_upper" dilations="1, 1, 1" pads_begin="0, 0, 0" pads_end="0, 0, 0" strides="1, 1, 1"/>
			<rt_info>
				<attribute name="fused_names" value="StatefulPartitionedCall/3d_unet_decathlon/encode_d_conv_0/Conv3D" version="0"/>
			</rt_info>
			<input>
				<port id="0" precision="FP32">
					<dim>1</dim>
					<dim>64</dim>
					<dim>18</dim>
					<dim>18</dim>
					<dim>18</dim>
				</port>
				<port id="1" precision="FP32">
					<dim>128</dim>
					<dim>64</dim>
					<dim>3</dim>
					<dim>3</dim>
					<dim>3</dim>
				</port>
			</input>
			<output>
				<port id="2" precision="FP32">
					<dim>1</dim>
					<dim>128</dim>
					<dim>18</dim>
					<dim>18</dim>
					<dim>18</dim>
				</port>
			</output>
		</layer>
		<layer id="38" name="data_add_70537058" type="Const" version="opset1">
			<data element_type="f32" offset="1744488" shape="1, 128, 1, 1, 1" size="512"/>
			<rt_info>
				<attribute name="fused_names" value="data_add_70537058" version="0"/>
			</rt_info>
			<output>
				<port id="0" precision="FP32">
					<dim>1</dim>
					<dim>128</dim>
					<dim>1</dim>
					<dim>1</dim>
					<dim>1</dim>
				</port>
			</output>
		</layer>
		<layer id="39" name="StatefulPartitionedCall/3d_unet_decathlon/encode_d_conv_0/BiasAdd/Add/Fused_Add_" type="Add" version="opset1">
			<data auto_broadcast="numpy"/>
			<rt_info>
				<attribute name="fused_names" value="StatefulPartitionedCall/3d_unet_decathlon/encode_d_conv_0/BiasAdd/Add/Fused_Add_" version="0"/>
			</rt_info>
			<input>
				<port id="0" precision="FP32">
					<dim>1</dim>
					<dim>128</dim>
					<dim>18</dim>
					<dim>18</dim>
					<dim>18</dim>
				</port>
				<port id="1" precision="FP32">
					<dim>1</dim>
					<dim>128</dim>
					<dim>1</dim>
					<dim>1</dim>
					<dim>1</dim>
				</port>
			</input>
			<output>
				<port id="2" names="StatefulPartitionedCall/3d_unet_decathlon/encode_d_bn_0/FusedBatchNormV3:0" precision="FP32">
					<dim>1</dim>
					<dim>128</dim>
					<dim>18</dim>
					<dim>18</dim>
					<dim>18</dim>
				</port>
			</output>
		</layer>
		<layer id="40" name="StatefulPartitionedCall/3d_unet_decathlon/encode_d_relu_0/Relu" type="ReLU" version="opset1">
			<rt_info>
				<attribute name="fused_names" value="StatefulPartitionedCall/3d_unet_decathlon/encode_d_relu_0/Relu" version="0"/>
			</rt_info>
			<input>
				<port id="0" precision="FP32">
					<dim>1</dim>
					<dim>128</dim>
					<dim>18</dim>
					<dim>18</dim>
					<dim>18</dim>
				</port>
			</input>
			<output>
				<port id="1" names="StatefulPartitionedCall/3d_unet_decathlon/encode_d_relu_0/Relu:0" precision="FP32">
					<dim>1</dim>
					<dim>128</dim>
					<dim>18</dim>
					<dim>18</dim>
					<dim>18</dim>
				</port>
			</output>
		</layer>
		<layer id="41" name="StatefulPartitionedCall/3d_unet_decathlon/encode_d_bn_1/FusedBatchNormV3/mean/Fused_Mul__copy" type="Const" version="opset1">
			<data element_type="f32" offset="1745000" shape="128, 128, 3, 3, 3" size="1769472"/>
			<rt_info>
				<attribute name="fused_names" value="StatefulPartitionedCall/3d_unet_decathlon/encode_d_bn_1/FusedBatchNormV3/mean/Fused_Mul__copy" version="0"/>
			</rt_info>
			<output>
				<port id="0" names="StatefulPartitionedCall/3d_unet_decathlon/encode_d_conv_1/Conv3D/ReadVariableOp:0" precision="FP32">
					<dim>128</dim>
					<dim>128</dim>
					<dim>3</dim>
					<dim>3</dim>
					<dim>3</dim>
				</port>
			</output>
		</layer>
		<layer id="42" name="StatefulPartitionedCall/3d_unet_decathlon/encode_d_conv_1/Conv3D" type="Convolution" version="opset1">
			<data auto_pad="same_upper" dilations="1, 1, 1" pads_begin="0, 0, 0" pads_end="0, 0, 0" strides="1, 1, 1"/>
			<rt_info>
				<attribute name="fused_names" value="StatefulPartitionedCall/3d_unet_decathlon/encode_d_conv_1/Conv3D" version="0"/>
			</rt_info>
			<input>
				<port id="0" precision="FP32">
					<dim>1</dim>
					<dim>128</dim>
					<dim>18</dim>
					<dim>18</dim>
					<dim>18</dim>
				</port>
				<port id="1" precision="FP32">
					<dim>128</dim>
					<dim>128</dim>
					<dim>3</dim>
					<dim>3</dim>
					<dim>3</dim>
				</port>
			</input>
			<output>
				<port id="2" precision="FP32">
					<dim>1</dim>
					<dim>128</dim>
					<dim>18</dim>
					<dim>18</dim>
					<dim>18</dim>
				</port>
			</output>
		</layer>
		<layer id="43" name="data_add_70617066" type="Const" version="opset1">
			<data element_type="f32" offset="3514472" shape="1, 128, 1, 1, 1" size="512"/>
			<rt_info>
				<attribute name="fused_names" value="data_add_70617066" version="0"/>
			</rt_info>
			<output>
				<port id="0" precision="FP32">
					<dim>1</dim>
					<dim>128</dim>
					<dim>1</dim>
					<dim>1</dim>
					<dim>1</dim>
				</port>
			</output>
		</layer>
		<layer id="44" name="StatefulPartitionedCall/3d_unet_decathlon/encode_d_conv_1/BiasAdd/Add/Fused_Add_" type="Add" version="opset1">
			<data auto_broadcast="numpy"/>
			<rt_info>
				<attribute name="fused_names" value="StatefulPartitionedCall/3d_unet_decathlon/encode_d_conv_1/BiasAdd/Add/Fused_Add_" version="0"/>
			</rt_info>
			<input>
				<port id="0" precision="FP32">
					<dim>1</dim>
					<dim>128</dim>
					<dim>18</dim>
					<dim>18</dim>
					<dim>18</dim>
				</port>
				<port id="1" precision="FP32">
					<dim>1</dim>
					<dim>128</dim>
					<dim>1</dim>
					<dim>1</dim>
					<dim>1</dim>
				</port>
			</input>
			<output>
				<port id="2" names="StatefulPartitionedCall/3d_unet_decathlon/encode_d_bn_1/FusedBatchNormV3:0" precision="FP32">
					<dim>1</dim>
					<dim>128</dim>
					<dim>18</dim>
					<dim>18</dim>
					<dim>18</dim>
				</port>
			</output>
		</layer>
		<layer id="45" name="StatefulPartitionedCall/3d_unet_decathlon/encode_d/Relu" type="ReLU" version="opset1">
			<rt_info>
				<attribute name="fused_names" value="StatefulPartitionedCall/3d_unet_decathlon/encode_d/Relu" version="0"/>
			</rt_info>
			<input>
				<port id="0" precision="FP32">
					<dim>1</dim>
					<dim>128</dim>
					<dim>18</dim>
					<dim>18</dim>
					<dim>18</dim>
				</port>
			</input>
			<output>
				<port id="1" names="StatefulPartitionedCall/3d_unet_decathlon/encode_d/Relu:0" precision="FP32">
					<dim>1</dim>
					<dim>128</dim>
					<dim>18</dim>
					<dim>18</dim>
					<dim>18</dim>
				</port>
			</output>
		</layer>
		<layer id="46" name="StatefulPartitionedCall/3d_unet_decathlon/pool_d/MaxPool3D" type="MaxPool" version="opset8">
			<data auto_pad="valid" axis="0" dilations="1, 1, 1" index_element_type="i64" kernel="2, 2, 2" pads_begin="0, 0, 0" pads_end="0, 0, 0" rounding_type="floor" strides="2, 2, 2"/>
			<rt_info>
				<attribute name="fused_names" value="StatefulPartitionedCall/3d_unet_decathlon/pool_d/MaxPool3D" version="0"/>
			</rt_info>
			<input>
				<port id="0" precision="FP32">
					<dim>1</dim>
					<dim>128</dim>
					<dim>18</dim>
					<dim>18</dim>
					<dim>18</dim>
				</port>
			</input>
			<output>
				<port id="1" names="StatefulPartitionedCall/3d_unet_decathlon/pool_d/MaxPool3D:0" precision="FP32">
					<dim>1</dim>
					<dim>128</dim>
					<dim>9</dim>
					<dim>9</dim>
					<dim>9</dim>
				</port>
				<port id="2" precision="I64">
					<dim>1</dim>
					<dim>128</dim>
					<dim>9</dim>
					<dim>9</dim>
					<dim>9</dim>
				</port>
			</output>
		</layer>
		<layer id="47" name="StatefulPartitionedCall/3d_unet_decathlon/encode_e_bn_0/FusedBatchNormV3/mean/Fused_Mul__copy" type="Const" version="opset1">
			<data element_type="f32" offset="3514984" shape="256, 128, 3, 3, 3" size="3538944"/>
			<rt_info>
				<attribute name="fused_names" value="StatefulPartitionedCall/3d_unet_decathlon/encode_e_bn_0/FusedBatchNormV3/mean/Fused_Mul__copy" version="0"/>
			</rt_info>
			<output>
				<port id="0" names="StatefulPartitionedCall/3d_unet_decathlon/encode_e_conv_0/Conv3D/ReadVariableOp:0" precision="FP32">
					<dim>256</dim>
					<dim>128</dim>
					<dim>3</dim>
					<dim>3</dim>
					<dim>3</dim>
				</port>
			</output>
		</layer>
		<layer id="48" name="StatefulPartitionedCall/3d_unet_decathlon/encode_e_conv_0/Conv3D" type="Convolution" version="opset1">
			<data auto_pad="same_upper" dilations="1, 1, 1" pads_begin="0, 0, 0" pads_end="0, 0, 0" strides="1, 1, 1"/>
			<rt_info>
				<attribute name="fused_names" value="StatefulPartitionedCall/3d_unet_decathlon/encode_e_conv_0/Conv3D" version="0"/>
			</rt_info>
			<input>
				<port id="0" precision="FP32">
					<dim>1</dim>
					<dim>128</dim>
					<dim>9</dim>
					<dim>9</dim>
					<dim>9</dim>
				</port>
				<port id="1" precision="FP32">
					<dim>256</dim>
					<dim>128</dim>
					<dim>3</dim>
					<dim>3</dim>
					<dim>3</dim>
				</port>
			</input>
			<output>
				<port id="2" precision="FP32">
					<dim>1</dim>
					<dim>256</dim>
					<dim>9</dim>
					<dim>9</dim>
					<dim>9</dim>
				</port>
			</output>
		</layer>
		<layer id="49" name="data_add_70697074" type="Const" version="opset1">
			<data element_type="f32" offset="7053928" shape="1, 256, 1, 1, 1" size="1024"/>
			<rt_info>
				<attribute name="fused_names" value="data_add_70697074" version="0"/>
			</rt_info>
			<output>
				<port id="0" precision="FP32">
					<dim>1</dim>
					<dim>256</dim>
					<dim>1</dim>
					<dim>1</dim>
					<dim>1</dim>
				</port>
			</output>
		</layer>
		<layer id="50" name="StatefulPartitionedCall/3d_unet_decathlon/encode_e_conv_0/BiasAdd/Add/Fused_Add_" type="Add" version="opset1">
			<data auto_broadcast="numpy"/>
			<rt_info>
				<attribute name="fused_names" value="StatefulPartitionedCall/3d_unet_decathlon/encode_e_conv_0/BiasAdd/Add/Fused_Add_" version="0"/>
			</rt_info>
			<input>
				<port id="0" precision="FP32">
					<dim>1</dim>
					<dim>256</dim>
					<dim>9</dim>
					<dim>9</dim>
					<dim>9</dim>
				</port>
				<port id="1" precision="FP32">
					<dim>1</dim>
					<dim>256</dim>
					<dim>1</dim>
					<dim>1</dim>
					<dim>1</dim>
				</port>
			</input>
			<output>
				<port id="2" names="StatefulPartitionedCall/3d_unet_decathlon/encode_e_bn_0/FusedBatchNormV3:0" precision="FP32">
					<dim>1</dim>
					<dim>256</dim>
					<dim>9</dim>
					<dim>9</dim>
					<dim>9</dim>
				</port>
			</output>
		</layer>
		<layer id="51" name="StatefulPartitionedCall/3d_unet_decathlon/encode_e_relu_0/Relu" type="ReLU" version="opset1">
			<rt_info>
				<attribute name="fused_names" value="StatefulPartitionedCall/3d_unet_decathlon/encode_e_relu_0/Relu" version="0"/>
			</rt_info>
			<input>
				<port id="0" precision="FP32">
					<dim>1</dim>
					<dim>256</dim>
					<dim>9</dim>
					<dim>9</dim>
					<dim>9</dim>
				</port>
			</input>
			<output>
				<port id="1" names="StatefulPartitionedCall/3d_unet_decathlon/encode_e_relu_0/Relu:0" precision="FP32">
					<dim>1</dim>
					<dim>256</dim>
					<dim>9</dim>
					<dim>9</dim>
					<dim>9</dim>
				</port>
			</output>
		</layer>
		<layer id="52" name="StatefulPartitionedCall/3d_unet_decathlon/encode_e_bn_1/FusedBatchNormV3/mean/Fused_Mul__copy" type="Const" version="opset1">
			<data element_type="f32" offset="7054952" shape="256, 256, 3, 3, 3" size="7077888"/>
			<rt_info>
				<attribute name="fused_names" value="StatefulPartitionedCall/3d_unet_decathlon/encode_e_bn_1/FusedBatchNormV3/mean/Fused_Mul__copy" version="0"/>
			</rt_info>
			<output>
				<port id="0" names="StatefulPartitionedCall/3d_unet_decathlon/encode_e_conv_1/Conv3D/ReadVariableOp:0" precision="FP32">
					<dim>256</dim>
					<dim>256</dim>
					<dim>3</dim>
					<dim>3</dim>
					<dim>3</dim>
				</port>
			</output>
		</layer>
		<layer id="53" name="StatefulPartitionedCall/3d_unet_decathlon/encode_e_conv_1/Conv3D" type="Convolution" version="opset1">
			<data auto_pad="same_upper" dilations="1, 1, 1" pads_begin="0, 0, 0" pads_end="0, 0, 0" strides="1, 1, 1"/>
			<rt_info>
				<attribute name="fused_names" value="StatefulPartitionedCall/3d_unet_decathlon/encode_e_conv_1/Conv3D" version="0"/>
			</rt_info>
			<input>
				<port id="0" precision="FP32">
					<dim>1</dim>
					<dim>256</dim>
					<dim>9</dim>
					<dim>9</dim>
					<dim>9</dim>
				</port>
				<port id="1" precision="FP32">
					<dim>256</dim>
					<dim>256</dim>
					<dim>3</dim>
					<dim>3</dim>
					<dim>3</dim>
				</port>
			</input>
			<output>
				<port id="2" precision="FP32">
					<dim>1</dim>
					<dim>256</dim>
					<dim>9</dim>
					<dim>9</dim>
					<dim>9</dim>
				</port>
			</output>
		</layer>
		<layer id="54" name="data_add_70777082" type="Const" version="opset1">
			<data element_type="f32" offset="14132840" shape="1, 256, 1, 1, 1" size="1024"/>
			<rt_info>
				<attribute name="fused_names" value="data_add_70777082" version="0"/>
			</rt_info>
			<output>
				<port id="0" precision="FP32">
					<dim>1</dim>
					<dim>256</dim>
					<dim>1</dim>
					<dim>1</dim>
					<dim>1</dim>
				</port>
			</output>
		</layer>
		<layer id="55" name="StatefulPartitionedCall/3d_unet_decathlon/encode_e_conv_1/BiasAdd/Add/Fused_Add_" type="Add" version="opset1">
			<data auto_broadcast="numpy"/>
			<rt_info>
				<attribute name="fused_names" value="StatefulPartitionedCall/3d_unet_decathlon/encode_e_conv_1/BiasAdd/Add/Fused_Add_" version="0"/>
			</rt_info>
			<input>
				<port id="0" precision="FP32">
					<dim>1</dim>
					<dim>256</dim>
					<dim>9</dim>
					<dim>9</dim>
					<dim>9</dim>
				</port>
				<port id="1" precision="FP32">
					<dim>1</dim>
					<dim>256</dim>
					<dim>1</dim>
					<dim>1</dim>
					<dim>1</dim>
				</port>
			</input>
			<output>
				<port id="2" names="StatefulPartitionedCall/3d_unet_decathlon/encode_e_bn_1/FusedBatchNormV3:0" precision="FP32">
					<dim>1</dim>
					<dim>256</dim>
					<dim>9</dim>
					<dim>9</dim>
					<dim>9</dim>
				</port>
			</output>
		</layer>
		<layer id="56" name="StatefulPartitionedCall/3d_unet_decathlon/encode_e/Relu" type="ReLU" version="opset1">
			<rt_info>
				<attribute name="fused_names" value="StatefulPartitionedCall/3d_unet_decathlon/encode_e/Relu" version="0"/>
			</rt_info>
			<input>
				<port id="0" precision="FP32">
					<dim>1</dim>
					<dim>256</dim>
					<dim>9</dim>
					<dim>9</dim>
					<dim>9</dim>
				</port>
			</input>
			<output>
				<port id="1" names="StatefulPartitionedCall/3d_unet_decathlon/encode_e/Relu:0" precision="FP32">
					<dim>1</dim>
					<dim>256</dim>
					<dim>9</dim>
					<dim>9</dim>
					<dim>9</dim>
				</port>
			</output>
		</layer>
		<layer id="57" name="StatefulPartitionedCall/3d_unet_decathlon/transconv_e/conv3d_transpose/ReadVariableOp" type="Const" version="opset1">
			<data element_type="f32" offset="14133864" shape="256, 128, 2, 2, 2" size="1048576"/>
			<rt_info>
				<attribute name="fused_names" value="StatefulPartitionedCall/3d_unet_decathlon/transconv_e/conv3d_transpose/ReadVariableOp" version="0"/>
			</rt_info>
			<output>
				<port id="0" names="StatefulPartitionedCall/3d_unet_decathlon/transconv_e/conv3d_transpose/ReadVariableOp:0" precision="FP32">
					<dim>256</dim>
					<dim>128</dim>
					<dim>2</dim>
					<dim>2</dim>
					<dim>2</dim>
				</port>
			</output>
		</layer>
		<layer id="58" name="StatefulPartitionedCall/3d_unet_decathlon/transconv_e/Shape" type="ShapeOf" version="opset3">
			<data output_type="i32"/>
			<rt_info>
				<attribute name="fused_names" value="StatefulPartitionedCall/3d_unet_decathlon/transconv_e/Shape" version="0"/>
			</rt_info>
			<input>
				<port id="0" precision="FP32">
					<dim>1</dim>
					<dim>256</dim>
					<dim>9</dim>
					<dim>9</dim>
					<dim>9</dim>
				</port>
			</input>
			<output>
				<port id="1" precision="I32">
					<dim>5</dim>
				</port>
			</output>
		</layer>
		<layer id="59" name="StatefulPartitionedCall/3d_unet_decathlon/transconv_e/Shape/GatherNCHWtoNHWC_input_port_1/value907813617" type="Const" version="opset1">
			<data element_type="i32" offset="15182440" shape="5" size="20"/>
			<rt_info>
				<attribute name="fused_names" value="StatefulPartitionedCall/3d_unet_decathlon/transconv_e/Shape/GatherNCHWtoNHWC_input_port_1/value907813617" version="0"/>
			</rt_info>
			<output>
				<port id="0" precision="I32">
					<dim>5</dim>
				</port>
			</output>
		</layer>
		<layer id="60" name="StatefulPartitionedCall/3d_unet_decathlon/transconv_e/Shape/GatherNCHWtoNHWC_input_port_2/value908013479" type="Const" version="opset1">
			<data element_type="i64" offset="15182460" shape="" size="8"/>
			<rt_info>
				<attribute name="fused_names" value="StatefulPartitionedCall/3d_unet_decathlon/transconv_e/Shape/GatherNCHWtoNHWC_input_port_2/value908013479" version="0"/>
			</rt_info>
			<output>
				<port id="0" precision="I64"/>
			</output>
		</layer>
		<layer id="61" name="StatefulPartitionedCall/3d_unet_decathlon/transconv_e/Shape/GatherNCHWtoNHWC" type="Gather" version="opset8">
			<data batch_dims="0"/>
			<rt_info>
				<attribute name="fused_names" value="StatefulPartitionedCall/3d_unet_decathlon/transconv_e/Shape/GatherNCHWtoNHWC, StatefulPartitionedCall/3d_unet_decathlon/transconv_e/Shape/GatherNCHWtoNHWC_input_port_1/value907813617, StatefulPartitionedCall/3d_unet_decathlon/transconv_e/Shape/GatherNCHWtoNHWC_input_port_2/value908013479" version="0"/>
			</rt_info>
			<input>
				<port id="0" precision="I32">
					<dim>5</dim>
				</port>
				<port id="1" precision="I32">
					<dim>5</dim>
				</port>
				<port id="2" precision="I64"/>
			</input>
			<output>
				<port id="3" names="StatefulPartitionedCall/3d_unet_decathlon/transconv_e/Shape:0" precision="I32">
					<dim>5</dim>
				</port>
			</output>
		</layer>
		<layer id="62" name="StatefulPartitionedCall/3d_unet_decathlon/transconv_e/strided_slice/stack" type="Const" version="opset1">
			<data element_type="i64" offset="15182460" shape="1" size="8"/>
			<rt_info>
				<attribute name="fused_names" value="StatefulPartitionedCall/3d_unet_decathlon/transconv_e/strided_slice/stack" version="0"/>
			</rt_info>
			<output>
				<port id="0" names="StatefulPartitionedCall/3d_unet_decathlon/transconv_e/strided_slice/stack:0" precision="I64">
					<dim>1</dim>
				</port>
			</output>
		</layer>
		<layer id="63" name="StatefulPartitionedCall/3d_unet_decathlon/transconv_e/strided_slice/stack_1" type="Const" version="opset1">
			<data element_type="i64" offset="15182468" shape="1" size="8"/>
			<rt_info>
				<attribute name="fused_names" value="StatefulPartitionedCall/3d_unet_decathlon/transconv_e/strided_slice/stack_1" version="0"/>
			</rt_info>
			<output>
				<port id="0" names="StatefulPartitionedCall/3d_unet_decathlon/transconv_e/strided_slice/stack_1:0" precision="I64">
					<dim>1</dim>
				</port>
			</output>
		</layer>
		<layer id="64" name="StatefulPartitionedCall/3d_unet_decathlon/transconv_e/strided_slice/stack_2" type="Const" version="opset1">
			<data element_type="i64" offset="15182468" shape="1" size="8"/>
			<rt_info>
				<attribute name="fused_names" value="StatefulPartitionedCall/3d_unet_decathlon/transconv_e/strided_slice/stack_2" version="0"/>
			</rt_info>
			<output>
				<port id="0" names="StatefulPartitionedCall/3d_unet_decathlon/transconv_e/strided_slice/stack_2:0" precision="I64">
					<dim>1</dim>
				</port>
			</output>
		</layer>
		<layer id="65" name="StatefulPartitionedCall/3d_unet_decathlon/transconv_e/strided_slice" type="StridedSlice" version="opset1">
			<data begin_mask="0" ellipsis_mask="0" end_mask="0" new_axis_mask="0" shrink_axis_mask="1"/>
			<rt_info>
				<attribute name="fused_names" value="StatefulPartitionedCall/3d_unet_decathlon/transconv_e/strided_slice, StatefulPartitionedCall/3d_unet_decathlon/transconv_e/strided_slice/stack, StatefulPartitionedCall/3d_unet_decathlon/transconv_e/strided_slice/stack_1, StatefulPartitionedCall/3d_unet_decathlon/transconv_e/strided_slice/stack_2" version="0"/>
			</rt_info>
			<input>
				<port id="0" precision="I32">
					<dim>5</dim>
				</port>
				<port id="1" precision="I64">
					<dim>1</dim>
				</port>
				<port id="2" precision="I64">
					<dim>1</dim>
				</port>
				<port id="3" precision="I64">
					<dim>1</dim>
				</port>
			</input>
			<output>
				<port id="4" names="StatefulPartitionedCall/3d_unet_decathlon/transconv_e/strided_slice:0" precision="I32"/>
			</output>
		</layer>
		<layer id="66" name="StatefulPartitionedCall/3d_unet_decathlon/transconv_e/stack/Unsqueeze_input_port_1/value" type="Const" version="opset1">
			<data element_type="i64" offset="15182460" shape="1" size="8"/>
			<rt_info>
				<attribute name="fused_names" value="StatefulPartitionedCall/3d_unet_decathlon/transconv_e/stack/Unsqueeze_input_port_1/value" version="0"/>
			</rt_info>
			<output>
				<port id="0" precision="I64">
					<dim>1</dim>
				</port>
			</output>
		</layer>
		<layer id="67" name="StatefulPartitionedCall/3d_unet_decathlon/transconv_e/stack/Unsqueeze" type="Unsqueeze" version="opset1">
			<rt_info>
				<attribute name="fused_names" value="StatefulPartitionedCall/3d_unet_decathlon/transconv_e/stack/Unsqueeze, StatefulPartitionedCall/3d_unet_decathlon/transconv_e/stack/Unsqueeze_input_port_1/value" version="0"/>
			</rt_info>
			<input>
				<port id="0" precision="I32"/>
				<port id="1" precision="I64">
					<dim>1</dim>
				</port>
			</input>
			<output>
				<port id="2" precision="I32">
					<dim>1</dim>
				</port>
			</output>
		</layer>
		<layer id="68" name="StatefulPartitionedCall/3d_unet_decathlon/transconv_e/strided_slice_1/stack" type="Const" version="opset1">
			<data element_type="i64" offset="15182468" shape="1" size="8"/>
			<rt_info>
				<attribute name="fused_names" value="StatefulPartitionedCall/3d_unet_decathlon/transconv_e/strided_slice_1/stack" version="0"/>
			</rt_info>
			<output>
				<port id="0" names="StatefulPartitionedCall/3d_unet_decathlon/transconv_e/strided_slice_1/stack:0" precision="I64">
					<dim>1</dim>
				</port>
			</output>
		</layer>
		<layer id="69" name="StatefulPartitionedCall/3d_unet_decathlon/transconv_e/strided_slice_1/stack_1" type="Const" version="opset1">
			<data element_type="i64" offset="15182476" shape="1" size="8"/>
			<rt_info>
				<attribute name="fused_names" value="StatefulPartitionedCall/3d_unet_decathlon/transconv_e/strided_slice_1/stack_1" version="0"/>
			</rt_info>
			<output>
				<port id="0" names="StatefulPartitionedCall/3d_unet_decathlon/transconv_e/strided_slice_1/stack_1:0" precision="I64">
					<dim>1</dim>
				</port>
			</output>
		</layer>
		<layer id="70" name="StatefulPartitionedCall/3d_unet_decathlon/transconv_e/strided_slice_1/stack_2" type="Const" version="opset1">
			<data element_type="i64" offset="15182468" shape="1" size="8"/>
			<rt_info>
				<attribute name="fused_names" value="StatefulPartitionedCall/3d_unet_decathlon/transconv_e/strided_slice_1/stack_2" version="0"/>
			</rt_info>
			<output>
				<port id="0" names="StatefulPartitionedCall/3d_unet_decathlon/transconv_e/strided_slice_1/stack_2:0" precision="I64">
					<dim>1</dim>
				</port>
			</output>
		</layer>
		<layer id="71" name="StatefulPartitionedCall/3d_unet_decathlon/transconv_e/strided_slice_1" type="StridedSlice" version="opset1">
			<data begin_mask="0" ellipsis_mask="0" end_mask="0" new_axis_mask="0" shrink_axis_mask="1"/>
			<rt_info>
				<attribute name="fused_names" value="StatefulPartitionedCall/3d_unet_decathlon/transconv_e/strided_slice_1, StatefulPartitionedCall/3d_unet_decathlon/transconv_e/strided_slice_1/stack, StatefulPartitionedCall/3d_unet_decathlon/transconv_e/strided_slice_1/stack_1, StatefulPartitionedCall/3d_unet_decathlon/transconv_e/strided_slice_1/stack_2" version="0"/>
			</rt_info>
			<input>
				<port id="0" precision="I32">
					<dim>5</dim>
				</port>
				<port id="1" precision="I64">
					<dim>1</dim>
				</port>
				<port id="2" precision="I64">
					<dim>1</dim>
				</port>
				<port id="3" precision="I64">
					<dim>1</dim>
				</port>
			</input>
			<output>
				<port id="4" names="StatefulPartitionedCall/3d_unet_decathlon/transconv_e/strided_slice_1:0" precision="I32"/>
			</output>
		</layer>
		<layer id="72" name="StatefulPartitionedCall/3d_unet_decathlon/transconv_e/mul/y" type="Const" version="opset1">
			<data element_type="i32" offset="15182484" shape="" size="4"/>
			<rt_info>
				<attribute name="fused_names" value="StatefulPartitionedCall/3d_unet_decathlon/transconv_e/mul/y" version="0"/>
			</rt_info>
			<output>
				<port id="0" names="StatefulPartitionedCall/3d_unet_decathlon/transconv_e/mul/y:0" precision="I32"/>
			</output>
		</layer>
		<layer id="73" name="StatefulPartitionedCall/3d_unet_decathlon/transconv_e/mul" type="Multiply" version="opset1">
			<data auto_broadcast="numpy"/>
			<rt_info>
				<attribute name="fused_names" value="StatefulPartitionedCall/3d_unet_decathlon/transconv_e/mul, StatefulPartitionedCall/3d_unet_decathlon/transconv_e/mul/y" version="0"/>
			</rt_info>
			<input>
				<port id="0" precision="I32"/>
				<port id="1" precision="I32"/>
			</input>
			<output>
				<port id="2" names="StatefulPartitionedCall/3d_unet_decathlon/transconv_e/mul:0" precision="I32"/>
			</output>
		</layer>
		<layer id="74" name="StatefulPartitionedCall/3d_unet_decathlon/transconv_e/stack/Unsqueeze596_input_port_1/value" type="Const" version="opset1">
			<data element_type="i64" offset="15182460" shape="1" size="8"/>
			<rt_info>
				<attribute name="fused_names" value="StatefulPartitionedCall/3d_unet_decathlon/transconv_e/stack/Unsqueeze596_input_port_1/value" version="0"/>
			</rt_info>
			<output>
				<port id="0" precision="I64">
					<dim>1</dim>
				</port>
			</output>
		</layer>
		<layer id="75" name="StatefulPartitionedCall/3d_unet_decathlon/transconv_e/stack/Unsqueeze596" type="Unsqueeze" version="opset1">
			<rt_info>
				<attribute name="fused_names" value="StatefulPartitionedCall/3d_unet_decathlon/transconv_e/stack/Unsqueeze596, StatefulPartitionedCall/3d_unet_decathlon/transconv_e/stack/Unsqueeze596_input_port_1/value" version="0"/>
			</rt_info>
			<input>
				<port id="0" precision="I32"/>
				<port id="1" precision="I64">
					<dim>1</dim>
				</port>
			</input>
			<output>
				<port id="2" precision="I32">
					<dim>1</dim>
				</port>
			</output>
		</layer>
		<layer id="76" name="StatefulPartitionedCall/3d_unet_decathlon/transconv_e/strided_slice_2/stack" type="Const" version="opset1">
			<data element_type="i64" offset="15182476" shape="1" size="8"/>
			<rt_info>
				<attribute name="fused_names" value="StatefulPartitionedCall/3d_unet_decathlon/transconv_e/strided_slice_2/stack" version="0"/>
			</rt_info>
			<output>
				<port id="0" names="StatefulPartitionedCall/3d_unet_decathlon/transconv_e/strided_slice_2/stack:0" precision="I64">
					<dim>1</dim>
				</port>
			</output>
		</layer>
		<layer id="77" name="StatefulPartitionedCall/3d_unet_decathlon/transconv_e/strided_slice_2/stack_1" type="Const" version="opset1">
			<data element_type="i64" offset="15182488" shape="1" size="8"/>
			<rt_info>
				<attribute name="fused_names" value="StatefulPartitionedCall/3d_unet_decathlon/transconv_e/strided_slice_2/stack_1" version="0"/>
			</rt_info>
			<output>
				<port id="0" names="StatefulPartitionedCall/3d_unet_decathlon/transconv_e/strided_slice_2/stack_1:0" precision="I64">
					<dim>1</dim>
				</port>
			</output>
		</layer>
		<layer id="78" name="StatefulPartitionedCall/3d_unet_decathlon/transconv_e/strided_slice_2/stack_2" type="Const" version="opset1">
			<data element_type="i64" offset="15182468" shape="1" size="8"/>
			<rt_info>
				<attribute name="fused_names" value="StatefulPartitionedCall/3d_unet_decathlon/transconv_e/strided_slice_2/stack_2" version="0"/>
			</rt_info>
			<output>
				<port id="0" names="StatefulPartitionedCall/3d_unet_decathlon/transconv_e/strided_slice_2/stack_2:0" precision="I64">
					<dim>1</dim>
				</port>
			</output>
		</layer>
		<layer id="79" name="StatefulPartitionedCall/3d_unet_decathlon/transconv_e/strided_slice_2" type="StridedSlice" version="opset1">
			<data begin_mask="0" ellipsis_mask="0" end_mask="0" new_axis_mask="0" shrink_axis_mask="1"/>
			<rt_info>
				<attribute name="fused_names" value="StatefulPartitionedCall/3d_unet_decathlon/transconv_e/strided_slice_2, StatefulPartitionedCall/3d_unet_decathlon/transconv_e/strided_slice_2/stack, StatefulPartitionedCall/3d_unet_decathlon/transconv_e/strided_slice_2/stack_1, StatefulPartitionedCall/3d_unet_decathlon/transconv_e/strided_slice_2/stack_2" version="0"/>
			</rt_info>
			<input>
				<port id="0" precision="I32">
					<dim>5</dim>
				</port>
				<port id="1" precision="I64">
					<dim>1</dim>
				</port>
				<port id="2" precision="I64">
					<dim>1</dim>
				</port>
				<port id="3" precision="I64">
					<dim>1</dim>
				</port>
			</input>
			<output>
				<port id="4" names="StatefulPartitionedCall/3d_unet_decathlon/transconv_e/strided_slice_2:0" precision="I32"/>
			</output>
		</layer>
		<layer id="80" name="StatefulPartitionedCall/3d_unet_decathlon/transconv_e/mul_1/y" type="Const" version="opset1">
			<data element_type="i32" offset="15182484" shape="" size="4"/>
			<rt_info>
				<attribute name="fused_names" value="StatefulPartitionedCall/3d_unet_decathlon/transconv_e/mul_1/y" version="0"/>
			</rt_info>
			<output>
				<port id="0" names="StatefulPartitionedCall/3d_unet_decathlon/transconv_e/mul_1/y:0" precision="I32"/>
			</output>
		</layer>
		<layer id="81" name="StatefulPartitionedCall/3d_unet_decathlon/transconv_e/mul_1" type="Multiply" version="opset1">
			<data auto_broadcast="numpy"/>
			<rt_info>
				<attribute name="fused_names" value="StatefulPartitionedCall/3d_unet_decathlon/transconv_e/mul_1, StatefulPartitionedCall/3d_unet_decathlon/transconv_e/mul_1/y" version="0"/>
			</rt_info>
			<input>
				<port id="0" precision="I32"/>
				<port id="1" precision="I32"/>
			</input>
			<output>
				<port id="2" names="StatefulPartitionedCall/3d_unet_decathlon/transconv_e/mul_1:0" precision="I32"/>
			</output>
		</layer>
		<layer id="82" name="StatefulPartitionedCall/3d_unet_decathlon/transconv_e/stack/Unsqueeze598_input_port_1/value" type="Const" version="opset1">
			<data element_type="i64" offset="15182460" shape="1" size="8"/>
			<rt_info>
				<attribute name="fused_names" value="StatefulPartitionedCall/3d_unet_decathlon/transconv_e/stack/Unsqueeze598_input_port_1/value" version="0"/>
			</rt_info>
			<output>
				<port id="0" precision="I64">
					<dim>1</dim>
				</port>
			</output>
		</layer>
		<layer id="83" name="StatefulPartitionedCall/3d_unet_decathlon/transconv_e/stack/Unsqueeze598" type="Unsqueeze" version="opset1">
			<rt_info>
				<attribute name="fused_names" value="StatefulPartitionedCall/3d_unet_decathlon/transconv_e/stack/Unsqueeze598, StatefulPartitionedCall/3d_unet_decathlon/transconv_e/stack/Unsqueeze598_input_port_1/value" version="0"/>
			</rt_info>
			<input>
				<port id="0" precision="I32"/>
				<port id="1" precision="I64">
					<dim>1</dim>
				</port>
			</input>
			<output>
				<port id="2" precision="I32">
					<dim>1</dim>
				</port>
			</output>
		</layer>
		<layer id="84" name="StatefulPartitionedCall/3d_unet_decathlon/transconv_e/strided_slice_3/stack" type="Const" version="opset1">
			<data element_type="i64" offset="15182488" shape="1" size="8"/>
			<rt_info>
				<attribute name="fused_names" value="StatefulPartitionedCall/3d_unet_decathlon/transconv_e/strided_slice_3/stack" version="0"/>
			</rt_info>
			<output>
				<port id="0" names="StatefulPartitionedCall/3d_unet_decathlon/transconv_e/strided_slice_3/stack:0" precision="I64">
					<dim>1</dim>
				</port>
			</output>
		</layer>
		<layer id="85" name="StatefulPartitionedCall/3d_unet_decathlon/transconv_e/strided_slice_3/stack_1" type="Const" version="opset1">
			<data element_type="i64" offset="15182496" shape="1" size="8"/>
			<rt_info>
				<attribute name="fused_names" value="StatefulPartitionedCall/3d_unet_decathlon/transconv_e/strided_slice_3/stack_1" version="0"/>
			</rt_info>
			<output>
				<port id="0" names="StatefulPartitionedCall/3d_unet_decathlon/transconv_e/strided_slice_3/stack_1:0" precision="I64">
					<dim>1</dim>
				</port>
			</output>
		</layer>
		<layer id="86" name="StatefulPartitionedCall/3d_unet_decathlon/transconv_e/strided_slice_3/stack_2" type="Const" version="opset1">
			<data element_type="i64" offset="15182468" shape="1" size="8"/>
			<rt_info>
				<attribute name="fused_names" value="StatefulPartitionedCall/3d_unet_decathlon/transconv_e/strided_slice_3/stack_2" version="0"/>
			</rt_info>
			<output>
				<port id="0" names="StatefulPartitionedCall/3d_unet_decathlon/transconv_e/strided_slice_3/stack_2:0" precision="I64">
					<dim>1</dim>
				</port>
			</output>
		</layer>
		<layer id="87" name="StatefulPartitionedCall/3d_unet_decathlon/transconv_e/strided_slice_3" type="StridedSlice" version="opset1">
			<data begin_mask="0" ellipsis_mask="0" end_mask="0" new_axis_mask="0" shrink_axis_mask="1"/>
			<rt_info>
				<attribute name="fused_names" value="StatefulPartitionedCall/3d_unet_decathlon/transconv_e/strided_slice_3, StatefulPartitionedCall/3d_unet_decathlon/transconv_e/strided_slice_3/stack, StatefulPartitionedCall/3d_unet_decathlon/transconv_e/strided_slice_3/stack_1, StatefulPartitionedCall/3d_unet_decathlon/transconv_e/strided_slice_3/stack_2" version="0"/>
			</rt_info>
			<input>
				<port id="0" precision="I32">
					<dim>5</dim>
				</port>
				<port id="1" precision="I64">
					<dim>1</dim>
				</port>
				<port id="2" precision="I64">
					<dim>1</dim>
				</port>
				<port id="3" precision="I64">
					<dim>1</dim>
				</port>
			</input>
			<output>
				<port id="4" names="StatefulPartitionedCall/3d_unet_decathlon/transconv_e/strided_slice_3:0" precision="I32"/>
			</output>
		</layer>
		<layer id="88" name="StatefulPartitionedCall/3d_unet_decathlon/transconv_e/mul_2/y" type="Const" version="opset1">
			<data element_type="i32" offset="15182484" shape="" size="4"/>
			<rt_info>
				<attribute name="fused_names" value="StatefulPartitionedCall/3d_unet_decathlon/transconv_e/mul_2/y" version="0"/>
			</rt_info>
			<output>
				<port id="0" names="StatefulPartitionedCall/3d_unet_decathlon/transconv_e/mul_2/y:0" precision="I32"/>
			</output>
		</layer>
		<layer id="89" name="StatefulPartitionedCall/3d_unet_decathlon/transconv_e/mul_2" type="Multiply" version="opset1">
			<data auto_broadcast="numpy"/>
			<rt_info>
				<attribute name="fused_names" value="StatefulPartitionedCall/3d_unet_decathlon/transconv_e/mul_2, StatefulPartitionedCall/3d_unet_decathlon/transconv_e/mul_2/y" version="0"/>
			</rt_info>
			<input>
				<port id="0" precision="I32"/>
				<port id="1" precision="I32"/>
			</input>
			<output>
				<port id="2" names="StatefulPartitionedCall/3d_unet_decathlon/transconv_e/mul_2:0" precision="I32"/>
			</output>
		</layer>
		<layer id="90" name="StatefulPartitionedCall/3d_unet_decathlon/transconv_e/stack/Unsqueeze600_input_port_1/value" type="Const" version="opset1">
			<data element_type="i64" offset="15182460" shape="1" size="8"/>
			<rt_info>
				<attribute name="fused_names" value="StatefulPartitionedCall/3d_unet_decathlon/transconv_e/stack/Unsqueeze600_input_port_1/value" version="0"/>
			</rt_info>
			<output>
				<port id="0" precision="I64">
					<dim>1</dim>
				</port>
			</output>
		</layer>
		<layer id="91" name="StatefulPartitionedCall/3d_unet_decathlon/transconv_e/stack/Unsqueeze600" type="Unsqueeze" version="opset1">
			<rt_info>
				<attribute name="fused_names" value="StatefulPartitionedCall/3d_unet_decathlon/transconv_e/stack/Unsqueeze600, StatefulPartitionedCall/3d_unet_decathlon/transconv_e/stack/Unsqueeze600_input_port_1/value" version="0"/>
			</rt_info>
			<input>
				<port id="0" precision="I32"/>
				<port id="1" precision="I64">
					<dim>1</dim>
				</port>
			</input>
			<output>
				<port id="2" precision="I32">
					<dim>1</dim>
				</port>
			</output>
		</layer>
		<layer id="92" name="StatefulPartitionedCall/3d_unet_decathlon/transconv_e/stack/Unsqueeze602" type="Const" version="opset1">
			<data element_type="i32" offset="15182504" shape="1" size="4"/>
			<rt_info>
				<attribute name="fused_names" value="StatefulPartitionedCall/3d_unet_decathlon/transconv_e/stack/Unsqueeze602" version="0"/>
			</rt_info>
			<output>
				<port id="0" precision="I32">
					<dim>1</dim>
				</port>
			</output>
		</layer>
		<layer id="93" name="StatefulPartitionedCall/3d_unet_decathlon/transconv_e/stack" type="Concat" version="opset1">
			<data axis="0"/>
			<rt_info>
				<attribute name="fused_names" value="StatefulPartitionedCall/3d_unet_decathlon/transconv_e/stack, StatefulPartitionedCall/3d_unet_decathlon/transconv_e/stack/Unsqueeze602" version="0"/>
			</rt_info>
			<input>
				<port id="0" precision="I32">
					<dim>1</dim>
				</port>
				<port id="1" precision="I32">
					<dim>1</dim>
				</port>
				<port id="2" precision="I32">
					<dim>1</dim>
				</port>
				<port id="3" precision="I32">
					<dim>1</dim>
				</port>
				<port id="4" precision="I32">
					<dim>1</dim>
				</port>
			</input>
			<output>
				<port id="5" precision="I32">
					<dim>5</dim>
				</port>
			</output>
		</layer>
		<layer id="94" name="StatefulPartitionedCall/3d_unet_decathlon/transconv_e/conv3d_transpose/GatherNHWCtoNCHW_input_port_1/value910813539" type="Const" version="opset1">
			<data element_type="i32" offset="15182508" shape="5" size="20"/>
			<rt_info>
				<attribute name="fused_names" value="StatefulPartitionedCall/3d_unet_decathlon/transconv_e/conv3d_transpose/GatherNHWCtoNCHW_input_port_1/value910813539" version="0"/>
			</rt_info>
			<output>
				<port id="0" precision="I32">
					<dim>5</dim>
				</port>
			</output>
		</layer>
		<layer id="95" name="StatefulPartitionedCall/3d_unet_decathlon/transconv_e/conv3d_transpose/GatherNHWCtoNCHW_input_port_2/value911013344" type="Const" version="opset1">
			<data element_type="i64" offset="15182460" shape="" size="8"/>
			<rt_info>
				<attribute name="fused_names" value="StatefulPartitionedCall/3d_unet_decathlon/transconv_e/conv3d_transpose/GatherNHWCtoNCHW_input_port_2/value911013344" version="0"/>
			</rt_info>
			<output>
				<port id="0" precision="I64"/>
			</output>
		</layer>
		<layer id="96" name="StatefulPartitionedCall/3d_unet_decathlon/transconv_e/conv3d_transpose/GatherNHWCtoNCHW" type="Gather" version="opset8">
			<data batch_dims="0"/>
			<rt_info>
				<attribute name="fused_names" value="StatefulPartitionedCall/3d_unet_decathlon/transconv_e/conv3d_transpose/GatherNHWCtoNCHW, StatefulPartitionedCall/3d_unet_decathlon/transconv_e/conv3d_transpose/GatherNHWCtoNCHW_input_port_1/value910813539, StatefulPartitionedCall/3d_unet_decathlon/transconv_e/conv3d_transpose/GatherNHWCtoNCHW_input_port_2/value911013344" version="0"/>
			</rt_info>
			<input>
				<port id="0" precision="I32">
					<dim>5</dim>
				</port>
				<port id="1" precision="I32">
					<dim>5</dim>
				</port>
				<port id="2" precision="I64"/>
			</input>
			<output>
				<port id="3" precision="I32">
					<dim>5</dim>
				</port>
			</output>
		</layer>
		<layer id="97" name="StatefulPartitionedCall/3d_unet_decathlon/transconv_e/conv3d_transpose/ss_0_port_input_port_1/value1225613482" type="Const" version="opset1">
			<data element_type="i64" offset="15182476" shape="1" size="8"/>
			<rt_info>
				<attribute name="fused_names" value="StatefulPartitionedCall/3d_unet_decathlon/transconv_e/conv3d_transpose/ss_0_port_input_port_1/value1225613482" version="0"/>
			</rt_info>
			<output>
				<port id="0" precision="I64">
					<dim>1</dim>
				</port>
			</output>
		</layer>
		<layer id="98" name="StatefulPartitionedCall/3d_unet_decathlon/transconv_e/conv3d_transpose/ss_0_port_input_port_2/value1225813290" type="Const" version="opset1">
			<data element_type="i64" offset="15182528" shape="1" size="8"/>
			<rt_info>
				<attribute name="fused_names" value="StatefulPartitionedCall/3d_unet_decathlon/transconv_e/conv3d_transpose/ss_0_port_input_port_2/value1225813290" version="0"/>
			</rt_info>
			<output>
				<port id="0" precision="I64">
					<dim>1</dim>
				</port>
			</output>
		</layer>
		<layer id="99" name="StatefulPartitionedCall/3d_unet_decathlon/transconv_e/conv3d_transpose/ss_0_port_input_port_3/value1226013248" type="Const" version="opset1">
			<data element_type="i64" offset="15182468" shape="1" size="8"/>
			<rt_info>
				<attribute name="fused_names" value="StatefulPartitionedCall/3d_unet_decathlon/transconv_e/conv3d_transpose/ss_0_port_input_port_3/value1226013248" version="0"/>
			</rt_info>
			<output>
				<port id="0" precision="I64">
					<dim>1</dim>
				</port>
			</output>
		</layer>
		<layer id="100" name="StatefulPartitionedCall/3d_unet_decathlon/transconv_e/conv3d_transpose/ss_0_port" type="StridedSlice" version="opset1">
			<data begin_mask="0" ellipsis_mask="0" end_mask="1" new_axis_mask="0" shrink_axis_mask="0"/>
			<rt_info>
				<attribute name="fused_names" value="StatefulPartitionedCall/3d_unet_decathlon/transconv_e/conv3d_transpose/ss_0_port, StatefulPartitionedCall/3d_unet_decathlon/transconv_e/conv3d_transpose/ss_0_port_input_port_1/value1225613482, StatefulPartitionedCall/3d_unet_decathlon/transconv_e/conv3d_transpose/ss_0_port_input_port_2/value1225813290, StatefulPartitionedCall/3d_unet_decathlon/transconv_e/conv3d_transpose/ss_0_port_input_port_3/value1226013248" version="0"/>
			</rt_info>
			<input>
				<port id="0" precision="I32">
					<dim>5</dim>
				</port>
				<port id="1" precision="I64">
					<dim>1</dim>
				</port>
				<port id="2" precision="I64">
					<dim>1</dim>
				</port>
				<port id="3" precision="I64">
					<dim>1</dim>
				</port>
			</input>
			<output>
				<port id="4" precision="I32">
					<dim>3</dim>
				</port>
			</output>
		</layer>
		<layer id="101" name="StatefulPartitionedCall/3d_unet_decathlon/transconv_e/conv3d_transpose/Cast_2" type="Convert" version="opset1">
			<data destination_type="i64"/>
			<rt_info>
				<attribute name="fused_names" value="StatefulPartitionedCall/3d_unet_decathlon/transconv_e/conv3d_transpose/Cast_2" version="0"/>
			</rt_info>
			<input>
				<port id="0" precision="I32">
					<dim>3</dim>
				</port>
			</input>
			<output>
				<port id="1" precision="I64">
					<dim>3</dim>
				</port>
			</output>
		</layer>
		<layer id="102" name="StatefulPartitionedCall/3d_unet_decathlon/transconv_e/conv3d_transpose" type="ConvolutionBackpropData" version="opset1">
			<data auto_pad="same_lower" dilations="1, 1, 1" output_padding="0, 0, 0" pads_begin="0, 0, 0" pads_end="0, 0, 0" strides="2, 2, 2"/>
			<rt_info>
				<attribute name="fused_names" value="StatefulPartitionedCall/3d_unet_decathlon/transconv_e/conv3d_transpose" version="0"/>
			</rt_info>
			<input>
				<port id="0" precision="FP32">
					<dim>1</dim>
					<dim>256</dim>
					<dim>9</dim>
					<dim>9</dim>
					<dim>9</dim>
				</port>
				<port id="1" precision="FP32">
					<dim>256</dim>
					<dim>128</dim>
					<dim>2</dim>
					<dim>2</dim>
					<dim>2</dim>
				</port>
				<port id="2" precision="I64">
					<dim>3</dim>
				</port>
			</input>
			<output>
				<port id="3" names="StatefulPartitionedCall/3d_unet_decathlon/transconv_e/conv3d_transpose:0" precision="FP32">
					<dim>1</dim>
					<dim>128</dim>
					<dim>18</dim>
					<dim>18</dim>
					<dim>18</dim>
				</port>
			</output>
		</layer>
		<layer id="103" name="StatefulPartitionedCall/3d_unet_decathlon/transconv_e/BiasAdd/ReadVariableOp" type="Const" version="opset1">
			<data element_type="f32" offset="15182536" shape="1, 128, 1, 1, 1" size="512"/>
			<rt_info>
				<attribute name="fused_names" value="StatefulPartitionedCall/3d_unet_decathlon/transconv_e/BiasAdd/ReadVariableOp" version="0"/>
			</rt_info>
			<output>
				<port id="0" names="StatefulPartitionedCall/3d_unet_decathlon/transconv_e/BiasAdd/ReadVariableOp:0" precision="FP32">
					<dim>1</dim>
					<dim>128</dim>
					<dim>1</dim>
					<dim>1</dim>
					<dim>1</dim>
				</port>
			</output>
		</layer>
		<layer id="104" name="StatefulPartitionedCall/3d_unet_decathlon/transconv_e/BiasAdd/Add" type="Add" version="opset1">
			<data auto_broadcast="numpy"/>
			<rt_info>
				<attribute name="fused_names" value="StatefulPartitionedCall/3d_unet_decathlon/transconv_e/BiasAdd/Add" version="0"/>
			</rt_info>
			<input>
				<port id="0" precision="FP32">
					<dim>1</dim>
					<dim>128</dim>
					<dim>18</dim>
					<dim>18</dim>
					<dim>18</dim>
				</port>
				<port id="1" precision="FP32">
					<dim>1</dim>
					<dim>128</dim>
					<dim>1</dim>
					<dim>1</dim>
					<dim>1</dim>
				</port>
			</input>
			<output>
				<port id="2" names="StatefulPartitionedCall/3d_unet_decathlon/transconv_e/BiasAdd:0" precision="FP32">
					<dim>1</dim>
					<dim>128</dim>
					<dim>18</dim>
					<dim>18</dim>
					<dim>18</dim>
				</port>
			</output>
		</layer>
		<layer id="105" name="StatefulPartitionedCall/3d_unet_decathlon/concat_d/concat" type="Concat" version="opset1">
			<data axis="1"/>
			<rt_info>
				<attribute name="fused_names" value="StatefulPartitionedCall/3d_unet_decathlon/concat_d/concat" version="0"/>
			</rt_info>
			<input>
				<port id="0" precision="FP32">
					<dim>1</dim>
					<dim>128</dim>
					<dim>18</dim>
					<dim>18</dim>
					<dim>18</dim>
				</port>
				<port id="1" precision="FP32">
					<dim>1</dim>
					<dim>128</dim>
					<dim>18</dim>
					<dim>18</dim>
					<dim>18</dim>
				</port>
			</input>
			<output>
				<port id="2" names="StatefulPartitionedCall/3d_unet_decathlon/concat_d/concat:0" precision="FP32">
					<dim>1</dim>
					<dim>256</dim>
					<dim>18</dim>
					<dim>18</dim>
					<dim>18</dim>
				</port>
			</output>
		</layer>
		<layer id="106" name="StatefulPartitionedCall/3d_unet_decathlon/decode_c_bn_0/FusedBatchNormV3/mean/Fused_Mul__copy" type="Const" version="opset1">
			<data element_type="f32" offset="15183048" shape="128, 256, 3, 3, 3" size="3538944"/>
			<rt_info>
				<attribute name="fused_names" value="StatefulPartitionedCall/3d_unet_decathlon/decode_c_bn_0/FusedBatchNormV3/mean/Fused_Mul__copy" version="0"/>
			</rt_info>
			<output>
				<port id="0" names="StatefulPartitionedCall/3d_unet_decathlon/decode_c_conv_0/Conv3D/ReadVariableOp:0" precision="FP32">
					<dim>128</dim>
					<dim>256</dim>
					<dim>3</dim>
					<dim>3</dim>
					<dim>3</dim>
				</port>
			</output>
		</layer>
		<layer id="107" name="StatefulPartitionedCall/3d_unet_decathlon/decode_c_conv_0/Conv3D" type="Convolution" version="opset1">
			<data auto_pad="same_upper" dilations="1, 1, 1" pads_begin="0, 0, 0" pads_end="0, 0, 0" strides="1, 1, 1"/>
			<rt_info>
				<attribute name="fused_names" value="StatefulPartitionedCall/3d_unet_decathlon/decode_c_conv_0/Conv3D" version="0"/>
			</rt_info>
			<input>
				<port id="0" precision="FP32">
					<dim>1</dim>
					<dim>256</dim>
					<dim>18</dim>
					<dim>18</dim>
					<dim>18</dim>
				</port>
				<port id="1" precision="FP32">
					<dim>128</dim>
					<dim>256</dim>
					<dim>3</dim>
					<dim>3</dim>
					<dim>3</dim>
				</port>
			</input>
			<output>
				<port id="2" precision="FP32">
					<dim>1</dim>
					<dim>128</dim>
					<dim>18</dim>
					<dim>18</dim>
					<dim>18</dim>
				</port>
			</output>
		</layer>
		<layer id="108" name="data_add_70857090" type="Const" version="opset1">
			<data element_type="f32" offset="18721992" shape="1, 128, 1, 1, 1" size="512"/>
			<rt_info>
				<attribute name="fused_names" value="data_add_70857090" version="0"/>
			</rt_info>
			<output>
				<port id="0" precision="FP32">
					<dim>1</dim>
					<dim>128</dim>
					<dim>1</dim>
					<dim>1</dim>
					<dim>1</dim>
				</port>
			</output>
		</layer>
		<layer id="109" name="StatefulPartitionedCall/3d_unet_decathlon/decode_c_conv_0/BiasAdd/Add/Fused_Add_" type="Add" version="opset1">
			<data auto_broadcast="numpy"/>
			<rt_info>
				<attribute name="fused_names" value="StatefulPartitionedCall/3d_unet_decathlon/decode_c_conv_0/BiasAdd/Add/Fused_Add_" version="0"/>
			</rt_info>
			<input>
				<port id="0" precision="FP32">
					<dim>1</dim>
					<dim>128</dim>
					<dim>18</dim>
					<dim>18</dim>
					<dim>18</dim>
				</port>
				<port id="1" precision="FP32">
					<dim>1</dim>
					<dim>128</dim>
					<dim>1</dim>
					<dim>1</dim>
					<dim>1</dim>
				</port>
			</input>
			<output>
				<port id="2" names="StatefulPartitionedCall/3d_unet_decathlon/decode_c_bn_0/FusedBatchNormV3:0" precision="FP32">
					<dim>1</dim>
					<dim>128</dim>
					<dim>18</dim>
					<dim>18</dim>
					<dim>18</dim>
				</port>
			</output>
		</layer>
		<layer id="110" name="StatefulPartitionedCall/3d_unet_decathlon/decode_c_relu_0/Relu" type="ReLU" version="opset1">
			<rt_info>
				<attribute name="fused_names" value="StatefulPartitionedCall/3d_unet_decathlon/decode_c_relu_0/Relu" version="0"/>
			</rt_info>
			<input>
				<port id="0" precision="FP32">
					<dim>1</dim>
					<dim>128</dim>
					<dim>18</dim>
					<dim>18</dim>
					<dim>18</dim>
				</port>
			</input>
			<output>
				<port id="1" names="StatefulPartitionedCall/3d_unet_decathlon/decode_c_relu_0/Relu:0" precision="FP32">
					<dim>1</dim>
					<dim>128</dim>
					<dim>18</dim>
					<dim>18</dim>
					<dim>18</dim>
				</port>
			</output>
		</layer>
		<layer id="111" name="StatefulPartitionedCall/3d_unet_decathlon/decode_c_bn_1/FusedBatchNormV3/mean/Fused_Mul__copy" type="Const" version="opset1">
			<data element_type="f32" offset="18722504" shape="128, 128, 3, 3, 3" size="1769472"/>
			<rt_info>
				<attribute name="fused_names" value="StatefulPartitionedCall/3d_unet_decathlon/decode_c_bn_1/FusedBatchNormV3/mean/Fused_Mul__copy" version="0"/>
			</rt_info>
			<output>
				<port id="0" names="StatefulPartitionedCall/3d_unet_decathlon/decode_c_conv_1/Conv3D/ReadVariableOp:0" precision="FP32">
					<dim>128</dim>
					<dim>128</dim>
					<dim>3</dim>
					<dim>3</dim>
					<dim>3</dim>
				</port>
			</output>
		</layer>
		<layer id="112" name="StatefulPartitionedCall/3d_unet_decathlon/decode_c_conv_1/Conv3D" type="Convolution" version="opset1">
			<data auto_pad="same_upper" dilations="1, 1, 1" pads_begin="0, 0, 0" pads_end="0, 0, 0" strides="1, 1, 1"/>
			<rt_info>
				<attribute name="fused_names" value="StatefulPartitionedCall/3d_unet_decathlon/decode_c_conv_1/Conv3D" version="0"/>
			</rt_info>
			<input>
				<port id="0" precision="FP32">
					<dim>1</dim>
					<dim>128</dim>
					<dim>18</dim>
					<dim>18</dim>
					<dim>18</dim>
				</port>
				<port id="1" precision="FP32">
					<dim>128</dim>
					<dim>128</dim>
					<dim>3</dim>
					<dim>3</dim>
					<dim>3</dim>
				</port>
			</input>
			<output>
				<port id="2" precision="FP32">
					<dim>1</dim>
					<dim>128</dim>
					<dim>18</dim>
					<dim>18</dim>
					<dim>18</dim>
				</port>
			</output>
		</layer>
		<layer id="113" name="data_add_70937098" type="Const" version="opset1">
			<data element_type="f32" offset="20491976" shape="1, 128, 1, 1, 1" size="512"/>
			<rt_info>
				<attribute name="fused_names" value="data_add_70937098" version="0"/>
			</rt_info>
			<output>
				<port id="0" precision="FP32">
					<dim>1</dim>
					<dim>128</dim>
					<dim>1</dim>
					<dim>1</dim>
					<dim>1</dim>
				</port>
			</output>
		</layer>
		<layer id="114" name="StatefulPartitionedCall/3d_unet_decathlon/decode_c_conv_1/BiasAdd/Add/Fused_Add_" type="Add" version="opset1">
			<data auto_broadcast="numpy"/>
			<rt_info>
				<attribute name="fused_names" value="StatefulPartitionedCall/3d_unet_decathlon/decode_c_conv_1/BiasAdd/Add/Fused_Add_" version="0"/>
			</rt_info>
			<input>
				<port id="0" precision="FP32">
					<dim>1</dim>
					<dim>128</dim>
					<dim>18</dim>
					<dim>18</dim>
					<dim>18</dim>
				</port>
				<port id="1" precision="FP32">
					<dim>1</dim>
					<dim>128</dim>
					<dim>1</dim>
					<dim>1</dim>
					<dim>1</dim>
				</port>
			</input>
			<output>
				<port id="2" names="StatefulPartitionedCall/3d_unet_decathlon/decode_c_bn_1/FusedBatchNormV3:0" precision="FP32">
					<dim>1</dim>
					<dim>128</dim>
					<dim>18</dim>
					<dim>18</dim>
					<dim>18</dim>
				</port>
			</output>
		</layer>
		<layer id="115" name="StatefulPartitionedCall/3d_unet_decathlon/decode_c/Relu" type="ReLU" version="opset1">
			<rt_info>
				<attribute name="fused_names" value="StatefulPartitionedCall/3d_unet_decathlon/decode_c/Relu" version="0"/>
			</rt_info>
			<input>
				<port id="0" precision="FP32">
					<dim>1</dim>
					<dim>128</dim>
					<dim>18</dim>
					<dim>18</dim>
					<dim>18</dim>
				</port>
			</input>
			<output>
				<port id="1" names="StatefulPartitionedCall/3d_unet_decathlon/decode_c/Relu:0" precision="FP32">
					<dim>1</dim>
					<dim>128</dim>
					<dim>18</dim>
					<dim>18</dim>
					<dim>18</dim>
				</port>
			</output>
		</layer>
		<layer id="116" name="StatefulPartitionedCall/3d_unet_decathlon/transconv_c/conv3d_transpose/ReadVariableOp" type="Const" version="opset1">
			<data element_type="f32" offset="20492488" shape="128, 64, 2, 2, 2" size="262144"/>
			<rt_info>
				<attribute name="fused_names" value="StatefulPartitionedCall/3d_unet_decathlon/transconv_c/conv3d_transpose/ReadVariableOp" version="0"/>
			</rt_info>
			<output>
				<port id="0" names="StatefulPartitionedCall/3d_unet_decathlon/transconv_c/conv3d_transpose/ReadVariableOp:0" precision="FP32">
					<dim>128</dim>
					<dim>64</dim>
					<dim>2</dim>
					<dim>2</dim>
					<dim>2</dim>
				</port>
			</output>
		</layer>
		<layer id="117" name="StatefulPartitionedCall/3d_unet_decathlon/transconv_c/Shape" type="ShapeOf" version="opset3">
			<data output_type="i32"/>
			<rt_info>
				<attribute name="fused_names" value="StatefulPartitionedCall/3d_unet_decathlon/transconv_c/Shape" version="0"/>
			</rt_info>
			<input>
				<port id="0" precision="FP32">
					<dim>1</dim>
					<dim>128</dim>
					<dim>18</dim>
					<dim>18</dim>
					<dim>18</dim>
				</port>
			</input>
			<output>
				<port id="1" precision="I32">
					<dim>5</dim>
				</port>
			</output>
		</layer>
		<layer id="118" name="StatefulPartitionedCall/3d_unet_decathlon/transconv_c/Shape/GatherNCHWtoNHWC_input_port_1/value908413608" type="Const" version="opset1">
			<data element_type="i32" offset="15182440" shape="5" size="20"/>
			<rt_info>
				<attribute name="fused_names" value="StatefulPartitionedCall/3d_unet_decathlon/transconv_c/Shape/GatherNCHWtoNHWC_input_port_1/value908413608" version="0"/>
			</rt_info>
			<output>
				<port id="0" precision="I32">
					<dim>5</dim>
				</port>
			</output>
		</layer>
		<layer id="119" name="StatefulPartitionedCall/3d_unet_decathlon/transconv_c/Shape/GatherNCHWtoNHWC_input_port_2/value908613446" type="Const" version="opset1">
			<data element_type="i64" offset="15182460" shape="" size="8"/>
			<rt_info>
				<attribute name="fused_names" value="StatefulPartitionedCall/3d_unet_decathlon/transconv_c/Shape/GatherNCHWtoNHWC_input_port_2/value908613446" version="0"/>
			</rt_info>
			<output>
				<port id="0" precision="I64"/>
			</output>
		</layer>
		<layer id="120" name="StatefulPartitionedCall/3d_unet_decathlon/transconv_c/Shape/GatherNCHWtoNHWC" type="Gather" version="opset8">
			<data batch_dims="0"/>
			<rt_info>
				<attribute name="fused_names" value="StatefulPartitionedCall/3d_unet_decathlon/transconv_c/Shape/GatherNCHWtoNHWC, StatefulPartitionedCall/3d_unet_decathlon/transconv_c/Shape/GatherNCHWtoNHWC_input_port_1/value908413608, StatefulPartitionedCall/3d_unet_decathlon/transconv_c/Shape/GatherNCHWtoNHWC_input_port_2/value908613446" version="0"/>
			</rt_info>
			<input>
				<port id="0" precision="I32">
					<dim>5</dim>
				</port>
				<port id="1" precision="I32">
					<dim>5</dim>
				</port>
				<port id="2" precision="I64"/>
			</input>
			<output>
				<port id="3" names="StatefulPartitionedCall/3d_unet_decathlon/transconv_c/Shape:0" precision="I32">
					<dim>5</dim>
				</port>
			</output>
		</layer>
		<layer id="121" name="StatefulPartitionedCall/3d_unet_decathlon/transconv_c/strided_slice/stack" type="Const" version="opset1">
			<data element_type="i64" offset="15182460" shape="1" size="8"/>
			<rt_info>
				<attribute name="fused_names" value="StatefulPartitionedCall/3d_unet_decathlon/transconv_c/strided_slice/stack" version="0"/>
			</rt_info>
			<output>
				<port id="0" names="StatefulPartitionedCall/3d_unet_decathlon/transconv_c/strided_slice/stack:0" precision="I64">
					<dim>1</dim>
				</port>
			</output>
		</layer>
		<layer id="122" name="StatefulPartitionedCall/3d_unet_decathlon/transconv_c/strided_slice/stack_1" type="Const" version="opset1">
			<data element_type="i64" offset="15182468" shape="1" size="8"/>
			<rt_info>
				<attribute name="fused_names" value="StatefulPartitionedCall/3d_unet_decathlon/transconv_c/strided_slice/stack_1" version="0"/>
			</rt_info>
			<output>
				<port id="0" names="StatefulPartitionedCall/3d_unet_decathlon/transconv_c/strided_slice/stack_1:0" precision="I64">
					<dim>1</dim>
				</port>
			</output>
		</layer>
		<layer id="123" name="StatefulPartitionedCall/3d_unet_decathlon/transconv_c/strided_slice/stack_2" type="Const" version="opset1">
			<data element_type="i64" offset="15182468" shape="1" size="8"/>
			<rt_info>
				<attribute name="fused_names" value="StatefulPartitionedCall/3d_unet_decathlon/transconv_c/strided_slice/stack_2" version="0"/>
			</rt_info>
			<output>
				<port id="0" names="StatefulPartitionedCall/3d_unet_decathlon/transconv_c/strided_slice/stack_2:0" precision="I64">
					<dim>1</dim>
				</port>
			</output>
		</layer>
		<layer id="124" name="StatefulPartitionedCall/3d_unet_decathlon/transconv_c/strided_slice" type="StridedSlice" version="opset1">
			<data begin_mask="0" ellipsis_mask="0" end_mask="0" new_axis_mask="0" shrink_axis_mask="1"/>
			<rt_info>
				<attribute name="fused_names" value="StatefulPartitionedCall/3d_unet_decathlon/transconv_c/strided_slice, StatefulPartitionedCall/3d_unet_decathlon/transconv_c/strided_slice/stack, StatefulPartitionedCall/3d_unet_decathlon/transconv_c/strided_slice/stack_1, StatefulPartitionedCall/3d_unet_decathlon/transconv_c/strided_slice/stack_2" version="0"/>
			</rt_info>
			<input>
				<port id="0" precision="I32">
					<dim>5</dim>
				</port>
				<port id="1" precision="I64">
					<dim>1</dim>
				</port>
				<port id="2" precision="I64">
					<dim>1</dim>
				</port>
				<port id="3" precision="I64">
					<dim>1</dim>
				</port>
			</input>
			<output>
				<port id="4" names="StatefulPartitionedCall/3d_unet_decathlon/transconv_c/strided_slice:0" precision="I32"/>
			</output>
		</layer>
		<layer id="125" name="StatefulPartitionedCall/3d_unet_decathlon/transconv_c/stack/Unsqueeze_input_port_1/value" type="Const" version="opset1">
			<data element_type="i64" offset="15182460" shape="1" size="8"/>
			<rt_info>
				<attribute name="fused_names" value="StatefulPartitionedCall/3d_unet_decathlon/transconv_c/stack/Unsqueeze_input_port_1/value" version="0"/>
			</rt_info>
			<output>
				<port id="0" precision="I64">
					<dim>1</dim>
				</port>
			</output>
		</layer>
		<layer id="126" name="StatefulPartitionedCall/3d_unet_decathlon/transconv_c/stack/Unsqueeze" type="Unsqueeze" version="opset1">
			<rt_info>
				<attribute name="fused_names" value="StatefulPartitionedCall/3d_unet_decathlon/transconv_c/stack/Unsqueeze, StatefulPartitionedCall/3d_unet_decathlon/transconv_c/stack/Unsqueeze_input_port_1/value" version="0"/>
			</rt_info>
			<input>
				<port id="0" precision="I32"/>
				<port id="1" precision="I64">
					<dim>1</dim>
				</port>
			</input>
			<output>
				<port id="2" precision="I32">
					<dim>1</dim>
				</port>
			</output>
		</layer>
		<layer id="127" name="StatefulPartitionedCall/3d_unet_decathlon/transconv_c/strided_slice_1/stack" type="Const" version="opset1">
			<data element_type="i64" offset="15182468" shape="1" size="8"/>
			<rt_info>
				<attribute name="fused_names" value="StatefulPartitionedCall/3d_unet_decathlon/transconv_c/strided_slice_1/stack" version="0"/>
			</rt_info>
			<output>
				<port id="0" names="StatefulPartitionedCall/3d_unet_decathlon/transconv_c/strided_slice_1/stack:0" precision="I64">
					<dim>1</dim>
				</port>
			</output>
		</layer>
		<layer id="128" name="StatefulPartitionedCall/3d_unet_decathlon/transconv_c/strided_slice_1/stack_1" type="Const" version="opset1">
			<data element_type="i64" offset="15182476" shape="1" size="8"/>
			<rt_info>
				<attribute name="fused_names" value="StatefulPartitionedCall/3d_unet_decathlon/transconv_c/strided_slice_1/stack_1" version="0"/>
			</rt_info>
			<output>
				<port id="0" names="StatefulPartitionedCall/3d_unet_decathlon/transconv_c/strided_slice_1/stack_1:0" precision="I64">
					<dim>1</dim>
				</port>
			</output>
		</layer>
		<layer id="129" name="StatefulPartitionedCall/3d_unet_decathlon/transconv_c/strided_slice_1/stack_2" type="Const" version="opset1">
			<data element_type="i64" offset="15182468" shape="1" size="8"/>
			<rt_info>
				<attribute name="fused_names" value="StatefulPartitionedCall/3d_unet_decathlon/transconv_c/strided_slice_1/stack_2" version="0"/>
			</rt_info>
			<output>
				<port id="0" names="StatefulPartitionedCall/3d_unet_decathlon/transconv_c/strided_slice_1/stack_2:0" precision="I64">
					<dim>1</dim>
				</port>
			</output>
		</layer>
		<layer id="130" name="StatefulPartitionedCall/3d_unet_decathlon/transconv_c/strided_slice_1" type="StridedSlice" version="opset1">
			<data begin_mask="0" ellipsis_mask="0" end_mask="0" new_axis_mask="0" shrink_axis_mask="1"/>
			<rt_info>
				<attribute name="fused_names" value="StatefulPartitionedCall/3d_unet_decathlon/transconv_c/strided_slice_1, StatefulPartitionedCall/3d_unet_decathlon/transconv_c/strided_slice_1/stack, StatefulPartitionedCall/3d_unet_decathlon/transconv_c/strided_slice_1/stack_1, StatefulPartitionedCall/3d_unet_decathlon/transconv_c/strided_slice_1/stack_2" version="0"/>
			</rt_info>
			<input>
				<port id="0" precision="I32">
					<dim>5</dim>
				</port>
				<port id="1" precision="I64">
					<dim>1</dim>
				</port>
				<port id="2" precision="I64">
					<dim>1</dim>
				</port>
				<port id="3" precision="I64">
					<dim>1</dim>
				</port>
			</input>
			<output>
				<port id="4" names="StatefulPartitionedCall/3d_unet_decathlon/transconv_c/strided_slice_1:0" precision="I32"/>
			</output>
		</layer>
		<layer id="131" name="StatefulPartitionedCall/3d_unet_decathlon/transconv_c/mul/y" type="Const" version="opset1">
			<data element_type="i32" offset="15182484" shape="" size="4"/>
			<rt_info>
				<attribute name="fused_names" value="StatefulPartitionedCall/3d_unet_decathlon/transconv_c/mul/y" version="0"/>
			</rt_info>
			<output>
				<port id="0" names="StatefulPartitionedCall/3d_unet_decathlon/transconv_c/mul/y:0" precision="I32"/>
			</output>
		</layer>
		<layer id="132" name="StatefulPartitionedCall/3d_unet_decathlon/transconv_c/mul" type="Multiply" version="opset1">
			<data auto_broadcast="numpy"/>
			<rt_info>
				<attribute name="fused_names" value="StatefulPartitionedCall/3d_unet_decathlon/transconv_c/mul, StatefulPartitionedCall/3d_unet_decathlon/transconv_c/mul/y" version="0"/>
			</rt_info>
			<input>
				<port id="0" precision="I32"/>
				<port id="1" precision="I32"/>
			</input>
			<output>
				<port id="2" names="StatefulPartitionedCall/3d_unet_decathlon/transconv_c/mul:0" precision="I32"/>
			</output>
		</layer>
		<layer id="133" name="StatefulPartitionedCall/3d_unet_decathlon/transconv_c/stack/Unsqueeze563_input_port_1/value" type="Const" version="opset1">
			<data element_type="i64" offset="15182460" shape="1" size="8"/>
			<rt_info>
				<attribute name="fused_names" value="StatefulPartitionedCall/3d_unet_decathlon/transconv_c/stack/Unsqueeze563_input_port_1/value" version="0"/>
			</rt_info>
			<output>
				<port id="0" precision="I64">
					<dim>1</dim>
				</port>
			</output>
		</layer>
		<layer id="134" name="StatefulPartitionedCall/3d_unet_decathlon/transconv_c/stack/Unsqueeze563" type="Unsqueeze" version="opset1">
			<rt_info>
				<attribute name="fused_names" value="StatefulPartitionedCall/3d_unet_decathlon/transconv_c/stack/Unsqueeze563, StatefulPartitionedCall/3d_unet_decathlon/transconv_c/stack/Unsqueeze563_input_port_1/value" version="0"/>
			</rt_info>
			<input>
				<port id="0" precision="I32"/>
				<port id="1" precision="I64">
					<dim>1</dim>
				</port>
			</input>
			<output>
				<port id="2" precision="I32">
					<dim>1</dim>
				</port>
			</output>
		</layer>
		<layer id="135" name="StatefulPartitionedCall/3d_unet_decathlon/transconv_c/strided_slice_2/stack" type="Const" version="opset1">
			<data element_type="i64" offset="15182476" shape="1" size="8"/>
			<rt_info>
				<attribute name="fused_names" value="StatefulPartitionedCall/3d_unet_decathlon/transconv_c/strided_slice_2/stack" version="0"/>
			</rt_info>
			<output>
				<port id="0" names="StatefulPartitionedCall/3d_unet_decathlon/transconv_c/strided_slice_2/stack:0" precision="I64">
					<dim>1</dim>
				</port>
			</output>
		</layer>
		<layer id="136" name="StatefulPartitionedCall/3d_unet_decathlon/transconv_c/strided_slice_2/stack_1" type="Const" version="opset1">
			<data element_type="i64" offset="15182488" shape="1" size="8"/>
			<rt_info>
				<attribute name="fused_names" value="StatefulPartitionedCall/3d_unet_decathlon/transconv_c/strided_slice_2/stack_1" version="0"/>
			</rt_info>
			<output>
				<port id="0" names="StatefulPartitionedCall/3d_unet_decathlon/transconv_c/strided_slice_2/stack_1:0" precision="I64">
					<dim>1</dim>
				</port>
			</output>
		</layer>
		<layer id="137" name="StatefulPartitionedCall/3d_unet_decathlon/transconv_c/strided_slice_2/stack_2" type="Const" version="opset1">
			<data element_type="i64" offset="15182468" shape="1" size="8"/>
			<rt_info>
				<attribute name="fused_names" value="StatefulPartitionedCall/3d_unet_decathlon/transconv_c/strided_slice_2/stack_2" version="0"/>
			</rt_info>
			<output>
				<port id="0" names="StatefulPartitionedCall/3d_unet_decathlon/transconv_c/strided_slice_2/stack_2:0" precision="I64">
					<dim>1</dim>
				</port>
			</output>
		</layer>
		<layer id="138" name="StatefulPartitionedCall/3d_unet_decathlon/transconv_c/strided_slice_2" type="StridedSlice" version="opset1">
			<data begin_mask="0" ellipsis_mask="0" end_mask="0" new_axis_mask="0" shrink_axis_mask="1"/>
			<rt_info>
				<attribute name="fused_names" value="StatefulPartitionedCall/3d_unet_decathlon/transconv_c/strided_slice_2, StatefulPartitionedCall/3d_unet_decathlon/transconv_c/strided_slice_2/stack, StatefulPartitionedCall/3d_unet_decathlon/transconv_c/strided_slice_2/stack_1, StatefulPartitionedCall/3d_unet_decathlon/transconv_c/strided_slice_2/stack_2" version="0"/>
			</rt_info>
			<input>
				<port id="0" precision="I32">
					<dim>5</dim>
				</port>
				<port id="1" precision="I64">
					<dim>1</dim>
				</port>
				<port id="2" precision="I64">
					<dim>1</dim>
				</port>
				<port id="3" precision="I64">
					<dim>1</dim>
				</port>
			</input>
			<output>
				<port id="4" names="StatefulPartitionedCall/3d_unet_decathlon/transconv_c/strided_slice_2:0" precision="I32"/>
			</output>
		</layer>
		<layer id="139" name="StatefulPartitionedCall/3d_unet_decathlon/transconv_c/mul_1/y" type="Const" version="opset1">
			<data element_type="i32" offset="15182484" shape="" size="4"/>
			<rt_info>
				<attribute name="fused_names" value="StatefulPartitionedCall/3d_unet_decathlon/transconv_c/mul_1/y" version="0"/>
			</rt_info>
			<output>
				<port id="0" names="StatefulPartitionedCall/3d_unet_decathlon/transconv_c/mul_1/y:0" precision="I32"/>
			</output>
		</layer>
		<layer id="140" name="StatefulPartitionedCall/3d_unet_decathlon/transconv_c/mul_1" type="Multiply" version="opset1">
			<data auto_broadcast="numpy"/>
			<rt_info>
				<attribute name="fused_names" value="StatefulPartitionedCall/3d_unet_decathlon/transconv_c/mul_1, StatefulPartitionedCall/3d_unet_decathlon/transconv_c/mul_1/y" version="0"/>
			</rt_info>
			<input>
				<port id="0" precision="I32"/>
				<port id="1" precision="I32"/>
			</input>
			<output>
				<port id="2" names="StatefulPartitionedCall/3d_unet_decathlon/transconv_c/mul_1:0" precision="I32"/>
			</output>
		</layer>
		<layer id="141" name="StatefulPartitionedCall/3d_unet_decathlon/transconv_c/stack/Unsqueeze565_input_port_1/value" type="Const" version="opset1">
			<data element_type="i64" offset="15182460" shape="1" size="8"/>
			<rt_info>
				<attribute name="fused_names" value="StatefulPartitionedCall/3d_unet_decathlon/transconv_c/stack/Unsqueeze565_input_port_1/value" version="0"/>
			</rt_info>
			<output>
				<port id="0" precision="I64">
					<dim>1</dim>
				</port>
			</output>
		</layer>
		<layer id="142" name="StatefulPartitionedCall/3d_unet_decathlon/transconv_c/stack/Unsqueeze565" type="Unsqueeze" version="opset1">
			<rt_info>
				<attribute name="fused_names" value="StatefulPartitionedCall/3d_unet_decathlon/transconv_c/stack/Unsqueeze565, StatefulPartitionedCall/3d_unet_decathlon/transconv_c/stack/Unsqueeze565_input_port_1/value" version="0"/>
			</rt_info>
			<input>
				<port id="0" precision="I32"/>
				<port id="1" precision="I64">
					<dim>1</dim>
				</port>
			</input>
			<output>
				<port id="2" precision="I32">
					<dim>1</dim>
				</port>
			</output>
		</layer>
		<layer id="143" name="StatefulPartitionedCall/3d_unet_decathlon/transconv_c/strided_slice_3/stack" type="Const" version="opset1">
			<data element_type="i64" offset="15182488" shape="1" size="8"/>
			<rt_info>
				<attribute name="fused_names" value="StatefulPartitionedCall/3d_unet_decathlon/transconv_c/strided_slice_3/stack" version="0"/>
			</rt_info>
			<output>
				<port id="0" names="StatefulPartitionedCall/3d_unet_decathlon/transconv_c/strided_slice_3/stack:0" precision="I64">
					<dim>1</dim>
				</port>
			</output>
		</layer>
		<layer id="144" name="StatefulPartitionedCall/3d_unet_decathlon/transconv_c/strided_slice_3/stack_1" type="Const" version="opset1">
			<data element_type="i64" offset="15182496" shape="1" size="8"/>
			<rt_info>
				<attribute name="fused_names" value="StatefulPartitionedCall/3d_unet_decathlon/transconv_c/strided_slice_3/stack_1" version="0"/>
			</rt_info>
			<output>
				<port id="0" names="StatefulPartitionedCall/3d_unet_decathlon/transconv_c/strided_slice_3/stack_1:0" precision="I64">
					<dim>1</dim>
				</port>
			</output>
		</layer>
		<layer id="145" name="StatefulPartitionedCall/3d_unet_decathlon/transconv_c/strided_slice_3/stack_2" type="Const" version="opset1">
			<data element_type="i64" offset="15182468" shape="1" size="8"/>
			<rt_info>
				<attribute name="fused_names" value="StatefulPartitionedCall/3d_unet_decathlon/transconv_c/strided_slice_3/stack_2" version="0"/>
			</rt_info>
			<output>
				<port id="0" names="StatefulPartitionedCall/3d_unet_decathlon/transconv_c/strided_slice_3/stack_2:0" precision="I64">
					<dim>1</dim>
				</port>
			</output>
		</layer>
		<layer id="146" name="StatefulPartitionedCall/3d_unet_decathlon/transconv_c/strided_slice_3" type="StridedSlice" version="opset1">
			<data begin_mask="0" ellipsis_mask="0" end_mask="0" new_axis_mask="0" shrink_axis_mask="1"/>
			<rt_info>
				<attribute name="fused_names" value="StatefulPartitionedCall/3d_unet_decathlon/transconv_c/strided_slice_3, StatefulPartitionedCall/3d_unet_decathlon/transconv_c/strided_slice_3/stack, StatefulPartitionedCall/3d_unet_decathlon/transconv_c/strided_slice_3/stack_1, StatefulPartitionedCall/3d_unet_decathlon/transconv_c/strided_slice_3/stack_2" version="0"/>
			</rt_info>
			<input>
				<port id="0" precision="I32">
					<dim>5</dim>
				</port>
				<port id="1" precision="I64">
					<dim>1</dim>
				</port>
				<port id="2" precision="I64">
					<dim>1</dim>
				</port>
				<port id="3" precision="I64">
					<dim>1</dim>
				</port>
			</input>
			<output>
				<port id="4" names="StatefulPartitionedCall/3d_unet_decathlon/transconv_c/strided_slice_3:0" precision="I32"/>
			</output>
		</layer>
		<layer id="147" name="StatefulPartitionedCall/3d_unet_decathlon/transconv_c/mul_2/y" type="Const" version="opset1">
			<data element_type="i32" offset="15182484" shape="" size="4"/>
			<rt_info>
				<attribute name="fused_names" value="StatefulPartitionedCall/3d_unet_decathlon/transconv_c/mul_2/y" version="0"/>
			</rt_info>
			<output>
				<port id="0" names="StatefulPartitionedCall/3d_unet_decathlon/transconv_c/mul_2/y:0" precision="I32"/>
			</output>
		</layer>
		<layer id="148" name="StatefulPartitionedCall/3d_unet_decathlon/transconv_c/mul_2" type="Multiply" version="opset1">
			<data auto_broadcast="numpy"/>
			<rt_info>
				<attribute name="fused_names" value="StatefulPartitionedCall/3d_unet_decathlon/transconv_c/mul_2, StatefulPartitionedCall/3d_unet_decathlon/transconv_c/mul_2/y" version="0"/>
			</rt_info>
			<input>
				<port id="0" precision="I32"/>
				<port id="1" precision="I32"/>
			</input>
			<output>
				<port id="2" names="StatefulPartitionedCall/3d_unet_decathlon/transconv_c/mul_2:0" precision="I32"/>
			</output>
		</layer>
		<layer id="149" name="StatefulPartitionedCall/3d_unet_decathlon/transconv_c/stack/Unsqueeze567_input_port_1/value" type="Const" version="opset1">
			<data element_type="i64" offset="15182460" shape="1" size="8"/>
			<rt_info>
				<attribute name="fused_names" value="StatefulPartitionedCall/3d_unet_decathlon/transconv_c/stack/Unsqueeze567_input_port_1/value" version="0"/>
			</rt_info>
			<output>
				<port id="0" precision="I64">
					<dim>1</dim>
				</port>
			</output>
		</layer>
		<layer id="150" name="StatefulPartitionedCall/3d_unet_decathlon/transconv_c/stack/Unsqueeze567" type="Unsqueeze" version="opset1">
			<rt_info>
				<attribute name="fused_names" value="StatefulPartitionedCall/3d_unet_decathlon/transconv_c/stack/Unsqueeze567, StatefulPartitionedCall/3d_unet_decathlon/transconv_c/stack/Unsqueeze567_input_port_1/value" version="0"/>
			</rt_info>
			<input>
				<port id="0" precision="I32"/>
				<port id="1" precision="I64">
					<dim>1</dim>
				</port>
			</input>
			<output>
				<port id="2" precision="I32">
					<dim>1</dim>
				</port>
			</output>
		</layer>
		<layer id="151" name="StatefulPartitionedCall/3d_unet_decathlon/transconv_c/stack/Unsqueeze569" type="Const" version="opset1">
			<data element_type="i32" offset="20754632" shape="1" size="4"/>
			<rt_info>
				<attribute name="fused_names" value="StatefulPartitionedCall/3d_unet_decathlon/transconv_c/stack/Unsqueeze569" version="0"/>
			</rt_info>
			<output>
				<port id="0" precision="I32">
					<dim>1</dim>
				</port>
			</output>
		</layer>
		<layer id="152" name="StatefulPartitionedCall/3d_unet_decathlon/transconv_c/stack" type="Concat" version="opset1">
			<data axis="0"/>
			<rt_info>
				<attribute name="fused_names" value="StatefulPartitionedCall/3d_unet_decathlon/transconv_c/stack, StatefulPartitionedCall/3d_unet_decathlon/transconv_c/stack/Unsqueeze569" version="0"/>
			</rt_info>
			<input>
				<port id="0" precision="I32">
					<dim>1</dim>
				</port>
				<port id="1" precision="I32">
					<dim>1</dim>
				</port>
				<port id="2" precision="I32">
					<dim>1</dim>
				</port>
				<port id="3" precision="I32">
					<dim>1</dim>
				</port>
				<port id="4" precision="I32">
					<dim>1</dim>
				</port>
			</input>
			<output>
				<port id="5" precision="I32">
					<dim>5</dim>
				</port>
			</output>
		</layer>
		<layer id="153" name="StatefulPartitionedCall/3d_unet_decathlon/transconv_c/conv3d_transpose/GatherNHWCtoNCHW_input_port_1/value912013557" type="Const" version="opset1">
			<data element_type="i32" offset="15182508" shape="5" size="20"/>
			<rt_info>
				<attribute name="fused_names" value="StatefulPartitionedCall/3d_unet_decathlon/transconv_c/conv3d_transpose/GatherNHWCtoNCHW_input_port_1/value912013557" version="0"/>
			</rt_info>
			<output>
				<port id="0" precision="I32">
					<dim>5</dim>
				</port>
			</output>
		</layer>
		<layer id="154" name="StatefulPartitionedCall/3d_unet_decathlon/transconv_c/conv3d_transpose/GatherNHWCtoNCHW_input_port_2/value912213494" type="Const" version="opset1">
			<data element_type="i64" offset="15182460" shape="" size="8"/>
			<rt_info>
				<attribute name="fused_names" value="StatefulPartitionedCall/3d_unet_decathlon/transconv_c/conv3d_transpose/GatherNHWCtoNCHW_input_port_2/value912213494" version="0"/>
			</rt_info>
			<output>
				<port id="0" precision="I64"/>
			</output>
		</layer>
		<layer id="155" name="StatefulPartitionedCall/3d_unet_decathlon/transconv_c/conv3d_transpose/GatherNHWCtoNCHW" type="Gather" version="opset8">
			<data batch_dims="0"/>
			<rt_info>
				<attribute name="fused_names" value="StatefulPartitionedCall/3d_unet_decathlon/transconv_c/conv3d_transpose/GatherNHWCtoNCHW, StatefulPartitionedCall/3d_unet_decathlon/transconv_c/conv3d_transpose/GatherNHWCtoNCHW_input_port_1/value912013557, StatefulPartitionedCall/3d_unet_decathlon/transconv_c/conv3d_transpose/GatherNHWCtoNCHW_input_port_2/value912213494" version="0"/>
			</rt_info>
			<input>
				<port id="0" precision="I32">
					<dim>5</dim>
				</port>
				<port id="1" precision="I32">
					<dim>5</dim>
				</port>
				<port id="2" precision="I64"/>
			</input>
			<output>
				<port id="3" precision="I32">
					<dim>5</dim>
				</port>
			</output>
		</layer>
		<layer id="156" name="StatefulPartitionedCall/3d_unet_decathlon/transconv_c/conv3d_transpose/ss_0_port_input_port_1/value1227213620" type="Const" version="opset1">
			<data element_type="i64" offset="15182476" shape="1" size="8"/>
			<rt_info>
				<attribute name="fused_names" value="StatefulPartitionedCall/3d_unet_decathlon/transconv_c/conv3d_transpose/ss_0_port_input_port_1/value1227213620" version="0"/>
			</rt_info>
			<output>
				<port id="0" precision="I64">
					<dim>1</dim>
				</port>
			</output>
		</layer>
		<layer id="157" name="StatefulPartitionedCall/3d_unet_decathlon/transconv_c/conv3d_transpose/ss_0_port_input_port_2/value1227413500" type="Const" version="opset1">
			<data element_type="i64" offset="15182528" shape="1" size="8"/>
			<rt_info>
				<attribute name="fused_names" value="StatefulPartitionedCall/3d_unet_decathlon/transconv_c/conv3d_transpose/ss_0_port_input_port_2/value1227413500" version="0"/>
			</rt_info>
			<output>
				<port id="0" precision="I64">
					<dim>1</dim>
				</port>
			</output>
		</layer>
		<layer id="158" name="StatefulPartitionedCall/3d_unet_decathlon/transconv_c/conv3d_transpose/ss_0_port_input_port_3/value1227613266" type="Const" version="opset1">
			<data element_type="i64" offset="15182468" shape="1" size="8"/>
			<rt_info>
				<attribute name="fused_names" value="StatefulPartitionedCall/3d_unet_decathlon/transconv_c/conv3d_transpose/ss_0_port_input_port_3/value1227613266" version="0"/>
			</rt_info>
			<output>
				<port id="0" precision="I64">
					<dim>1</dim>
				</port>
			</output>
		</layer>
		<layer id="159" name="StatefulPartitionedCall/3d_unet_decathlon/transconv_c/conv3d_transpose/ss_0_port" type="StridedSlice" version="opset1">
			<data begin_mask="0" ellipsis_mask="0" end_mask="1" new_axis_mask="0" shrink_axis_mask="0"/>
			<rt_info>
				<attribute name="fused_names" value="StatefulPartitionedCall/3d_unet_decathlon/transconv_c/conv3d_transpose/ss_0_port, StatefulPartitionedCall/3d_unet_decathlon/transconv_c/conv3d_transpose/ss_0_port_input_port_1/value1227213620, StatefulPartitionedCall/3d_unet_decathlon/transconv_c/conv3d_transpose/ss_0_port_input_port_2/value1227413500, StatefulPartitionedCall/3d_unet_decathlon/transconv_c/conv3d_transpose/ss_0_port_input_port_3/value1227613266" version="0"/>
			</rt_info>
			<input>
				<port id="0" precision="I32">
					<dim>5</dim>
				</port>
				<port id="1" precision="I64">
					<dim>1</dim>
				</port>
				<port id="2" precision="I64">
					<dim>1</dim>
				</port>
				<port id="3" precision="I64">
					<dim>1</dim>
				</port>
			</input>
			<output>
				<port id="4" precision="I32">
					<dim>3</dim>
				</port>
			</output>
		</layer>
		<layer id="160" name="StatefulPartitionedCall/3d_unet_decathlon/transconv_c/conv3d_transpose/Cast_2" type="Convert" version="opset1">
			<data destination_type="i64"/>
			<rt_info>
				<attribute name="fused_names" value="StatefulPartitionedCall/3d_unet_decathlon/transconv_c/conv3d_transpose/Cast_2" version="0"/>
			</rt_info>
			<input>
				<port id="0" precision="I32">
					<dim>3</dim>
				</port>
			</input>
			<output>
				<port id="1" precision="I64">
					<dim>3</dim>
				</port>
			</output>
		</layer>
		<layer id="161" name="StatefulPartitionedCall/3d_unet_decathlon/transconv_c/conv3d_transpose" type="ConvolutionBackpropData" version="opset1">
			<data auto_pad="same_lower" dilations="1, 1, 1" output_padding="0, 0, 0" pads_begin="0, 0, 0" pads_end="0, 0, 0" strides="2, 2, 2"/>
			<rt_info>
				<attribute name="fused_names" value="StatefulPartitionedCall/3d_unet_decathlon/transconv_c/conv3d_transpose" version="0"/>
			</rt_info>
			<input>
				<port id="0" precision="FP32">
					<dim>1</dim>
					<dim>128</dim>
					<dim>18</dim>
					<dim>18</dim>
					<dim>18</dim>
				</port>
				<port id="1" precision="FP32">
					<dim>128</dim>
					<dim>64</dim>
					<dim>2</dim>
					<dim>2</dim>
					<dim>2</dim>
				</port>
				<port id="2" precision="I64">
					<dim>3</dim>
				</port>
			</input>
			<output>
				<port id="3" names="StatefulPartitionedCall/3d_unet_decathlon/transconv_c/conv3d_transpose:0" precision="FP32">
					<dim>1</dim>
					<dim>64</dim>
					<dim>36</dim>
					<dim>36</dim>
					<dim>36</dim>
				</port>
			</output>
		</layer>
		<layer id="162" name="StatefulPartitionedCall/3d_unet_decathlon/transconv_c/BiasAdd/ReadVariableOp" type="Const" version="opset1">
			<data element_type="f32" offset="20754636" shape="1, 64, 1, 1, 1" size="256"/>
			<rt_info>
				<attribute name="fused_names" value="StatefulPartitionedCall/3d_unet_decathlon/transconv_c/BiasAdd/ReadVariableOp" version="0"/>
			</rt_info>
			<output>
				<port id="0" names="StatefulPartitionedCall/3d_unet_decathlon/transconv_c/BiasAdd/ReadVariableOp:0" precision="FP32">
					<dim>1</dim>
					<dim>64</dim>
					<dim>1</dim>
					<dim>1</dim>
					<dim>1</dim>
				</port>
			</output>
		</layer>
		<layer id="163" name="StatefulPartitionedCall/3d_unet_decathlon/transconv_c/BiasAdd/Add" type="Add" version="opset1">
			<data auto_broadcast="numpy"/>
			<rt_info>
				<attribute name="fused_names" value="StatefulPartitionedCall/3d_unet_decathlon/transconv_c/BiasAdd/Add" version="0"/>
			</rt_info>
			<input>
				<port id="0" precision="FP32">
					<dim>1</dim>
					<dim>64</dim>
					<dim>36</dim>
					<dim>36</dim>
					<dim>36</dim>
				</port>
				<port id="1" precision="FP32">
					<dim>1</dim>
					<dim>64</dim>
					<dim>1</dim>
					<dim>1</dim>
					<dim>1</dim>
				</port>
			</input>
			<output>
				<port id="2" names="StatefulPartitionedCall/3d_unet_decathlon/transconv_c/BiasAdd:0" precision="FP32">
					<dim>1</dim>
					<dim>64</dim>
					<dim>36</dim>
					<dim>36</dim>
					<dim>36</dim>
				</port>
			</output>
		</layer>
		<layer id="164" name="StatefulPartitionedCall/3d_unet_decathlon/concat_c/concat" type="Concat" version="opset1">
			<data axis="1"/>
			<rt_info>
				<attribute name="fused_names" value="StatefulPartitionedCall/3d_unet_decathlon/concat_c/concat" version="0"/>
			</rt_info>
			<input>
				<port id="0" precision="FP32">
					<dim>1</dim>
					<dim>64</dim>
					<dim>36</dim>
					<dim>36</dim>
					<dim>36</dim>
				</port>
				<port id="1" precision="FP32">
					<dim>1</dim>
					<dim>64</dim>
					<dim>36</dim>
					<dim>36</dim>
					<dim>36</dim>
				</port>
			</input>
			<output>
				<port id="2" names="StatefulPartitionedCall/3d_unet_decathlon/concat_c/concat:0" precision="FP32">
					<dim>1</dim>
					<dim>128</dim>
					<dim>36</dim>
					<dim>36</dim>
					<dim>36</dim>
				</port>
			</output>
		</layer>
		<layer id="165" name="StatefulPartitionedCall/3d_unet_decathlon/decode_b_bn_0/FusedBatchNormV3/mean/Fused_Mul__copy" type="Const" version="opset1">
			<data element_type="f32" offset="20754892" shape="64, 128, 3, 3, 3" size="884736"/>
			<rt_info>
				<attribute name="fused_names" value="StatefulPartitionedCall/3d_unet_decathlon/decode_b_bn_0/FusedBatchNormV3/mean/Fused_Mul__copy" version="0"/>
			</rt_info>
			<output>
				<port id="0" names="StatefulPartitionedCall/3d_unet_decathlon/decode_b_conv_0/Conv3D/ReadVariableOp:0" precision="FP32">
					<dim>64</dim>
					<dim>128</dim>
					<dim>3</dim>
					<dim>3</dim>
					<dim>3</dim>
				</port>
			</output>
		</layer>
		<layer id="166" name="StatefulPartitionedCall/3d_unet_decathlon/decode_b_conv_0/Conv3D" type="Convolution" version="opset1">
			<data auto_pad="same_upper" dilations="1, 1, 1" pads_begin="0, 0, 0" pads_end="0, 0, 0" strides="1, 1, 1"/>
			<rt_info>
				<attribute name="fused_names" value="StatefulPartitionedCall/3d_unet_decathlon/decode_b_conv_0/Conv3D" version="0"/>
			</rt_info>
			<input>
				<port id="0" precision="FP32">
					<dim>1</dim>
					<dim>128</dim>
					<dim>36</dim>
					<dim>36</dim>
					<dim>36</dim>
				</port>
				<port id="1" precision="FP32">
					<dim>64</dim>
					<dim>128</dim>
					<dim>3</dim>
					<dim>3</dim>
					<dim>3</dim>
				</port>
			</input>
			<output>
				<port id="2" precision="FP32">
					<dim>1</dim>
					<dim>64</dim>
					<dim>36</dim>
					<dim>36</dim>
					<dim>36</dim>
				</port>
			</output>
		</layer>
		<layer id="167" name="data_add_71017106" type="Const" version="opset1">
			<data element_type="f32" offset="21639628" shape="1, 64, 1, 1, 1" size="256"/>
			<rt_info>
				<attribute name="fused_names" value="data_add_71017106" version="0"/>
			</rt_info>
			<output>
				<port id="0" precision="FP32">
					<dim>1</dim>
					<dim>64</dim>
					<dim>1</dim>
					<dim>1</dim>
					<dim>1</dim>
				</port>
			</output>
		</layer>
		<layer id="168" name="StatefulPartitionedCall/3d_unet_decathlon/decode_b_conv_0/BiasAdd/Add/Fused_Add_" type="Add" version="opset1">
			<data auto_broadcast="numpy"/>
			<rt_info>
				<attribute name="fused_names" value="StatefulPartitionedCall/3d_unet_decathlon/decode_b_conv_0/BiasAdd/Add/Fused_Add_" version="0"/>
			</rt_info>
			<input>
				<port id="0" precision="FP32">
					<dim>1</dim>
					<dim>64</dim>
					<dim>36</dim>
					<dim>36</dim>
					<dim>36</dim>
				</port>
				<port id="1" precision="FP32">
					<dim>1</dim>
					<dim>64</dim>
					<dim>1</dim>
					<dim>1</dim>
					<dim>1</dim>
				</port>
			</input>
			<output>
				<port id="2" names="StatefulPartitionedCall/3d_unet_decathlon/decode_b_bn_0/FusedBatchNormV3:0" precision="FP32">
					<dim>1</dim>
					<dim>64</dim>
					<dim>36</dim>
					<dim>36</dim>
					<dim>36</dim>
				</port>
			</output>
		</layer>
		<layer id="169" name="StatefulPartitionedCall/3d_unet_decathlon/decode_b_relu_0/Relu" type="ReLU" version="opset1">
			<rt_info>
				<attribute name="fused_names" value="StatefulPartitionedCall/3d_unet_decathlon/decode_b_relu_0/Relu" version="0"/>
			</rt_info>
			<input>
				<port id="0" precision="FP32">
					<dim>1</dim>
					<dim>64</dim>
					<dim>36</dim>
					<dim>36</dim>
					<dim>36</dim>
				</port>
			</input>
			<output>
				<port id="1" names="StatefulPartitionedCall/3d_unet_decathlon/decode_b_relu_0/Relu:0" precision="FP32">
					<dim>1</dim>
					<dim>64</dim>
					<dim>36</dim>
					<dim>36</dim>
					<dim>36</dim>
				</port>
			</output>
		</layer>
		<layer id="170" name="StatefulPartitionedCall/3d_unet_decathlon/decode_b_bn_1/FusedBatchNormV3/mean/Fused_Mul__copy" type="Const" version="opset1">
			<data element_type="f32" offset="21639884" shape="64, 64, 3, 3, 3" size="442368"/>
			<rt_info>
				<attribute name="fused_names" value="StatefulPartitionedCall/3d_unet_decathlon/decode_b_bn_1/FusedBatchNormV3/mean/Fused_Mul__copy" version="0"/>
			</rt_info>
			<output>
				<port id="0" names="StatefulPartitionedCall/3d_unet_decathlon/decode_b_conv_1/Conv3D/ReadVariableOp:0" precision="FP32">
					<dim>64</dim>
					<dim>64</dim>
					<dim>3</dim>
					<dim>3</dim>
					<dim>3</dim>
				</port>
			</output>
		</layer>
		<layer id="171" name="StatefulPartitionedCall/3d_unet_decathlon/decode_b_conv_1/Conv3D" type="Convolution" version="opset1">
			<data auto_pad="same_upper" dilations="1, 1, 1" pads_begin="0, 0, 0" pads_end="0, 0, 0" strides="1, 1, 1"/>
			<rt_info>
				<attribute name="fused_names" value="StatefulPartitionedCall/3d_unet_decathlon/decode_b_conv_1/Conv3D" version="0"/>
			</rt_info>
			<input>
				<port id="0" precision="FP32">
					<dim>1</dim>
					<dim>64</dim>
					<dim>36</dim>
					<dim>36</dim>
					<dim>36</dim>
				</port>
				<port id="1" precision="FP32">
					<dim>64</dim>
					<dim>64</dim>
					<dim>3</dim>
					<dim>3</dim>
					<dim>3</dim>
				</port>
			</input>
			<output>
				<port id="2" precision="FP32">
					<dim>1</dim>
					<dim>64</dim>
					<dim>36</dim>
					<dim>36</dim>
					<dim>36</dim>
				</port>
			</output>
		</layer>
		<layer id="172" name="data_add_71097114" type="Const" version="opset1">
			<data element_type="f32" offset="22082252" shape="1, 64, 1, 1, 1" size="256"/>
			<rt_info>
				<attribute name="fused_names" value="data_add_71097114" version="0"/>
			</rt_info>
			<output>
				<port id="0" precision="FP32">
					<dim>1</dim>
					<dim>64</dim>
					<dim>1</dim>
					<dim>1</dim>
					<dim>1</dim>
				</port>
			</output>
		</layer>
		<layer id="173" name="StatefulPartitionedCall/3d_unet_decathlon/decode_b_conv_1/BiasAdd/Add/Fused_Add_" type="Add" version="opset1">
			<data auto_broadcast="numpy"/>
			<rt_info>
				<attribute name="fused_names" value="StatefulPartitionedCall/3d_unet_decathlon/decode_b_conv_1/BiasAdd/Add/Fused_Add_" version="0"/>
			</rt_info>
			<input>
				<port id="0" precision="FP32">
					<dim>1</dim>
					<dim>64</dim>
					<dim>36</dim>
					<dim>36</dim>
					<dim>36</dim>
				</port>
				<port id="1" precision="FP32">
					<dim>1</dim>
					<dim>64</dim>
					<dim>1</dim>
					<dim>1</dim>
					<dim>1</dim>
				</port>
			</input>
			<output>
				<port id="2" names="StatefulPartitionedCall/3d_unet_decathlon/decode_b_bn_1/FusedBatchNormV3:0" precision="FP32">
					<dim>1</dim>
					<dim>64</dim>
					<dim>36</dim>
					<dim>36</dim>
					<dim>36</dim>
				</port>
			</output>
		</layer>
		<layer id="174" name="StatefulPartitionedCall/3d_unet_decathlon/decode_b/Relu" type="ReLU" version="opset1">
			<rt_info>
				<attribute name="fused_names" value="StatefulPartitionedCall/3d_unet_decathlon/decode_b/Relu" version="0"/>
			</rt_info>
			<input>
				<port id="0" precision="FP32">
					<dim>1</dim>
					<dim>64</dim>
					<dim>36</dim>
					<dim>36</dim>
					<dim>36</dim>
				</port>
			</input>
			<output>
				<port id="1" names="StatefulPartitionedCall/3d_unet_decathlon/decode_b/Relu:0" precision="FP32">
					<dim>1</dim>
					<dim>64</dim>
					<dim>36</dim>
					<dim>36</dim>
					<dim>36</dim>
				</port>
			</output>
		</layer>
		<layer id="175" name="StatefulPartitionedCall/3d_unet_decathlon/transconv_b/conv3d_transpose/ReadVariableOp" type="Const" version="opset1">
			<data element_type="f32" offset="22082508" shape="64, 32, 2, 2, 2" size="65536"/>
			<rt_info>
				<attribute name="fused_names" value="StatefulPartitionedCall/3d_unet_decathlon/transconv_b/conv3d_transpose/ReadVariableOp" version="0"/>
			</rt_info>
			<output>
				<port id="0" names="StatefulPartitionedCall/3d_unet_decathlon/transconv_b/conv3d_transpose/ReadVariableOp:0" precision="FP32">
					<dim>64</dim>
					<dim>32</dim>
					<dim>2</dim>
					<dim>2</dim>
					<dim>2</dim>
				</port>
			</output>
		</layer>
		<layer id="176" name="StatefulPartitionedCall/3d_unet_decathlon/transconv_b/Shape" type="ShapeOf" version="opset3">
			<data output_type="i32"/>
			<rt_info>
				<attribute name="fused_names" value="StatefulPartitionedCall/3d_unet_decathlon/transconv_b/Shape" version="0"/>
			</rt_info>
			<input>
				<port id="0" precision="FP32">
					<dim>1</dim>
					<dim>64</dim>
					<dim>36</dim>
					<dim>36</dim>
					<dim>36</dim>
				</port>
			</input>
			<output>
				<port id="1" precision="I32">
					<dim>5</dim>
				</port>
			</output>
		</layer>
		<layer id="177" name="StatefulPartitionedCall/3d_unet_decathlon/transconv_b/Shape/GatherNCHWtoNHWC_input_port_1/value909013683" type="Const" version="opset1">
			<data element_type="i32" offset="15182440" shape="5" size="20"/>
			<rt_info>
				<attribute name="fused_names" value="StatefulPartitionedCall/3d_unet_decathlon/transconv_b/Shape/GatherNCHWtoNHWC_input_port_1/value909013683" version="0"/>
			</rt_info>
			<output>
				<port id="0" precision="I32">
					<dim>5</dim>
				</port>
			</output>
		</layer>
		<layer id="178" name="StatefulPartitionedCall/3d_unet_decathlon/transconv_b/Shape/GatherNCHWtoNHWC_input_port_2/value909213563" type="Const" version="opset1">
			<data element_type="i64" offset="15182460" shape="" size="8"/>
			<rt_info>
				<attribute name="fused_names" value="StatefulPartitionedCall/3d_unet_decathlon/transconv_b/Shape/GatherNCHWtoNHWC_input_port_2/value909213563" version="0"/>
			</rt_info>
			<output>
				<port id="0" precision="I64"/>
			</output>
		</layer>
		<layer id="179" name="StatefulPartitionedCall/3d_unet_decathlon/transconv_b/Shape/GatherNCHWtoNHWC" type="Gather" version="opset8">
			<data batch_dims="0"/>
			<rt_info>
				<attribute name="fused_names" value="StatefulPartitionedCall/3d_unet_decathlon/transconv_b/Shape/GatherNCHWtoNHWC, StatefulPartitionedCall/3d_unet_decathlon/transconv_b/Shape/GatherNCHWtoNHWC_input_port_1/value909013683, StatefulPartitionedCall/3d_unet_decathlon/transconv_b/Shape/GatherNCHWtoNHWC_input_port_2/value909213563" version="0"/>
			</rt_info>
			<input>
				<port id="0" precision="I32">
					<dim>5</dim>
				</port>
				<port id="1" precision="I32">
					<dim>5</dim>
				</port>
				<port id="2" precision="I64"/>
			</input>
			<output>
				<port id="3" names="StatefulPartitionedCall/3d_unet_decathlon/transconv_b/Shape:0" precision="I32">
					<dim>5</dim>
				</port>
			</output>
		</layer>
		<layer id="180" name="StatefulPartitionedCall/3d_unet_decathlon/transconv_b/strided_slice/stack" type="Const" version="opset1">
			<data element_type="i64" offset="15182460" shape="1" size="8"/>
			<rt_info>
				<attribute name="fused_names" value="StatefulPartitionedCall/3d_unet_decathlon/transconv_b/strided_slice/stack" version="0"/>
			</rt_info>
			<output>
				<port id="0" names="StatefulPartitionedCall/3d_unet_decathlon/transconv_b/strided_slice/stack:0" precision="I64">
					<dim>1</dim>
				</port>
			</output>
		</layer>
		<layer id="181" name="StatefulPartitionedCall/3d_unet_decathlon/transconv_b/strided_slice/stack_1" type="Const" version="opset1">
			<data element_type="i64" offset="15182468" shape="1" size="8"/>
			<rt_info>
				<attribute name="fused_names" value="StatefulPartitionedCall/3d_unet_decathlon/transconv_b/strided_slice/stack_1" version="0"/>
			</rt_info>
			<output>
				<port id="0" names="StatefulPartitionedCall/3d_unet_decathlon/transconv_b/strided_slice/stack_1:0" precision="I64">
					<dim>1</dim>
				</port>
			</output>
		</layer>
		<layer id="182" name="StatefulPartitionedCall/3d_unet_decathlon/transconv_b/strided_slice/stack_2" type="Const" version="opset1">
			<data element_type="i64" offset="15182468" shape="1" size="8"/>
			<rt_info>
				<attribute name="fused_names" value="StatefulPartitionedCall/3d_unet_decathlon/transconv_b/strided_slice/stack_2" version="0"/>
			</rt_info>
			<output>
				<port id="0" names="StatefulPartitionedCall/3d_unet_decathlon/transconv_b/strided_slice/stack_2:0" precision="I64">
					<dim>1</dim>
				</port>
			</output>
		</layer>
		<layer id="183" name="StatefulPartitionedCall/3d_unet_decathlon/transconv_b/strided_slice" type="StridedSlice" version="opset1">
			<data begin_mask="0" ellipsis_mask="0" end_mask="0" new_axis_mask="0" shrink_axis_mask="1"/>
			<rt_info>
				<attribute name="fused_names" value="StatefulPartitionedCall/3d_unet_decathlon/transconv_b/strided_slice, StatefulPartitionedCall/3d_unet_decathlon/transconv_b/strided_slice/stack, StatefulPartitionedCall/3d_unet_decathlon/transconv_b/strided_slice/stack_1, StatefulPartitionedCall/3d_unet_decathlon/transconv_b/strided_slice/stack_2" version="0"/>
			</rt_info>
			<input>
				<port id="0" precision="I32">
					<dim>5</dim>
				</port>
				<port id="1" precision="I64">
					<dim>1</dim>
				</port>
				<port id="2" precision="I64">
					<dim>1</dim>
				</port>
				<port id="3" precision="I64">
					<dim>1</dim>
				</port>
			</input>
			<output>
				<port id="4" names="StatefulPartitionedCall/3d_unet_decathlon/transconv_b/strided_slice:0" precision="I32"/>
			</output>
		</layer>
		<layer id="184" name="StatefulPartitionedCall/3d_unet_decathlon/transconv_b/stack/Unsqueeze_input_port_1/value" type="Const" version="opset1">
			<data element_type="i64" offset="15182460" shape="1" size="8"/>
			<rt_info>
				<attribute name="fused_names" value="StatefulPartitionedCall/3d_unet_decathlon/transconv_b/stack/Unsqueeze_input_port_1/value" version="0"/>
			</rt_info>
			<output>
				<port id="0" precision="I64">
					<dim>1</dim>
				</port>
			</output>
		</layer>
		<layer id="185" name="StatefulPartitionedCall/3d_unet_decathlon/transconv_b/stack/Unsqueeze" type="Unsqueeze" version="opset1">
			<rt_info>
				<attribute name="fused_names" value="StatefulPartitionedCall/3d_unet_decathlon/transconv_b/stack/Unsqueeze, StatefulPartitionedCall/3d_unet_decathlon/transconv_b/stack/Unsqueeze_input_port_1/value" version="0"/>
			</rt_info>
			<input>
				<port id="0" precision="I32"/>
				<port id="1" precision="I64">
					<dim>1</dim>
				</port>
			</input>
			<output>
				<port id="2" precision="I32">
					<dim>1</dim>
				</port>
			</output>
		</layer>
		<layer id="186" name="StatefulPartitionedCall/3d_unet_decathlon/transconv_b/strided_slice_1/stack" type="Const" version="opset1">
			<data element_type="i64" offset="15182468" shape="1" size="8"/>
			<rt_info>
				<attribute name="fused_names" value="StatefulPartitionedCall/3d_unet_decathlon/transconv_b/strided_slice_1/stack" version="0"/>
			</rt_info>
			<output>
				<port id="0" names="StatefulPartitionedCall/3d_unet_decathlon/transconv_b/strided_slice_1/stack:0" precision="I64">
					<dim>1</dim>
				</port>
			</output>
		</layer>
		<layer id="187" name="StatefulPartitionedCall/3d_unet_decathlon/transconv_b/strided_slice_1/stack_1" type="Const" version="opset1">
			<data element_type="i64" offset="15182476" shape="1" size="8"/>
			<rt_info>
				<attribute name="fused_names" value="StatefulPartitionedCall/3d_unet_decathlon/transconv_b/strided_slice_1/stack_1" version="0"/>
			</rt_info>
			<output>
				<port id="0" names="StatefulPartitionedCall/3d_unet_decathlon/transconv_b/strided_slice_1/stack_1:0" precision="I64">
					<dim>1</dim>
				</port>
			</output>
		</layer>
		<layer id="188" name="StatefulPartitionedCall/3d_unet_decathlon/transconv_b/strided_slice_1/stack_2" type="Const" version="opset1">
			<data element_type="i64" offset="15182468" shape="1" size="8"/>
			<rt_info>
				<attribute name="fused_names" value="StatefulPartitionedCall/3d_unet_decathlon/transconv_b/strided_slice_1/stack_2" version="0"/>
			</rt_info>
			<output>
				<port id="0" names="StatefulPartitionedCall/3d_unet_decathlon/transconv_b/strided_slice_1/stack_2:0" precision="I64">
					<dim>1</dim>
				</port>
			</output>
		</layer>
		<layer id="189" name="StatefulPartitionedCall/3d_unet_decathlon/transconv_b/strided_slice_1" type="StridedSlice" version="opset1">
			<data begin_mask="0" ellipsis_mask="0" end_mask="0" new_axis_mask="0" shrink_axis_mask="1"/>
			<rt_info>
				<attribute name="fused_names" value="StatefulPartitionedCall/3d_unet_decathlon/transconv_b/strided_slice_1, StatefulPartitionedCall/3d_unet_decathlon/transconv_b/strided_slice_1/stack, StatefulPartitionedCall/3d_unet_decathlon/transconv_b/strided_slice_1/stack_1, StatefulPartitionedCall/3d_unet_decathlon/transconv_b/strided_slice_1/stack_2" version="0"/>
			</rt_info>
			<input>
				<port id="0" precision="I32">
					<dim>5</dim>
				</port>
				<port id="1" precision="I64">
					<dim>1</dim>
				</port>
				<port id="2" precision="I64">
					<dim>1</dim>
				</port>
				<port id="3" precision="I64">
					<dim>1</dim>
				</port>
			</input>
			<output>
				<port id="4" names="StatefulPartitionedCall/3d_unet_decathlon/transconv_b/strided_slice_1:0" precision="I32"/>
			</output>
		</layer>
		<layer id="190" name="StatefulPartitionedCall/3d_unet_decathlon/transconv_b/mul/y" type="Const" version="opset1">
			<data element_type="i32" offset="15182484" shape="" size="4"/>
			<rt_info>
				<attribute name="fused_names" value="StatefulPartitionedCall/3d_unet_decathlon/transconv_b/mul/y" version="0"/>
			</rt_info>
			<output>
				<port id="0" names="StatefulPartitionedCall/3d_unet_decathlon/transconv_b/mul/y:0" precision="I32"/>
			</output>
		</layer>
		<layer id="191" name="StatefulPartitionedCall/3d_unet_decathlon/transconv_b/mul" type="Multiply" version="opset1">
			<data auto_broadcast="numpy"/>
			<rt_info>
				<attribute name="fused_names" value="StatefulPartitionedCall/3d_unet_decathlon/transconv_b/mul, StatefulPartitionedCall/3d_unet_decathlon/transconv_b/mul/y" version="0"/>
			</rt_info>
			<input>
				<port id="0" precision="I32"/>
				<port id="1" precision="I32"/>
			</input>
			<output>
				<port id="2" names="StatefulPartitionedCall/3d_unet_decathlon/transconv_b/mul:0" precision="I32"/>
			</output>
		</layer>
		<layer id="192" name="StatefulPartitionedCall/3d_unet_decathlon/transconv_b/stack/Unsqueeze574_input_port_1/value" type="Const" version="opset1">
			<data element_type="i64" offset="15182460" shape="1" size="8"/>
			<rt_info>
				<attribute name="fused_names" value="StatefulPartitionedCall/3d_unet_decathlon/transconv_b/stack/Unsqueeze574_input_port_1/value" version="0"/>
			</rt_info>
			<output>
				<port id="0" precision="I64">
					<dim>1</dim>
				</port>
			</output>
		</layer>
		<layer id="193" name="StatefulPartitionedCall/3d_unet_decathlon/transconv_b/stack/Unsqueeze574" type="Unsqueeze" version="opset1">
			<rt_info>
				<attribute name="fused_names" value="StatefulPartitionedCall/3d_unet_decathlon/transconv_b/stack/Unsqueeze574, StatefulPartitionedCall/3d_unet_decathlon/transconv_b/stack/Unsqueeze574_input_port_1/value" version="0"/>
			</rt_info>
			<input>
				<port id="0" precision="I32"/>
				<port id="1" precision="I64">
					<dim>1</dim>
				</port>
			</input>
			<output>
				<port id="2" precision="I32">
					<dim>1</dim>
				</port>
			</output>
		</layer>
		<layer id="194" name="StatefulPartitionedCall/3d_unet_decathlon/transconv_b/strided_slice_2/stack" type="Const" version="opset1">
			<data element_type="i64" offset="15182476" shape="1" size="8"/>
			<rt_info>
				<attribute name="fused_names" value="StatefulPartitionedCall/3d_unet_decathlon/transconv_b/strided_slice_2/stack" version="0"/>
			</rt_info>
			<output>
				<port id="0" names="StatefulPartitionedCall/3d_unet_decathlon/transconv_b/strided_slice_2/stack:0" precision="I64">
					<dim>1</dim>
				</port>
			</output>
		</layer>
		<layer id="195" name="StatefulPartitionedCall/3d_unet_decathlon/transconv_b/strided_slice_2/stack_1" type="Const" version="opset1">
			<data element_type="i64" offset="15182488" shape="1" size="8"/>
			<rt_info>
				<attribute name="fused_names" value="StatefulPartitionedCall/3d_unet_decathlon/transconv_b/strided_slice_2/stack_1" version="0"/>
			</rt_info>
			<output>
				<port id="0" names="StatefulPartitionedCall/3d_unet_decathlon/transconv_b/strided_slice_2/stack_1:0" precision="I64">
					<dim>1</dim>
				</port>
			</output>
		</layer>
		<layer id="196" name="StatefulPartitionedCall/3d_unet_decathlon/transconv_b/strided_slice_2/stack_2" type="Const" version="opset1">
			<data element_type="i64" offset="15182468" shape="1" size="8"/>
			<rt_info>
				<attribute name="fused_names" value="StatefulPartitionedCall/3d_unet_decathlon/transconv_b/strided_slice_2/stack_2" version="0"/>
			</rt_info>
			<output>
				<port id="0" names="StatefulPartitionedCall/3d_unet_decathlon/transconv_b/strided_slice_2/stack_2:0" precision="I64">
					<dim>1</dim>
				</port>
			</output>
		</layer>
		<layer id="197" name="StatefulPartitionedCall/3d_unet_decathlon/transconv_b/strided_slice_2" type="StridedSlice" version="opset1">
			<data begin_mask="0" ellipsis_mask="0" end_mask="0" new_axis_mask="0" shrink_axis_mask="1"/>
			<rt_info>
				<attribute name="fused_names" value="StatefulPartitionedCall/3d_unet_decathlon/transconv_b/strided_slice_2, StatefulPartitionedCall/3d_unet_decathlon/transconv_b/strided_slice_2/stack, StatefulPartitionedCall/3d_unet_decathlon/transconv_b/strided_slice_2/stack_1, StatefulPartitionedCall/3d_unet_decathlon/transconv_b/strided_slice_2/stack_2" version="0"/>
			</rt_info>
			<input>
				<port id="0" precision="I32">
					<dim>5</dim>
				</port>
				<port id="1" precision="I64">
					<dim>1</dim>
				</port>
				<port id="2" precision="I64">
					<dim>1</dim>
				</port>
				<port id="3" precision="I64">
					<dim>1</dim>
				</port>
			</input>
			<output>
				<port id="4" names="StatefulPartitionedCall/3d_unet_decathlon/transconv_b/strided_slice_2:0" precision="I32"/>
			</output>
		</layer>
		<layer id="198" name="StatefulPartitionedCall/3d_unet_decathlon/transconv_b/mul_1/y" type="Const" version="opset1">
			<data element_type="i32" offset="15182484" shape="" size="4"/>
			<rt_info>
				<attribute name="fused_names" value="StatefulPartitionedCall/3d_unet_decathlon/transconv_b/mul_1/y" version="0"/>
			</rt_info>
			<output>
				<port id="0" names="StatefulPartitionedCall/3d_unet_decathlon/transconv_b/mul_1/y:0" precision="I32"/>
			</output>
		</layer>
		<layer id="199" name="StatefulPartitionedCall/3d_unet_decathlon/transconv_b/mul_1" type="Multiply" version="opset1">
			<data auto_broadcast="numpy"/>
			<rt_info>
				<attribute name="fused_names" value="StatefulPartitionedCall/3d_unet_decathlon/transconv_b/mul_1, StatefulPartitionedCall/3d_unet_decathlon/transconv_b/mul_1/y" version="0"/>
			</rt_info>
			<input>
				<port id="0" precision="I32"/>
				<port id="1" precision="I32"/>
			</input>
			<output>
				<port id="2" names="StatefulPartitionedCall/3d_unet_decathlon/transconv_b/mul_1:0" precision="I32"/>
			</output>
		</layer>
		<layer id="200" name="StatefulPartitionedCall/3d_unet_decathlon/transconv_b/stack/Unsqueeze576_input_port_1/value" type="Const" version="opset1">
			<data element_type="i64" offset="15182460" shape="1" size="8"/>
			<rt_info>
				<attribute name="fused_names" value="StatefulPartitionedCall/3d_unet_decathlon/transconv_b/stack/Unsqueeze576_input_port_1/value" version="0"/>
			</rt_info>
			<output>
				<port id="0" precision="I64">
					<dim>1</dim>
				</port>
			</output>
		</layer>
		<layer id="201" name="StatefulPartitionedCall/3d_unet_decathlon/transconv_b/stack/Unsqueeze576" type="Unsqueeze" version="opset1">
			<rt_info>
				<attribute name="fused_names" value="StatefulPartitionedCall/3d_unet_decathlon/transconv_b/stack/Unsqueeze576, StatefulPartitionedCall/3d_unet_decathlon/transconv_b/stack/Unsqueeze576_input_port_1/value" version="0"/>
			</rt_info>
			<input>
				<port id="0" precision="I32"/>
				<port id="1" precision="I64">
					<dim>1</dim>
				</port>
			</input>
			<output>
				<port id="2" precision="I32">
					<dim>1</dim>
				</port>
			</output>
		</layer>
		<layer id="202" name="StatefulPartitionedCall/3d_unet_decathlon/transconv_b/strided_slice_3/stack" type="Const" version="opset1">
			<data element_type="i64" offset="15182488" shape="1" size="8"/>
			<rt_info>
				<attribute name="fused_names" value="StatefulPartitionedCall/3d_unet_decathlon/transconv_b/strided_slice_3/stack" version="0"/>
			</rt_info>
			<output>
				<port id="0" names="StatefulPartitionedCall/3d_unet_decathlon/transconv_b/strided_slice_3/stack:0" precision="I64">
					<dim>1</dim>
				</port>
			</output>
		</layer>
		<layer id="203" name="StatefulPartitionedCall/3d_unet_decathlon/transconv_b/strided_slice_3/stack_1" type="Const" version="opset1">
			<data element_type="i64" offset="15182496" shape="1" size="8"/>
			<rt_info>
				<attribute name="fused_names" value="StatefulPartitionedCall/3d_unet_decathlon/transconv_b/strided_slice_3/stack_1" version="0"/>
			</rt_info>
			<output>
				<port id="0" names="StatefulPartitionedCall/3d_unet_decathlon/transconv_b/strided_slice_3/stack_1:0" precision="I64">
					<dim>1</dim>
				</port>
			</output>
		</layer>
		<layer id="204" name="StatefulPartitionedCall/3d_unet_decathlon/transconv_b/strided_slice_3/stack_2" type="Const" version="opset1">
			<data element_type="i64" offset="15182468" shape="1" size="8"/>
			<rt_info>
				<attribute name="fused_names" value="StatefulPartitionedCall/3d_unet_decathlon/transconv_b/strided_slice_3/stack_2" version="0"/>
			</rt_info>
			<output>
				<port id="0" names="StatefulPartitionedCall/3d_unet_decathlon/transconv_b/strided_slice_3/stack_2:0" precision="I64">
					<dim>1</dim>
				</port>
			</output>
		</layer>
		<layer id="205" name="StatefulPartitionedCall/3d_unet_decathlon/transconv_b/strided_slice_3" type="StridedSlice" version="opset1">
			<data begin_mask="0" ellipsis_mask="0" end_mask="0" new_axis_mask="0" shrink_axis_mask="1"/>
			<rt_info>
				<attribute name="fused_names" value="StatefulPartitionedCall/3d_unet_decathlon/transconv_b/strided_slice_3, StatefulPartitionedCall/3d_unet_decathlon/transconv_b/strided_slice_3/stack, StatefulPartitionedCall/3d_unet_decathlon/transconv_b/strided_slice_3/stack_1, StatefulPartitionedCall/3d_unet_decathlon/transconv_b/strided_slice_3/stack_2" version="0"/>
			</rt_info>
			<input>
				<port id="0" precision="I32">
					<dim>5</dim>
				</port>
				<port id="1" precision="I64">
					<dim>1</dim>
				</port>
				<port id="2" precision="I64">
					<dim>1</dim>
				</port>
				<port id="3" precision="I64">
					<dim>1</dim>
				</port>
			</input>
			<output>
				<port id="4" names="StatefulPartitionedCall/3d_unet_decathlon/transconv_b/strided_slice_3:0" precision="I32"/>
			</output>
		</layer>
		<layer id="206" name="StatefulPartitionedCall/3d_unet_decathlon/transconv_b/mul_2/y" type="Const" version="opset1">
			<data element_type="i32" offset="15182484" shape="" size="4"/>
			<rt_info>
				<attribute name="fused_names" value="StatefulPartitionedCall/3d_unet_decathlon/transconv_b/mul_2/y" version="0"/>
			</rt_info>
			<output>
				<port id="0" names="StatefulPartitionedCall/3d_unet_decathlon/transconv_b/mul_2/y:0" precision="I32"/>
			</output>
		</layer>
		<layer id="207" name="StatefulPartitionedCall/3d_unet_decathlon/transconv_b/mul_2" type="Multiply" version="opset1">
			<data auto_broadcast="numpy"/>
			<rt_info>
				<attribute name="fused_names" value="StatefulPartitionedCall/3d_unet_decathlon/transconv_b/mul_2, StatefulPartitionedCall/3d_unet_decathlon/transconv_b/mul_2/y" version="0"/>
			</rt_info>
			<input>
				<port id="0" precision="I32"/>
				<port id="1" precision="I32"/>
			</input>
			<output>
				<port id="2" names="StatefulPartitionedCall/3d_unet_decathlon/transconv_b/mul_2:0" precision="I32"/>
			</output>
		</layer>
		<layer id="208" name="StatefulPartitionedCall/3d_unet_decathlon/transconv_b/stack/Unsqueeze578_input_port_1/value" type="Const" version="opset1">
			<data element_type="i64" offset="15182460" shape="1" size="8"/>
			<rt_info>
				<attribute name="fused_names" value="StatefulPartitionedCall/3d_unet_decathlon/transconv_b/stack/Unsqueeze578_input_port_1/value" version="0"/>
			</rt_info>
			<output>
				<port id="0" precision="I64">
					<dim>1</dim>
				</port>
			</output>
		</layer>
		<layer id="209" name="StatefulPartitionedCall/3d_unet_decathlon/transconv_b/stack/Unsqueeze578" type="Unsqueeze" version="opset1">
			<rt_info>
				<attribute name="fused_names" value="StatefulPartitionedCall/3d_unet_decathlon/transconv_b/stack/Unsqueeze578, StatefulPartitionedCall/3d_unet_decathlon/transconv_b/stack/Unsqueeze578_input_port_1/value" version="0"/>
			</rt_info>
			<input>
				<port id="0" precision="I32"/>
				<port id="1" precision="I64">
					<dim>1</dim>
				</port>
			</input>
			<output>
				<port id="2" precision="I32">
					<dim>1</dim>
				</port>
			</output>
		</layer>
		<layer id="210" name="StatefulPartitionedCall/3d_unet_decathlon/transconv_b/stack/Unsqueeze580" type="Const" version="opset1">
			<data element_type="i32" offset="22148044" shape="1" size="4"/>
			<rt_info>
				<attribute name="fused_names" value="StatefulPartitionedCall/3d_unet_decathlon/transconv_b/stack/Unsqueeze580" version="0"/>
			</rt_info>
			<output>
				<port id="0" precision="I32">
					<dim>1</dim>
				</port>
			</output>
		</layer>
		<layer id="211" name="StatefulPartitionedCall/3d_unet_decathlon/transconv_b/stack" type="Concat" version="opset1">
			<data axis="0"/>
			<rt_info>
				<attribute name="fused_names" value="StatefulPartitionedCall/3d_unet_decathlon/transconv_b/stack, StatefulPartitionedCall/3d_unet_decathlon/transconv_b/stack/Unsqueeze580" version="0"/>
			</rt_info>
			<input>
				<port id="0" precision="I32">
					<dim>1</dim>
				</port>
				<port id="1" precision="I32">
					<dim>1</dim>
				</port>
				<port id="2" precision="I32">
					<dim>1</dim>
				</port>
				<port id="3" precision="I32">
					<dim>1</dim>
				</port>
				<port id="4" precision="I32">
					<dim>1</dim>
				</port>
			</input>
			<output>
				<port id="5" precision="I32">
					<dim>5</dim>
				</port>
			</output>
		</layer>
		<layer id="212" name="StatefulPartitionedCall/3d_unet_decathlon/transconv_b/conv3d_transpose/GatherNHWCtoNCHW_input_port_1/value911413572" type="Const" version="opset1">
			<data element_type="i32" offset="15182508" shape="5" size="20"/>
			<rt_info>
				<attribute name="fused_names" value="StatefulPartitionedCall/3d_unet_decathlon/transconv_b/conv3d_transpose/GatherNHWCtoNCHW_input_port_1/value911413572" version="0"/>
			</rt_info>
			<output>
				<port id="0" precision="I32">
					<dim>5</dim>
				</port>
			</output>
		</layer>
		<layer id="213" name="StatefulPartitionedCall/3d_unet_decathlon/transconv_b/conv3d_transpose/GatherNHWCtoNCHW_input_port_2/value911613548" type="Const" version="opset1">
			<data element_type="i64" offset="15182460" shape="" size="8"/>
			<rt_info>
				<attribute name="fused_names" value="StatefulPartitionedCall/3d_unet_decathlon/transconv_b/conv3d_transpose/GatherNHWCtoNCHW_input_port_2/value911613548" version="0"/>
			</rt_info>
			<output>
				<port id="0" precision="I64"/>
			</output>
		</layer>
		<layer id="214" name="StatefulPartitionedCall/3d_unet_decathlon/transconv_b/conv3d_transpose/GatherNHWCtoNCHW" type="Gather" version="opset8">
			<data batch_dims="0"/>
			<rt_info>
				<attribute name="fused_names" value="StatefulPartitionedCall/3d_unet_decathlon/transconv_b/conv3d_transpose/GatherNHWCtoNCHW, StatefulPartitionedCall/3d_unet_decathlon/transconv_b/conv3d_transpose/GatherNHWCtoNCHW_input_port_1/value911413572, StatefulPartitionedCall/3d_unet_decathlon/transconv_b/conv3d_transpose/GatherNHWCtoNCHW_input_port_2/value911613548" version="0"/>
			</rt_info>
			<input>
				<port id="0" precision="I32">
					<dim>5</dim>
				</port>
				<port id="1" precision="I32">
					<dim>5</dim>
				</port>
				<port id="2" precision="I64"/>
			</input>
			<output>
				<port id="3" precision="I32">
					<dim>5</dim>
				</port>
			</output>
		</layer>
		<layer id="215" name="StatefulPartitionedCall/3d_unet_decathlon/transconv_b/conv3d_transpose/ss_0_port_input_port_1/value1226413533" type="Const" version="opset1">
			<data element_type="i64" offset="15182476" shape="1" size="8"/>
			<rt_info>
				<attribute name="fused_names" value="StatefulPartitionedCall/3d_unet_decathlon/transconv_b/conv3d_transpose/ss_0_port_input_port_1/value1226413533" version="0"/>
			</rt_info>
			<output>
				<port id="0" precision="I64">
					<dim>1</dim>
				</port>
			</output>
		</layer>
		<layer id="216" name="StatefulPartitionedCall/3d_unet_decathlon/transconv_b/conv3d_transpose/ss_0_port_input_port_2/value1226613272" type="Const" version="opset1">
			<data element_type="i64" offset="15182528" shape="1" size="8"/>
			<rt_info>
				<attribute name="fused_names" value="StatefulPartitionedCall/3d_unet_decathlon/transconv_b/conv3d_transpose/ss_0_port_input_port_2/value1226613272" version="0"/>
			</rt_info>
			<output>
				<port id="0" precision="I64">
					<dim>1</dim>
				</port>
			</output>
		</layer>
		<layer id="217" name="StatefulPartitionedCall/3d_unet_decathlon/transconv_b/conv3d_transpose/ss_0_port_input_port_3/value1226813386" type="Const" version="opset1">
			<data element_type="i64" offset="15182468" shape="1" size="8"/>
			<rt_info>
				<attribute name="fused_names" value="StatefulPartitionedCall/3d_unet_decathlon/transconv_b/conv3d_transpose/ss_0_port_input_port_3/value1226813386" version="0"/>
			</rt_info>
			<output>
				<port id="0" precision="I64">
					<dim>1</dim>
				</port>
			</output>
		</layer>
		<layer id="218" name="StatefulPartitionedCall/3d_unet_decathlon/transconv_b/conv3d_transpose/ss_0_port" type="StridedSlice" version="opset1">
			<data begin_mask="0" ellipsis_mask="0" end_mask="1" new_axis_mask="0" shrink_axis_mask="0"/>
			<rt_info>
				<attribute name="fused_names" value="StatefulPartitionedCall/3d_unet_decathlon/transconv_b/conv3d_transpose/ss_0_port, StatefulPartitionedCall/3d_unet_decathlon/transconv_b/conv3d_transpose/ss_0_port_input_port_1/value1226413533, StatefulPartitionedCall/3d_unet_decathlon/transconv_b/conv3d_transpose/ss_0_port_input_port_2/value1226613272, StatefulPartitionedCall/3d_unet_decathlon/transconv_b/conv3d_transpose/ss_0_port_input_port_3/value1226813386" version="0"/>
			</rt_info>
			<input>
				<port id="0" precision="I32">
					<dim>5</dim>
				</port>
				<port id="1" precision="I64">
					<dim>1</dim>
				</port>
				<port id="2" precision="I64">
					<dim>1</dim>
				</port>
				<port id="3" precision="I64">
					<dim>1</dim>
				</port>
			</input>
			<output>
				<port id="4" precision="I32">
					<dim>3</dim>
				</port>
			</output>
		</layer>
		<layer id="219" name="StatefulPartitionedCall/3d_unet_decathlon/transconv_b/conv3d_transpose/Cast_2" type="Convert" version="opset1">
			<data destination_type="i64"/>
			<rt_info>
				<attribute name="fused_names" value="StatefulPartitionedCall/3d_unet_decathlon/transconv_b/conv3d_transpose/Cast_2" version="0"/>
			</rt_info>
			<input>
				<port id="0" precision="I32">
					<dim>3</dim>
				</port>
			</input>
			<output>
				<port id="1" precision="I64">
					<dim>3</dim>
				</port>
			</output>
		</layer>
		<layer id="220" name="StatefulPartitionedCall/3d_unet_decathlon/transconv_b/conv3d_transpose" type="ConvolutionBackpropData" version="opset1">
			<data auto_pad="same_lower" dilations="1, 1, 1" output_padding="0, 0, 0" pads_begin="0, 0, 0" pads_end="0, 0, 0" strides="2, 2, 2"/>
			<rt_info>
				<attribute name="fused_names" value="StatefulPartitionedCall/3d_unet_decathlon/transconv_b/conv3d_transpose" version="0"/>
			</rt_info>
			<input>
				<port id="0" precision="FP32">
					<dim>1</dim>
					<dim>64</dim>
					<dim>36</dim>
					<dim>36</dim>
					<dim>36</dim>
				</port>
				<port id="1" precision="FP32">
					<dim>64</dim>
					<dim>32</dim>
					<dim>2</dim>
					<dim>2</dim>
					<dim>2</dim>
				</port>
				<port id="2" precision="I64">
					<dim>3</dim>
				</port>
			</input>
			<output>
				<port id="3" names="StatefulPartitionedCall/3d_unet_decathlon/transconv_b/conv3d_transpose:0" precision="FP32">
					<dim>1</dim>
					<dim>32</dim>
					<dim>72</dim>
					<dim>72</dim>
					<dim>72</dim>
				</port>
			</output>
		</layer>
		<layer id="221" name="StatefulPartitionedCall/3d_unet_decathlon/transconv_b/BiasAdd/ReadVariableOp" type="Const" version="opset1">
			<data element_type="f32" offset="22148048" shape="1, 32, 1, 1, 1" size="128"/>
			<rt_info>
				<attribute name="fused_names" value="StatefulPartitionedCall/3d_unet_decathlon/transconv_b/BiasAdd/ReadVariableOp" version="0"/>
			</rt_info>
			<output>
				<port id="0" names="StatefulPartitionedCall/3d_unet_decathlon/transconv_b/BiasAdd/ReadVariableOp:0" precision="FP32">
					<dim>1</dim>
					<dim>32</dim>
					<dim>1</dim>
					<dim>1</dim>
					<dim>1</dim>
				</port>
			</output>
		</layer>
		<layer id="222" name="StatefulPartitionedCall/3d_unet_decathlon/transconv_b/BiasAdd/Add" type="Add" version="opset1">
			<data auto_broadcast="numpy"/>
			<rt_info>
				<attribute name="fused_names" value="StatefulPartitionedCall/3d_unet_decathlon/transconv_b/BiasAdd/Add" version="0"/>
			</rt_info>
			<input>
				<port id="0" precision="FP32">
					<dim>1</dim>
					<dim>32</dim>
					<dim>72</dim>
					<dim>72</dim>
					<dim>72</dim>
				</port>
				<port id="1" precision="FP32">
					<dim>1</dim>
					<dim>32</dim>
					<dim>1</dim>
					<dim>1</dim>
					<dim>1</dim>
				</port>
			</input>
			<output>
				<port id="2" names="StatefulPartitionedCall/3d_unet_decathlon/transconv_b/BiasAdd:0" precision="FP32">
					<dim>1</dim>
					<dim>32</dim>
					<dim>72</dim>
					<dim>72</dim>
					<dim>72</dim>
				</port>
			</output>
		</layer>
		<layer id="223" name="StatefulPartitionedCall/3d_unet_decathlon/concat_b/concat" type="Concat" version="opset1">
			<data axis="1"/>
			<rt_info>
				<attribute name="fused_names" value="StatefulPartitionedCall/3d_unet_decathlon/concat_b/concat" version="0"/>
			</rt_info>
			<input>
				<port id="0" precision="FP32">
					<dim>1</dim>
					<dim>32</dim>
					<dim>72</dim>
					<dim>72</dim>
					<dim>72</dim>
				</port>
				<port id="1" precision="FP32">
					<dim>1</dim>
					<dim>32</dim>
					<dim>72</dim>
					<dim>72</dim>
					<dim>72</dim>
				</port>
			</input>
			<output>
				<port id="2" names="StatefulPartitionedCall/3d_unet_decathlon/concat_b/concat:0" precision="FP32">
					<dim>1</dim>
					<dim>64</dim>
					<dim>72</dim>
					<dim>72</dim>
					<dim>72</dim>
				</port>
			</output>
		</layer>
		<layer id="224" name="StatefulPartitionedCall/3d_unet_decathlon/decode_a_bn_0/FusedBatchNormV3/mean/Fused_Mul__copy" type="Const" version="opset1">
			<data element_type="f32" offset="22148176" shape="32, 64, 3, 3, 3" size="221184"/>
			<rt_info>
				<attribute name="fused_names" value="StatefulPartitionedCall/3d_unet_decathlon/decode_a_bn_0/FusedBatchNormV3/mean/Fused_Mul__copy" version="0"/>
			</rt_info>
			<output>
				<port id="0" names="StatefulPartitionedCall/3d_unet_decathlon/decode_a_conv_0/Conv3D/ReadVariableOp:0" precision="FP32">
					<dim>32</dim>
					<dim>64</dim>
					<dim>3</dim>
					<dim>3</dim>
					<dim>3</dim>
				</port>
			</output>
		</layer>
		<layer id="225" name="StatefulPartitionedCall/3d_unet_decathlon/decode_a_conv_0/Conv3D" type="Convolution" version="opset1">
			<data auto_pad="same_upper" dilations="1, 1, 1" pads_begin="0, 0, 0" pads_end="0, 0, 0" strides="1, 1, 1"/>
			<rt_info>
				<attribute name="fused_names" value="StatefulPartitionedCall/3d_unet_decathlon/decode_a_conv_0/Conv3D" version="0"/>
			</rt_info>
			<input>
				<port id="0" precision="FP32">
					<dim>1</dim>
					<dim>64</dim>
					<dim>72</dim>
					<dim>72</dim>
					<dim>72</dim>
				</port>
				<port id="1" precision="FP32">
					<dim>32</dim>
					<dim>64</dim>
					<dim>3</dim>
					<dim>3</dim>
					<dim>3</dim>
				</port>
			</input>
			<output>
				<port id="2" precision="FP32">
					<dim>1</dim>
					<dim>32</dim>
					<dim>72</dim>
					<dim>72</dim>
					<dim>72</dim>
				</port>
			</output>
…
		<layer id="265" name="StatefulPartitionedCall/3d_unet_decathlon/transconv_a/mul_2/y" type="Const" version="opset1">
			<data element_type="i32" offset="15182484" shape="" size="4"/>
			<rt_info>
				<attribute name="fused_names" value="StatefulPartitionedCall/3d_unet_decathlon/transconv_a/mul_2/y" version="0"/>
			</rt_info>
			<output>
				<port id="0" names="StatefulPartitionedCall/3d_unet_decathlon/transconv_a/mul_2/y:0" precision="I32"/>
			</output>
		</layer>
		<layer id="266" name="StatefulPartitionedCall/3d_unet_decathlon/transconv_a/mul_2" type="Multiply" version="opset1">
			<data auto_broadcast="numpy"/>
			<rt_info>
				<attribute name="fused_names" value="StatefulPartitionedCall/3d_unet_decathlon/transconv_a/mul_2, StatefulPartitionedCall/3d_unet_decathlon/transconv_a/mul_2/y" version="0"/>
			</rt_info>
			<input>
				<port id="0" precision="I32"/>
				<port id="1" precision="I32"/>
			</input>
			<output>
				<port id="2" names="StatefulPartitionedCall/3d_unet_decathlon/transconv_a/mul_2:0" precision="I32"/>
			</output>
		</layer>
		<layer id="267" name="StatefulPartitionedCall/3d_unet_decathlon/transconv_a/stack/Unsqueeze589_input_port_1/value" type="Const" version="opset1">
			<data element_type="i64" offset="15182460" shape="1" size="8"/>
			<rt_info>
				<attribute name="fused_names" value="StatefulPartitionedCall/3d_unet_decathlon/transconv_a/stack/Unsqueeze589_input_port_1/value" version="0"/>
			</rt_info>
			<output>
				<port id="0" precision="I64">
					<dim>1</dim>
				</port>
			</output>
		</layer>
		<layer id="268" name="StatefulPartitionedCall/3d_unet_decathlon/transconv_a/stack/Unsqueeze589" type="Unsqueeze" version="opset1">
			<rt_info>
				<attribute name="fused_names" value="StatefulPartitionedCall/3d_unet_decathlon/transconv_a/stack/Unsqueeze589, StatefulPartitionedCall/3d_unet_decathlon/transconv_a/stack/Unsqueeze589_input_port_1/value" version="0"/>
			</rt_info>
			<input>
				<port id="0" precision="I32"/>
				<port id="1" precision="I64">
					<dim>1</dim>
				</port>
			</input>
			<output>
				<port id="2" precision="I32">
					<dim>1</dim>
				</port>
			</output>
		</layer>
		<layer id="269" name="StatefulPartitionedCall/3d_unet_decathlon/transconv_a/stack/Unsqueeze591" type="Const" version="opset1">
			<data element_type="i32" offset="22496592" shape="1" size="4"/>
			<rt_info>
				<attribute name="fused_names" value="StatefulPartitionedCall/3d_unet_decathlon/transconv_a/stack/Unsqueeze591" version="0"/>
			</rt_info>
			<output>
				<port id="0" precision="I32">
					<dim>1</dim>
				</port>
			</output>
		</layer>
		<layer id="270" name="StatefulPartitionedCall/3d_unet_decathlon/transconv_a/stack" type="Concat" version="opset1">
			<data axis="0"/>
			<rt_info>
				<attribute name="fused_names" value="StatefulPartitionedCall/3d_unet_decathlon/transconv_a/stack, StatefulPartitionedCall/3d_unet_decathlon/transconv_a/stack/Unsqueeze591" version="0"/>
			</rt_info>
			<input>
				<port id="0" precision="I32">
					<dim>1</dim>
				</port>
				<port id="1" precision="I32">
					<dim>1</dim>
				</port>
				<port id="2" precision="I32">
					<dim>1</dim>
				</port>
				<port id="3" precision="I32">
					<dim>1</dim>
				</port>
				<port id="4" precision="I32">
					<dim>1</dim>
				</port>
			</input>
			<output>
				<port id="5" precision="I32">
					<dim>5</dim>
				</port>
			</output>
		</layer>
		<layer id="271" name="StatefulPartitionedCall/3d_unet_decathlon/transconv_a/conv3d_transpose/GatherNHWCtoNCHW_input_port_1/value910213692" type="Const" version="opset1">
			<data element_type="i32" offset="15182508" shape="5" size="20"/>
			<rt_info>
				<attribute name="fused_names" value="StatefulPartitionedCall/3d_unet_decathlon/transconv_a/conv3d_transpose/GatherNHWCtoNCHW_input_port_1/value910213692" version="0"/>
			</rt_info>
			<output>
				<port id="0" precision="I32">
					<dim>5</dim>
				</port>
			</output>
		</layer>
		<layer id="272" name="StatefulPartitionedCall/3d_unet_decathlon/transconv_a/conv3d_transpose/GatherNHWCtoNCHW_input_port_2/value910413260" type="Const" version="opset1">
			<data element_type="i64" offset="15182460" shape="" size="8"/>
			<rt_info>
				<attribute name="fused_names" value="StatefulPartitionedCall/3d_unet_decathlon/transconv_a/conv3d_transpose/GatherNHWCtoNCHW_input_port_2/value910413260" version="0"/>
			</rt_info>
			<output>
				<port id="0" precision="I64"/>
			</output>
		</layer>
		<layer id="273" name="StatefulPartitionedCall/3d_unet_decathlon/transconv_a/conv3d_transpose/GatherNHWCtoNCHW" type="Gather" version="opset8">
			<data batch_dims="0"/>
			<rt_info>
				<attribute name="fused_names" value="StatefulPartitionedCall/3d_unet_decathlon/transconv_a/conv3d_transpose/GatherNHWCtoNCHW, StatefulPartitionedCall/3d_unet_decathlon/transconv_a/conv3d_transpose/GatherNHWCtoNCHW_input_port_1/value910213692, StatefulPartitionedCall/3d_unet_decathlon/transconv_a/conv3d_transpose/GatherNHWCtoNCHW_input_port_2/value910413260" version="0"/>
			</rt_info>
			<input>
				<port id="0" precision="I32">
					<dim>5</dim>
				</port>
				<port id="1" precision="I32">
					<dim>5</dim>
				</port>
				<port id="2" precision="I64"/>
			</input>
			<output>
				<port id="3" precision="I32">
					<dim>5</dim>
				</port>
			</output>
		</layer>
		<layer id="274" name="StatefulPartitionedCall/3d_unet_decathlon/transconv_a/conv3d_transpose/ss_0_port_input_port_1/value1228013614" type="Const" version="opset1">
			<data element_type="i64" offset="15182476" shape="1" size="8"/>
			<rt_info>
				<attribute name="fused_names" value="StatefulPartitionedCall/3d_unet_decathlon/transconv_a/conv3d_transpose/ss_0_port_input_port_1/value1228013614" version="0"/>
			</rt_info>
			<output>
				<port id="0" precision="I64">
					<dim>1</dim>
				</port>
			</output>
		</layer>
		<layer id="275" name="StatefulPartitionedCall/3d_unet_decathlon/transconv_a/conv3d_transpose/ss_0_port_input_port_2/value1228213611" type="Const" version="opset1">
			<data element_type="i64" offset="15182528" shape="1" size="8"/>
			<rt_info>
				<attribute name="fused_names" value="StatefulPartitionedCall/3d_unet_decathlon/transconv_a/conv3d_transpose/ss_0_port_input_port_2/value1228213611" version="0"/>
			</rt_info>
			<output>
				<port id="0" precision="I64">
					<dim>1</dim>
				</port>
			</output>
		</layer>
		<layer id="276" name="StatefulPartitionedCall/3d_unet_decathlon/transconv_a/conv3d_transpose/ss_0_port_input_port_3/value1228413476" type="Const" version="opset1">
			<data element_type="i64" offset="15182468" shape="1" size="8"/>
			<rt_info>
				<attribute name="fused_names" value="StatefulPartitionedCall/3d_unet_decathlon/transconv_a/conv3d_transpose/ss_0_port_input_port_3/value1228413476" version="0"/>
			</rt_info>
			<output>
				<port id="0" precision="I64">
					<dim>1</dim>
				</port>
			</output>
		</layer>
		<layer id="277" name="StatefulPartitionedCall/3d_unet_decathlon/transconv_a/conv3d_transpose/ss_0_port" type="StridedSlice" version="opset1">
			<data begin_mask="0" ellipsis_mask="0" end_mask="1" new_axis_mask="0" shrink_axis_mask="0"/>
			<rt_info>
				<attribute name="fused_names" value="StatefulPartitionedCall/3d_unet_decathlon/transconv_a/conv3d_transpose/ss_0_port, StatefulPartitionedCall/3d_unet_decathlon/transconv_a/conv3d_transpose/ss_0_port_input_port_1/value1228013614, StatefulPartitionedCall/3d_unet_decathlon/transconv_a/conv3d_transpose/ss_0_port_input_port_2/value1228213611, StatefulPartitionedCall/3d_unet_decathlon/transconv_a/conv3d_transpose/ss_0_port_input_port_3/value1228413476" version="0"/>
			</rt_info>
			<input>
				<port id="0" precision="I32">
					<dim>5</dim>
				</port>
				<port id="1" precision="I64">
					<dim>1</dim>
				</port>
				<port id="2" precision="I64">
					<dim>1</dim>
				</port>
				<port id="3" precision="I64">
					<dim>1</dim>
				</port>
			</input>
			<output>
				<port id="4" precision="I32">
					<dim>3</dim>
				</port>
			</output>
		</layer>
		<layer id="278" name="StatefulPartitionedCall/3d_unet_decathlon/transconv_a/conv3d_transpose/Cast_2" type="Convert" version="opset1">
			<data destination_type="i64"/>
			<rt_info>
				<attribute name="fused_names" value="StatefulPartitionedCall/3d_unet_decathlon/transconv_a/conv3d_transpose/Cast_2" version="0"/>
			</rt_info>
			<input>
				<port id="0" precision="I32">
					<dim>3</dim>
				</port>
			</input>
			<output>
				<port id="1" precision="I64">
					<dim>3</dim>
				</port>
			</output>
		</layer>
		<layer id="279" name="StatefulPartitionedCall/3d_unet_decathlon/transconv_a/conv3d_transpose" type="ConvolutionBackpropData" version="opset1">
			<data auto_pad="same_lower" dilations="1, 1, 1" output_padding="0, 0, 0" pads_begin="0, 0, 0" pads_end="0, 0, 0" strides="2, 2, 2"/>
			<rt_info>
				<attribute name="fused_names" value="StatefulPartitionedCall/3d_unet_decathlon/transconv_a/conv3d_transpose" version="0"/>
			</rt_info>
			<input>
				<port id="0" precision="FP32">
					<dim>1</dim>
					<dim>32</dim>
					<dim>72</dim>
					<dim>72</dim>
					<dim>72</dim>
				</port>
				<port id="1" precision="FP32">
					<dim>32</dim>
					<dim>16</dim>
					<dim>2</dim>
					<dim>2</dim>
					<dim>2</dim>
				</port>
				<port id="2" precision="I64">
					<dim>3</dim>
				</port>
			</input>
			<output>
				<port id="3" names="StatefulPartitionedCall/3d_unet_decathlon/transconv_a/conv3d_transpose:0" precision="FP32">
					<dim>1</dim>
					<dim>16</dim>
					<dim>144</dim>
					<dim>144</dim>
					<dim>144</dim>
				</port>
			</output>
		</layer>
		<layer id="280" name="StatefulPartitionedCall/3d_unet_decathlon/transconv_a/BiasAdd/ReadVariableOp" type="Const" version="opset1">
			<data element_type="f32" offset="22496596" shape="1, 16, 1, 1, 1" size="64"/>
			<rt_info>
				<attribute name="fused_names" value="StatefulPartitionedCall/3d_unet_decathlon/transconv_a/BiasAdd/ReadVariableOp" version="0"/>
			</rt_info>
			<output>
				<port id="0" names="StatefulPartitionedCall/3d_unet_decathlon/transconv_a/BiasAdd/ReadVariableOp:0" precision="FP32">
					<dim>1</dim>
					<dim>16</dim>
					<dim>1</dim>
					<dim>1</dim>
					<dim>1</dim>
				</port>
			</output>
		</layer>
		<layer id="281" name="StatefulPartitionedCall/3d_unet_decathlon/transconv_a/BiasAdd/Add" type="Add" version="opset1">
			<data auto_broadcast="numpy"/>
			<rt_info>
				<attribute name="fused_names" value="StatefulPartitionedCall/3d_unet_decathlon/transconv_a/BiasAdd/Add" version="0"/>
			</rt_info>
			<input>
				<port id="0" precision="FP32">
					<dim>1</dim>
					<dim>16</dim>
					<dim>144</dim>
					<dim>144</dim>
					<dim>144</dim>
				</port>
				<port id="1" precision="FP32">
					<dim>1</dim>
					<dim>16</dim>
					<dim>1</dim>
					<dim>1</dim>
					<dim>1</dim>
				</port>
			</input>
			<output>
				<port id="2" names="StatefulPartitionedCall/3d_unet_decathlon/transconv_a/BiasAdd:0" precision="FP32">
					<dim>1</dim>
					<dim>16</dim>
					<dim>144</dim>
					<dim>144</dim>
					<dim>144</dim>
				</port>
			</output>
		</layer>
		<layer id="282" name="StatefulPartitionedCall/3d_unet_decathlon/concat_a/concat" type="Concat" version="opset1">
			<data axis="1"/>
			<rt_info>
				<attribute name="fused_names" value="StatefulPartitionedCall/3d_unet_decathlon/concat_a/concat" version="0"/>
			</rt_info>
			<input>
				<port id="0" precision="FP32">
					<dim>1</dim>
					<dim>16</dim>
					<dim>144</dim>
					<dim>144</dim>
					<dim>144</dim>
				</port>
				<port id="1" precision="FP32">
					<dim>1</dim>
					<dim>16</dim>
					<dim>144</dim>
					<dim>144</dim>
					<dim>144</dim>
				</port>
			</input>
			<output>
				<port id="2" names="StatefulPartitionedCall/3d_unet_decathlon/concat_a/concat:0" precision="FP32">
					<dim>1</dim>
					<dim>32</dim>
					<dim>144</dim>
					<dim>144</dim>
					<dim>144</dim>
				</port>
			</output>
		</layer>
		<layer id="283" name="StatefulPartitionedCall/3d_unet_decathlon/conv_out_bn_0/FusedBatchNormV3/mean/Fused_Mul__copy" type="Const" version="opset1">
			<data element_type="f32" offset="22496660" shape="16, 32, 3, 3, 3" size="55296"/>
			<rt_info>
				<attribute name="fused_names" value="StatefulPartitionedCall/3d_unet_decathlon/conv_out_bn_0/FusedBatchNormV3/mean/Fused_Mul__copy" version="0"/>
			</rt_info>
			<output>
				<port id="0" names="StatefulPartitionedCall/3d_unet_decathlon/conv_out_conv_0/Conv3D/ReadVariableOp:0" precision="FP32">
					<dim>16</dim>
					<dim>32</dim>
					<dim>3</dim>
					<dim>3</dim>
					<dim>3</dim>
				</port>
			</output>
		</layer>
		<layer id="284" name="StatefulPartitionedCall/3d_unet_decathlon/conv_out_conv_0/Conv3D" type="Convolution" version="opset1">
			<data auto_pad="same_upper" dilations="1, 1, 1" pads_begin="0, 0, 0" pads_end="0, 0, 0" strides="1, 1, 1"/>
			<rt_info>
				<attribute name="fused_names" value="StatefulPartitionedCall/3d_unet_decathlon/conv_out_conv_0/Conv3D" version="0"/>
			</rt_info>
			<input>
				<port id="0" precision="FP32">
					<dim>1</dim>
					<dim>32</dim>
					<dim>144</dim>
					<dim>144</dim>
					<dim>144</dim>
				</port>
				<port id="1" precision="FP32">
					<dim>16</dim>
					<dim>32</dim>
					<dim>3</dim>
					<dim>3</dim>
					<dim>3</dim>
				</port>
			</input>
			<output>
				<port id="2" precision="FP32">
					<dim>1</dim>
					<dim>16</dim>
					<dim>144</dim>
					<dim>144</dim>
					<dim>144</dim>
				</port>
			</output>
		</layer>
		<layer id="285" name="data_add_71337138" type="Const" version="opset1">
			<data element_type="f32" offset="22551956" shape="1, 16, 1, 1, 1" size="64"/>
			<rt_info>
				<attribute name="fused_names" value="data_add_71337138" version="0"/>
			</rt_info>
			<output>
				<port id="0" precision="FP32">
					<dim>1</dim>
					<dim>16</dim>
					<dim>1</dim>
					<dim>1</dim>
					<dim>1</dim>
				</port>
			</output>
		</layer>
		<layer id="286" name="StatefulPartitionedCall/3d_unet_decathlon/conv_out_conv_0/BiasAdd/Add/Fused_Add_" type="Add" version="opset1">
			<data auto_broadcast="numpy"/>
			<rt_info>
				<attribute name="fused_names" value="StatefulPartitionedCall/3d_unet_decathlon/conv_out_conv_0/BiasAdd/Add/Fused_Add_" version="0"/>
			</rt_info>
			<input>
				<port id="0" precision="FP32">
					<dim>1</dim>
					<dim>16</dim>
					<dim>144</dim>
					<dim>144</dim>
					<dim>144</dim>
				</port>
				<port id="1" precision="FP32">
					<dim>1</dim>
					<dim>16</dim>
					<dim>1</dim>
					<dim>1</dim>
					<dim>1</dim>
				</port>
			</input>
			<output>
				<port id="2" names="StatefulPartitionedCall/3d_unet_decathlon/conv_out_bn_0/FusedBatchNormV3:0" precision="FP32">
					<dim>1</dim>
					<dim>16</dim>
					<dim>144</dim>
					<dim>144</dim>
					<dim>144</dim>
				</port>
			</output>
		</layer>
		<layer id="287" name="StatefulPartitionedCall/3d_unet_decathlon/conv_out_relu_0/Relu" type="ReLU" version="opset1">
			<rt_info>
				<attribute name="fused_names" value="StatefulPartitionedCall/3d_unet_decathlon/conv_out_relu_0/Relu" version="0"/>
			</rt_info>
			<input>
				<port id="0" precision="FP32">
					<dim>1</dim>
					<dim>16</dim>
					<dim>144</dim>
					<dim>144</dim>
					<dim>144</dim>
				</port>
			</input>
			<output>
				<port id="1" names="StatefulPartitionedCall/3d_unet_decathlon/conv_out_relu_0/Relu:0" precision="FP32">
					<dim>1</dim>
					<dim>16</dim>
					<dim>144</dim>
					<dim>144</dim>
					<dim>144</dim>
				</port>
			</output>
		</layer>
		<layer id="288" name="StatefulPartitionedCall/3d_unet_decathlon/conv_out_bn_1/FusedBatchNormV3/mean/Fused_Mul__copy" type="Const" version="opset1">
			<data element_type="f32" offset="22552020" shape="16, 16, 3, 3, 3" size="27648"/>
			<rt_info>
				<attribute name="fused_names" value="StatefulPartitionedCall/3d_unet_decathlon/conv_out_bn_1/FusedBatchNormV3/mean/Fused_Mul__copy" version="0"/>
			</rt_info>
			<output>
				<port id="0" names="StatefulPartitionedCall/3d_unet_decathlon/conv_out_conv_1/Conv3D/ReadVariableOp:0" precision="FP32">
					<dim>16</dim>
					<dim>16</dim>
					<dim>3</dim>
					<dim>3</dim>
					<dim>3</dim>
				</port>
			</output>
		</layer>
		<layer id="289" name="StatefulPartitionedCall/3d_unet_decathlon/conv_out_conv_1/Conv3D" type="Convolution" version="opset1">
			<data auto_pad="same_upper" dilations="1, 1, 1" pads_begin="0, 0, 0" pads_end="0, 0, 0" strides="1, 1, 1"/>
			<rt_info>
				<attribute name="fused_names" value="StatefulPartitionedCall/3d_unet_decathlon/conv_out_conv_1/Conv3D" version="0"/>
			</rt_info>
			<input>
				<port id="0" precision="FP32">
					<dim>1</dim>
					<dim>16</dim>
					<dim>144</dim>
					<dim>144</dim>
					<dim>144</dim>
				</port>
				<port id="1" precision="FP32">
					<dim>16</dim>
					<dim>16</dim>
					<dim>3</dim>
					<dim>3</dim>
					<dim>3</dim>
				</port>
			</input>
			<output>
				<port id="2" precision="FP32">
					<dim>1</dim>
					<dim>16</dim>
					<dim>144</dim>
					<dim>144</dim>
					<dim>144</dim>
				</port>
			</output>
		</layer>
		<layer id="290" name="data_add_71417146" type="Const" version="opset1">
			<data element_type="f32" offset="22579668" shape="1, 16, 1, 1, 1" size="64"/>
			<rt_info>
				<attribute name="fused_names" value="data_add_71417146" version="0"/>
			</rt_info>
			<output>
				<port id="0" precision="FP32">
					<dim>1</dim>
					<dim>16</dim>
					<dim>1</dim>
					<dim>1</dim>
					<dim>1</dim>
				</port>
			</output>
		</layer>
		<layer id="291" name="StatefulPartitionedCall/3d_unet_decathlon/conv_out_conv_1/BiasAdd/Add/Fused_Add_" type="Add" version="opset1">
			<data auto_broadcast="numpy"/>
			<rt_info>
				<attribute name="fused_names" value="StatefulPartitionedCall/3d_unet_decathlon/conv_out_conv_1/BiasAdd/Add/Fused_Add_" version="0"/>
			</rt_info>
			<input>
				<port id="0" precision="FP32">
					<dim>1</dim>
					<dim>16</dim>
					<dim>144</dim>
					<dim>144</dim>
					<dim>144</dim>
				</port>
				<port id="1" precision="FP32">
					<dim>1</dim>
					<dim>16</dim>
					<dim>1</dim>
					<dim>1</dim>
					<dim>1</dim>
				</port>
			</input>
			<output>
				<port id="2" names="StatefulPartitionedCall/3d_unet_decathlon/conv_out_bn_1/FusedBatchNormV3:0" precision="FP32">
					<dim>1</dim>
					<dim>16</dim>
					<dim>144</dim>
					<dim>144</dim>
					<dim>144</dim>
				</port>
			</output>
		</layer>
		<layer id="292" name="StatefulPartitionedCall/3d_unet_decathlon/conv_out/Relu" type="ReLU" version="opset1">
			<rt_info>
				<attribute name="fused_names" value="StatefulPartitionedCall/3d_unet_decathlon/conv_out/Relu" version="0"/>
			</rt_info>
			<input>
				<port id="0" precision="FP32">
					<dim>1</dim>
					<dim>16</dim>
					<dim>144</dim>
					<dim>144</dim>
					<dim>144</dim>
				</port>
			</input>
			<output>
				<port id="1" names="StatefulPartitionedCall/3d_unet_decathlon/conv_out/Relu:0" precision="FP32">
					<dim>1</dim>
					<dim>16</dim>
					<dim>144</dim>
					<dim>144</dim>
					<dim>144</dim>
				</port>
			</output>
		</layer>
		<layer id="293" name="StatefulPartitionedCall/3d_unet_decathlon/prediction_mask/Conv3D/ReadVariableOp" type="Const" version="opset1">
			<data element_type="f32" offset="22579732" shape="1, 16, 1, 1, 1" size="64"/>
			<rt_info>
				<attribute name="fused_names" value="StatefulPartitionedCall/3d_unet_decathlon/prediction_mask/Conv3D/ReadVariableOp" version="0"/>
			</rt_info>
			<output>
				<port id="0" names="StatefulPartitionedCall/3d_unet_decathlon/prediction_mask/Conv3D/ReadVariableOp:0" precision="FP32">
					<dim>1</dim>
					<dim>16</dim>
					<dim>1</dim>
					<dim>1</dim>
					<dim>1</dim>
				</port>
			</output>
		</layer>
		<layer id="294" name="StatefulPartitionedCall/3d_unet_decathlon/prediction_mask/Conv3D" type="Convolution" version="opset1">
			<data auto_pad="valid" dilations="1, 1, 1" pads_begin="0, 0, 0" pads_end="0, 0, 0" strides="1, 1, 1"/>
			<rt_info>
				<attribute name="fused_names" value="StatefulPartitionedCall/3d_unet_decathlon/prediction_mask/Conv3D" version="0"/>
			</rt_info>
			<input>
				<port id="0" precision="FP32">
					<dim>1</dim>
					<dim>16</dim>
					<dim>144</dim>
					<dim>144</dim>
					<dim>144</dim>
				</port>
				<port id="1" precision="FP32">
					<dim>1</dim>
					<dim>16</dim>
					<dim>1</dim>
					<dim>1</dim>
					<dim>1</dim>
				</port>
			</input>
			<output>
				<port id="2" names="StatefulPartitionedCall/3d_unet_decathlon/prediction_mask/Conv3D:0" precision="FP32">
					<dim>1</dim>
					<dim>1</dim>
					<dim>144</dim>
					<dim>144</dim>
					<dim>144</dim>
				</port>
			</output>
		</layer>
		<layer id="295" name="StatefulPartitionedCall/3d_unet_decathlon/prediction_mask/BiasAdd/ReadVariableOp" type="Const" version="opset1">
			<data element_type="f32" offset="22579796" shape="1, 1, 1, 1, 1" size="4"/>
			<rt_info>
				<attribute name="fused_names" value="StatefulPartitionedCall/3d_unet_decathlon/prediction_mask/BiasAdd/ReadVariableOp" version="0"/>
			</rt_info>
			<output>
				<port id="0" names="StatefulPartitionedCall/3d_unet_decathlon/prediction_mask/BiasAdd/ReadVariableOp:0" precision="FP32">
					<dim>1</dim>
					<dim>1</dim>
					<dim>1</dim>
					<dim>1</dim>
					<dim>1</dim>
				</port>
			</output>
		</layer>
		<layer id="296" name="StatefulPartitionedCall/3d_unet_decathlon/prediction_mask/BiasAdd/Add" type="Add" version="opset1">
			<data auto_broadcast="numpy"/>
			<rt_info>
				<attribute name="fused_names" value="StatefulPartitionedCall/3d_unet_decathlon/prediction_mask/BiasAdd/Add" version="0"/>
			</rt_info>
			<input>
				<port id="0" precision="FP32">
					<dim>1</dim>
					<dim>1</dim>
					<dim>144</dim>
					<dim>144</dim>
					<dim>144</dim>
				</port>
				<port id="1" precision="FP32">
					<dim>1</dim>
					<dim>1</dim>
					<dim>1</dim>
					<dim>1</dim>
					<dim>1</dim>
				</port>
			</input>
			<output>
				<port id="2" names="StatefulPartitionedCall/3d_unet_decathlon/prediction_mask/BiasAdd:0" precision="FP32">
					<dim>1</dim>
					<dim>1</dim>
					<dim>144</dim>
					<dim>144</dim>
					<dim>144</dim>
				</port>
			</output>
		</layer>
		<layer id="297" name="StatefulPartitionedCall/3d_unet_decathlon/prediction_mask/Sigmoid/prev" type="Sigmoid" version="opset1">
			<rt_info>
				<attribute name="fused_names" value="StatefulPartitionedCall/3d_unet_decathlon/prediction_mask/Sigmoid/prev" version="0"/>
			</rt_info>
			<input>
				<port id="0" precision="FP32">
					<dim>1</dim>
					<dim>1</dim>
					<dim>144</dim>
					<dim>144</dim>
					<dim>144</dim>
				</port>
			</input>
			<output>
				<port id="1" precision="FP32">
					<dim>1</dim>
					<dim>1</dim>
					<dim>144</dim>
					<dim>144</dim>
					<dim>144</dim>
				</port>
			</output>
		</layer>
		<layer id="298" name="ShapeOf_4841" type="ShapeOf" version="opset3">
			<data output_type="i64"/>
			<rt_info>
				<attribute name="fused_names" value="9270/value927213695, StatefulPartitionedCall/3d_unet_decathlon/prediction_mask/Sigmoid" version="0"/>
			</rt_info>
			<input>
				<port id="0" precision="FP32">
					<dim>1</dim>
					<dim>1</dim>
					<dim>144</dim>
					<dim>144</dim>
					<dim>144</dim>
				</port>
			</input>
			<output>
				<port id="1" precision="I64">
					<dim>5</dim>
				</port>
			</output>
		</layer>
		<layer id="299" name="9270/value927213695" type="Const" version="opset1">
			<data element_type="i64" offset="22579800" shape="5" size="40"/>
			<rt_info>
				<attribute name="fused_names" value="9270/value927213695" version="0"/>
			</rt_info>
			<output>
				<port id="0" precision="I64">
					<dim>5</dim>
				</port>
			</output>
		</layer>
		<layer id="300" name="Constant_4842" type="Const" version="opset1">
			<data element_type="i64" offset="15182460" shape="1" size="8"/>
			<output>
				<port id="0" precision="I64">
					<dim>1</dim>
				</port>
			</output>
		</layer>
		<layer id="301" name="Gather_4843" type="Gather" version="opset1">
			<rt_info>
				<attribute name="fused_names" value="9270/value927213695, StatefulPartitionedCall/3d_unet_decathlon/prediction_mask/Sigmoid" version="0"/>
			</rt_info>
			<input>
				<port id="0" precision="I64">
					<dim>5</dim>
				</port>
				<port id="1" precision="I64">
					<dim>5</dim>
				</port>
				<port id="2" precision="I64">
					<dim>1</dim>
				</port>
			</input>
			<output>
				<port id="3" precision="I64">
					<dim>5</dim>
				</port>
			</output>
		</layer>
		<layer id="302" name="StatefulPartitionedCall/3d_unet_decathlon/prediction_mask/Sigmoid" type="Reshape" version="opset1">
			<data special_zero="true"/>
			<rt_info>
				<attribute name="fused_names" value="9270/value927213695, StatefulPartitionedCall/3d_unet_decathlon/prediction_mask/Sigmoid" version="0"/>
			</rt_info>
			<input>
				<port id="0" precision="FP32">
					<dim>1</dim>
					<dim>1</dim>
					<dim>144</dim>
					<dim>144</dim>
					<dim>144</dim>
				</port>
				<port id="1" precision="I64">
					<dim>5</dim>
				</port>
			</input>
			<output>
				<port id="2" names="Func/StatefulPartitionedCall/output/_119:0,Identity:0,StatefulPartitionedCall/3d_unet_decathlon/prediction_mask/Sigmoid:0,StatefulPartitionedCall/Identity:0" precision="FP32">
					<dim>1</dim>
					<dim>144</dim>
					<dim>144</dim>
					<dim>144</dim>
					<dim>1</dim>
				</port>
			</output>
		</layer>
		<layer id="303" name="Func/StatefulPartitionedCall/output/_119:0" type="Result" version="opset1">
			<rt_info>
				<attribute name="fused_names" value="Func/StatefulPartitionedCall/output/_119:0" version="0"/>
				<attribute name="old_api_map_order" value="0, 4, 1, 2, 3" version="0"/>
			</rt_info>
			<input>
				<port id="0" precision="FP32">
					<dim>1</dim>
					<dim>144</dim>
					<dim>144</dim>
					<dim>144</dim>
					<dim>1</dim>
				</port>
			</input>
		</layer>
	</layers>
	<edges>
		<edge from-layer="0" from-port="0" to-layer="2" to-port="0"/>
		<edge from-layer="1" from-port="0" to-layer="2" to-port="1"/>
		<edge from-layer="2" from-port="2" to-layer="4" to-port="0"/>
		<edge from-layer="3" from-port="0" to-layer="4" to-port="1"/>
		<edge from-layer="4" from-port="2" to-layer="6" to-port="0"/>
		<edge from-layer="5" from-port="0" to-layer="6" to-port="1"/>
		<edge from-layer="6" from-port="2" to-layer="7" to-port="0"/>
		<edge from-layer="7" from-port="1" to-layer="9" to-port="0"/>
		<edge from-layer="8" from-port="0" to-layer="9" to-port="1"/>
		<edge from-layer="9" from-port="2" to-layer="11" to-port="0"/>
		<edge from-layer="10" from-port="0" to-layer="11" to-port="1"/>
		<edge from-layer="11" from-port="2" to-layer="12" to-port="0"/>
		<edge from-layer="12" from-port="1" to-layer="13" to-port="0"/>
		<edge from-layer="12" from-port="1" to-layer="282" to-port="1"/>
		<edge from-layer="13" from-port="1" to-layer="15" to-port="0"/>
		<edge from-layer="14" from-port="0" to-layer="15" to-port="1"/>
		<edge from-layer="15" from-port="2" to-layer="17" to-port="0"/>
		<edge from-layer="16" from-port="0" to-layer="17" to-port="1"/>
		<edge from-layer="17" from-port="2" to-layer="18" to-port="0"/>
		<edge from-layer="18" from-port="1" to-layer="20" to-port="0"/>
		<edge from-layer="19" from-port="0" to-layer="20" to-port="1"/>
		<edge from-layer="20" from-port="2" to-layer="22" to-port="0"/>
		<edge from-layer="21" from-port="0" to-layer="22" to-port="1"/>
		<edge from-layer="22" from-port="2" to-layer="23" to-port="0"/>
		<edge from-layer="23" from-port="1" to-layer="24" to-port="0"/>
		<edge from-layer="23" from-port="1" to-layer="223" to-port="1"/>
		<edge from-layer="24" from-port="1" to-layer="26" to-port="0"/>
		<edge from-layer="25" from-port="0" to-layer="26" to-port="1"/>
		<edge from-layer="26" from-port="2" to-layer="28" to-port="0"/>
		<edge from-layer="27" from-port="0" to-layer="28" to-port="1"/>
		<edge from-layer="28" from-port="2" to-layer="29" to-port="0"/>
		<edge from-layer="29" from-port="1" to-layer="31" to-port="0"/>
		<edge from-layer="30" from-port="0" to-layer="31" to-port="1"/>
		<edge from-layer="31" from-port="2" to-layer="33" to-port="0"/>
		<edge from-layer="32" from-port="0" to-layer="33" to-port="1"/>
		<edge from-layer="33" from-port="2" to-layer="34" to-port="0"/>
		<edge from-layer="34" from-port="1" to-layer="164" to-port="1"/>
		<edge from-layer="34" from-port="1" to-layer="35" to-port="0"/>
		<edge from-layer="35" from-port="1" to-layer="37" to-port="0"/>
		<edge from-layer="36" from-port="0" to-layer="37" to-port="1"/>
		<edge from-layer="37" from-port="2" to-layer="39" to-port="0"/>
		<edge from-layer="38" from-port="0" to-layer="39" to-port="1"/>
		<edge from-layer="39" from-port="2" to-layer="40" to-port="0"/>
		<edge from-layer="40" from-port="1" to-layer="42" to-port="0"/>
		<edge from-layer="41" from-port="0" to-layer="42" to-port="1"/>
		<edge from-layer="42" from-port="2" to-layer="44" to-port="0"/>
		<edge from-layer="43" from-port="0" to-layer="44" to-port="1"/>
		<edge from-layer="44" from-port="2" to-layer="45" to-port="0"/>
		<edge from-layer="45" from-port="1" to-layer="46" to-port="0"/>
		<edge from-layer="45" from-port="1" to-layer="105" to-port="1"/>
		<edge from-layer="46" from-port="1" to-layer="48" to-port="0"/>
		<edge from-layer="47" from-port="0" to-layer="48" to-port="1"/>
		<edge from-layer="48" from-port="2" to-layer="50" to-port="0"/>
		<edge from-layer="49" from-port="0" to-layer="50" to-port="1"/>
		<edge from-layer="50" from-port="2" to-layer="51" to-port="0"/>
		<edge from-layer="51" from-port="1" to-layer="53" to-port="0"/>
		<edge from-layer="52" from-port="0" to-layer="53" to-port="1"/>
		<edge from-layer="53" from-port="2" to-layer="55" to-port="0"/>
		<edge from-layer="54" from-port="0" to-layer="55" to-port="1"/>
		<edge from-layer="55" from-port="2" to-layer="56" to-port="0"/>
		<edge from-layer="56" from-port="1" to-layer="102" to-port="0"/>
		<edge from-layer="56" from-port="1" to-layer="58" to-port="0"/>
		<edge from-layer="57" from-port="0" to-layer="102" to-port="1"/>
		<edge from-layer="58" from-port="1" to-layer="61" to-port="0"/>
		<edge from-layer="59" from-port="0" to-layer="61" to-port="1"/>
		<edge from-layer="60" from-port="0" to-layer="61" to-port="2"/>
		<edge from-layer="61" from-port="3" to-layer="71" to-port="0"/>
		<edge from-layer="61" from-port="3" to-layer="65" to-port="0"/>
		<edge from-layer="61" from-port="3" to-layer="87" to-port="0"/>
		<edge from-layer="61" from-port="3" to-layer="79" to-port="0"/>
		<edge from-layer="62" from-port="0" to-layer="65" to-port="1"/>
		<edge from-layer="63" from-port="0" to-layer="65" to-port="2"/>
		<edge from-layer="64" from-port="0" to-layer="65" to-port="3"/>
		<edge from-layer="65" from-port="4" to-layer="67" to-port="0"/>
		<edge from-layer="66" from-port="0" to-layer="67" to-port="1"/>
		<edge from-layer="67" from-port="2" to-layer="93" to-port="0"/>
		<edge from-layer="68" from-port="0" to-layer="71" to-port="1"/>
		<edge from-layer="69" from-port="0" to-layer="71" to-port="2"/>
		<edge from-layer="70" from-port="0" to-layer="71" to-port="3"/>
		<edge from-layer="71" from-port="4" to-layer="73" to-port="0"/>
		<edge from-layer="72" from-port="0" to-layer="73" to-port="1"/>
		<edge from-layer="73" from-port="2" to-layer="75" to-port="0"/>
		<edge from-layer="74" from-port="0" to-layer="75" to-port="1"/>
		<edge from-layer="75" from-port="2" to-layer="93" to-port="1"/>
		<edge from-layer="76" from-port="0" to-layer="79" to-port="1"/>
		<edge from-layer="77" from-port="0" to-layer="79" to-port="2"/>
		<edge from-layer="78" from-port="0" to-layer="79" to-port="3"/>
		<edge from-layer="79" from-port="4" to-layer="81" to-port="0"/>
		<edge from-layer="80" from-port="0" to-layer="81" to-port="1"/>
		<edge from-layer="81" from-port="2" to-layer="83" to-port="0"/>
		<edge from-layer="82" from-port="0" to-layer="83" to-port="1"/>
		<edge from-layer="83" from-port="2" to-layer="93" to-port="2"/>
		<edge from-layer="84" from-port="0" to-layer="87" to-port="1"/>
		<edge from-layer="85" from-port="0" to-layer="87" to-port="2"/>
		<edge from-layer="86" from-port="0" to-layer="87" to-port="3"/>
		<edge from-layer="87" from-port="4" to-layer="89" to-port="0"/>
		<edge from-layer="88" from-port="0" to-layer="89" to-port="1"/>
		<edge from-layer="89" from-port="2" to-layer="91" to-port="0"/>
		<edge from-layer="90" from-port="0" to-layer="91" to-port="1"/>
		<edge from-layer="91" from-port="2" to-layer="93" to-port="3"/>
		<edge from-layer="92" from-port="0" to-layer="93" to-port="4"/>
		<edge from-layer="93" from-port="5" to-layer="96" to-port="0"/>
		<edge from-layer="94" from-port="0" to-layer="96" to-port="1"/>
		<edge from-layer="95" from-port="0" to-layer="96" to-port="2"/>
		<edge from-layer="96" from-port="3" to-layer="100" to-port="0"/>
		<edge from-layer="97" from-port="0" to-layer="100" to-port="1"/>
		<edge from-layer="98" from-port="0" to-layer="100" to-port="2"/>
		<edge from-layer="99" from-port="0" to-layer="100" to-port="3"/>
		<edge from-layer="100" from-port="4" to-layer="101" to-port="0"/>
		<edge from-layer="101" from-port="1" to-layer="102" to-port="2"/>
		<edge from-layer="102" from-port="3" to-layer="104" to-port="0"/>
		<edge from-layer="103" from-port="0" to-layer="104" to-port="1"/>
		<edge from-layer="104" from-port="2" to-layer="105" to-port="0"/>
		<edge from-layer="105" from-port="2" to-layer="107" to-port="0"/>
		<edge from-layer="106" from-port="0" to-layer="107" to-port="1"/>
		<edge from-layer="107" from-port="2" to-layer="109" to-port="0"/>
		<edge from-layer="108" from-port="0" to-layer="109" to-port="1"/>
		<edge from-layer="109" from-port="2" to-layer="110" to-port="0"/>
		<edge from-layer="110" from-port="1" to-layer="112" to-port="0"/>
		<edge from-layer="111" from-port="0" to-layer="112" to-port="1"/>
		<edge from-layer="112" from-port="2" to-layer="114" to-port="0"/>
		<edge from-layer="113" from-port="0" to-layer="114" to-port="1"/>
		<edge from-layer="114" from-port="2" to-layer="115" to-port="0"/>
		<edge from-layer="115" from-port="1" to-layer="161" to-port="0"/>
		<edge from-layer="115" from-port="1" to-layer="117" to-port="0"/>
		<edge from-layer="116" from-port="0" to-layer="161" to-port="1"/>
		<edge from-layer="117" from-port="1" to-layer="120" to-port="0"/>
		<edge from-layer="118" from-port="0" to-layer="120" to-port="1"/>
		<edge from-layer="119" from-port="0" to-layer="120" to-port="2"/>
		<edge from-layer="120" from-port="3" to-layer="146" to-port="0"/>
		<edge from-layer="120" from-port="3" to-layer="124" to-port="0"/>
		<edge from-layer="120" from-port="3" to-layer="138" to-port="0"/>
		<edge from-layer="120" from-port="3" to-layer="130" to-port="0"/>
		<edge from-layer="121" from-port="0" to-layer="124" to-port="1"/>
		<edge from-layer="122" from-port="0" to-layer="124" to-port="2"/>
		<edge from-layer="123" from-port="0" to-layer="124" to-port="3"/>
		<edge from-layer="124" from-port="4" to-layer="126" to-port="0"/>
		<edge from-layer="125" from-port="0" to-layer="126" to-port="1"/>
		<edge from-layer="126" from-port="2" to-layer="152" to-port="0"/>
		<edge from-layer="127" from-port="0" to-layer="130" to-port="1"/>
		<edge from-layer="128" from-port="0" to-layer="130" to-port="2"/>
		<edge from-layer="129" from-port="0" to-layer="130" to-port="3"/>
		<edge from-layer="130" from-port="4" to-layer="132" to-port="0"/>
		<edge from-layer="131" from-port="0" to-layer="132" to-port="1"/>
		<edge from-layer="132" from-port="2" to-layer="134" to-port="0"/>
		<edge from-layer="133" from-port="0" to-layer="134" to-port="1"/>
		<edge from-layer="134" from-port="2" to-layer="152" to-port="1"/>
		<edge from-layer="135" from-port="0" to-layer="138" to-port="1"/>
		<edge from-layer="136" from-port="0" to-layer="138" to-port="2"/>
		<edge from-layer="137" from-port="0" to-layer="138" to-port="3"/>
		<edge from-layer="138" from-port="4" to-layer="140" to-port="0"/>
		<edge from-layer="139" from-port="0" to-layer="140" to-port="1"/>
		<edge from-layer="140" from-port="2" to-layer="142" to-port="0"/>
		<edge from-layer="141" from-port="0" to-layer="142" to-port="1"/>
		<edge from-layer="142" from-port="2" to-layer="152" to-port="2"/>
		<edge from-layer="143" from-port="0" to-layer="146" to-port="1"/>
		<edge from-layer="144" from-port="0" to-layer="146" to-port="2"/>
		<edge from-layer="145" from-port="0" to-layer="146" to-port="3"/>
		<edge from-layer="146" from-port="4" to-layer="148" to-port="0"/>
		<edge from-layer="147" from-port="0" to-layer="148" to-port="1"/>
		<edge from-layer="148" from-port="2" to-layer="150" to-port="0"/>
		<edge from-layer="149" from-port="0" to-layer="150" to-port="1"/>
		<edge from-layer="150" from-port="2" to-layer="152" to-port="3"/>
		<edge from-layer="151" from-port="0" to-layer="152" to-port="4"/>
		<edge from-layer="152" from-port="5" to-layer="155" to-port="0"/>
		<edge from-layer="153" from-port="0" to-layer="155" to-port="1"/>
		<edge from-layer="154" from-port="0" to-layer="155" to-port="2"/>
		<edge from-layer="155" from-port="3" to-layer="159" to-port="0"/>
		<edge from-layer="156" from-port="0" to-layer="159" to-port="1"/>
		<edge from-layer="157" from-port="0" to-layer="159" to-port="2"/>
		<edge from-layer="158" from-port="0" to-layer="159" to-port="3"/>
		<edge from-layer="159" from-port="4" to-layer="160" to-port="0"/>
		<edge from-layer="160" from-port="1" to-layer="161" to-port="2"/>
		<edge from-layer="161" from-port="3" to-layer="163" to-port="0"/>
		<edge from-layer="162" from-port="0" to-layer="163" to-port="1"/>
		<edge from-layer="163" from-port="2" to-layer="164" to-port="0"/>
		<edge from-layer="164" from-port="2" to-layer="166" to-port="0"/>
		<edge from-layer="165" from-port="0" to-layer="166" to-port="1"/>
		<edge from-layer="166" from-port="2" to-layer="168" to-port="0"/>
		<edge from-layer="167" from-port="0" to-layer="168" to-port="1"/>
		<edge from-layer="168" from-port="2" to-layer="169" to-port="0"/>
		<edge from-layer="169" from-port="1" to-layer="171" to-port="0"/>
		<edge from-layer="170" from-port="0" to-layer="171" to-port="1"/>
		<edge from-layer="171" from-port="2" to-layer="173" to-port="0"/>
		<edge from-layer="172" from-port="0" to-layer="173" to-port="1"/>
		<edge from-layer="173" from-port="2" to-layer="174" to-port="0"/>
		<edge from-layer="174" from-port="1" to-layer="176" to-port="0"/>
		<edge from-layer="174" from-port="1" to-layer="220" to-port="0"/>
		<edge from-layer="175" from-port="0" to-layer="220" to-port="1"/>
		<edge from-layer="176" from-port="1" to-layer="179" to-port="0"/>
		<edge from-layer="177" from-port="0" to-layer="179" to-port="1"/>
		<edge from-layer="178" from-port="0" to-layer="179" to-port="2"/>
		<edge from-layer="179" from-port="3" to-layer="205" to-port="0"/>
		<edge from-layer="179" from-port="3" to-layer="197" to-port="0"/>
		<edge from-layer="179" from-port="3" to-layer="183" to-port="0"/>
		<edge from-layer="179" from-port="3" to-layer="189" to-port="0"/>
		<edge from-layer="180" from-port="0" to-layer="183" to-port="1"/>
		<edge from-layer="181" from-port="0" to-layer="183" to-port="2"/>
		<edge from-layer="182" from-port="0" to-layer="183" to-port="3"/>
		<edge from-layer="183" from-port="4" to-layer="185" to-port="0"/>
		<edge from-layer="184" from-port="0" to-layer="185" to-port="1"/>
		<edge from-layer="185" from-port="2" to-layer="211" to-port="0"/>
		<edge from-layer="186" from-port="0" to-layer="189" to-port="1"/>
		<edge from-layer="187" from-port="0" to-layer="189" to-port="2"/>
		<edge from-layer="188" from-port="0" to-layer="189" to-port="3"/>
		<edge from-layer="189" from-port="4" to-layer="191" to-port="0"/>
		<edge from-layer="190" from-port="0" to-layer="191" to-port="1"/>
		<edge from-layer="191" from-port="2" to-layer="193" to-port="0"/>
		<edge from-layer="192" from-port="0" to-layer="193" to-port="1"/>
		<edge from-layer="193" from-port="2" to-layer="211" to-port="1"/>
		<edge from-layer="194" from-port="0" to-layer="197" to-port="1"/>
		<edge from-layer="195" from-port="0" to-layer="197" to-port="2"/>
		<edge from-layer="196" from-port="0" to-layer="197" to-port="3"/>
		<edge from-layer="197" from-port="4" to-layer="199" to-port="0"/>
		<edge from-layer="198" from-port="0" to-layer="199" to-port="1"/>
		<edge from-layer="199" from-port="2" to-layer="201" to-port="0"/>
		<edge from-layer="200" from-port="0" to-layer="201" to-port="1"/>
		<edge from-layer="201" from-port="2" to-layer="211" to-port="2"/>
		<edge from-layer="202" from-port="0" to-layer="205" to-port="1"/>
		<edge from-layer="203" from-port="0" to-layer="205" to-port="2"/>
		<edge from-layer="204" from-port="0" to-layer="205" to-port="3"/>
		<edge from-layer="205" from-port="4" to-layer="207" to-port="0"/>
		<edge from-layer="206" from-port="0" to-layer="207" to-port="1"/>
		<edge from-layer="207" from-port="2" to-layer="209" to-port="0"/>
		<edge from-layer="208" from-port="0" to-layer="209" to-port="1"/>
		<edge from-layer="209" from-port="2" to-layer="211" to-port="3"/>
		<edge from-layer="210" from-port="0" to-layer="211" to-port="4"/>
		<edge from-layer="211" from-port="5" to-layer="214" to-port="0"/>
		<edge from-layer="212" from-port="0" to-layer="214" to-port="1"/>
		<edge from-layer="213" from-port="0" to-layer="214" to-port="2"/>
		<edge from-layer="214" from-port="3" to-layer="218" to-port="0"/>
		<edge from-layer="215" from-port="0" to-layer="218" to-port="1"/>
		<edge from-layer="216" from-port="0" to-layer="218" to-port="2"/>
		<edge from-layer="217" from-port="0" to-layer="218" to-port="3"/>
		<edge from-layer="218" from-port="4" to-layer="219" to-port="0"/>
		<edge from-layer="219" from-port="1" to-layer="220" to-port="2"/>
		<edge from-layer="220" from-port="3" to-layer="222" to-port="0"/>
		<edge from-layer="221" from-port="0" to-layer="222" to-port="1"/>
		<edge from-layer="222" from-port="2" to-layer="223" to-port="0"/>
		<edge from-layer="223" from-port="2" to-layer="225" to-port="0"/>
		<edge from-layer="224" from-port="0" to-layer="225" to-port="1"/>
		<edge from-layer="225" from-port="2" to-layer="227" to-port="0"/>
		<edge from-layer="226" from-port="0" to-layer="227" to-port="1"/>
		<edge from-layer="227" from-port="2" to-layer="228" to-port="0"/>
		<edge from-layer="228" from-port="1" to-layer="230" to-port="0"/>
		<edge from-layer="229" from-port="0" to-layer="230" to-port="1"/>
		<edge from-layer="230" from-port="2" to-layer="232" to-port="0"/>
		<edge from-layer="231" from-port="0" to-layer="232" to-port="1"/>
		<edge from-layer="232" from-port="2" to-layer="233" to-port="0"/>
		<edge from-layer="233" from-port="1" to-layer="279" to-port="0"/>
		<edge from-layer="233" from-port="1" to-layer="235" to-port="0"/>
		<edge from-layer="234" from-port="0" to-layer="279" to-port="1"/>
		<edge from-layer="235" from-port="1" to-layer="238" to-port="0"/>
		<edge from-layer="236" from-port="0" to-layer="238" to-port="1"/>
		<edge from-layer="237" from-port="0" to-layer="238" to-port="2"/>
		<edge from-layer="238" from-port="3" to-layer="248" to-port="0"/>
		<edge from-layer="238" from-port="3" to-layer="242" to-port="0"/>
		<edge from-layer="238" from-port="3" to-layer="264" to-port="0"/>
		<edge from-layer="238" from-port="3" to-layer="256" to-port="0"/>
		<edge from-layer="239" from-port="0" to-layer="242" to-port="1"/>
		<edge from-layer="240" from-port="0" to-layer="242" to-port="2"/>
		<edge from-layer="241" from-port="0" to-layer="242" to-port="3"/>
		<edge from-layer="242" from-port="4" to-layer="244" to-port="0"/>
		<edge from-layer="243" from-port="0" to-layer="244" to-port="1"/>
		<edge from-layer="244" from-port="2" to-layer="270" to-port="0"/>
		<edge from-layer="245" from-port="0" to-layer="248" to-port="1"/>
		<edge from-layer="246" from-port="0" to-layer="248" to-port="2"/>
		<edge from-layer="247" from-port="0" to-layer="248" to-port="3"/>
		<edge from-layer="248" from-port="4" to-layer="250" to-port="0"/>
		<edge from-layer="249" from-port="0" to-layer="250" to-port="1"/>
		<edge from-layer="250" from-port="2" to-layer="252" to-port="0"/>
		<edge from-layer="251" from-port="0" to-layer="252" to-port="1"/>
		<edge from-layer="252" from-port="2" to-layer="270" to-port="1"/>
		<edge from-layer="253" from-port="0" to-layer="256" to-port="1"/>
		<edge from-layer="254" from-port="0" to-layer="256" to-port="2"/>
		<edge from-layer="255" from-port="0" to-layer="256" to-port="3"/>
		<edge from-layer="256" from-port="4" to-layer="258" to-port="0"/>
		<edge from-layer="257" from-port="0" to-layer="258" to-port="1"/>
		<edge from-layer="258" from-port="2" to-layer="260" to-port="0"/>
		<edge from-layer="259" from-port="0" to-layer="260" to-port="1"/>
		<edge from-layer="260" from-port="2" to-layer="270" to-port="2"/>
		<edge from-layer="261" from-port="0" to-layer="264" to-port="1"/>
		<edge from-layer="262" from-port="0" to-layer="264" to-port="2"/>
		<edge from-layer="263" from-port="0" to-layer="264" to-port="3"/>
		<edge from-layer="264" from-port="4" to-layer="266" to-port="0"/>
		<edge from-layer="265" from-port="0" to-layer="266" to-port="1"/>
		<edge from-layer="266" from-port="2" to-layer="268" to-port="0"/>
		<edge from-layer="267" from-port="0" to-layer="268" to-port="1"/>
		<edge from-layer="268" from-port="2" to-layer="270" to-port="3"/>
		<edge from-layer="269" from-port="0" to-layer="270" to-port="4"/>
		<edge from-layer="270" from-port="5" to-layer="273" to-port="0"/>
		<edge from-layer="271" from-port="0" to-layer="273" to-port="1"/>
		<edge from-layer="272" from-port="0" to-layer="273" to-port="2"/>
		<edge from-layer="273" from-port="3" to-layer="277" to-port="0"/>
		<edge from-layer="274" from-port="0" to-layer="277" to-port="1"/>
		<edge from-layer="275" from-port="0" to-layer="277" to-port="2"/>
		<edge from-layer="276" from-port="0" to-layer="277" to-port="3"/>
		<edge from-layer="277" from-port="4" to-layer="278" to-port="0"/>
		<edge from-layer="278" from-port="1" to-layer="279" to-port="2"/>
		<edge from-layer="279" from-port="3" to-layer="281" to-port="0"/>
		<edge from-layer="280" from-port="0" to-layer="281" to-port="1"/>
		<edge from-layer="281" from-port="2" to-layer="282" to-port="0"/>
		<edge from-layer="282" from-port="2" to-layer="284" to-port="0"/>
		<edge from-layer="283" from-port="0" to-layer="284" to-port="1"/>
		<edge from-layer="284" from-port="2" to-layer="286" to-port="0"/>
		<edge from-layer="285" from-port="0" to-layer="286" to-port="1"/>
		<edge from-layer="286" from-port="2" to-layer="287" to-port="0"/>
		<edge from-layer="287" from-port="1" to-layer="289" to-port="0"/>
		<edge from-layer="288" from-port="0" to-layer="289" to-port="1"/>
		<edge from-layer="289" from-port="2" to-layer="291" to-port="0"/>
		<edge from-layer="290" from-port="0" to-layer="291" to-port="1"/>
		<edge from-layer="291" from-port="2" to-layer="292" to-port="0"/>
		<edge from-layer="292" from-port="1" to-layer="294" to-port="0"/>
		<edge from-layer="293" from-port="0" to-layer="294" to-port="1"/>
		<edge from-layer="294" from-port="2" to-layer="296" to-port="0"/>
		<edge from-layer="295" from-port="0" to-layer="296" to-port="1"/>
		<edge from-layer="296" from-port="2" to-layer="297" to-port="0"/>
		<edge from-layer="297" from-port="1" to-layer="298" to-port="0"/>
		<edge from-layer="297" from-port="1" to-layer="302" to-port="0"/>
		<edge from-layer="298" from-port="1" to-layer="301" to-port="0"/>
		<edge from-layer="299" from-port="0" to-layer="301" to-port="1"/>
		<edge from-layer="300" from-port="0" to-layer="301" to-port="2"/>
		<edge from-layer="301" from-port="3" to-layer="302" to-port="1"/>
		<edge from-layer="302" from-port="2" to-layer="303" to-port="0"/>
	</edges>
	<meta_data>
		<MO_version value="2022.1.0-7019-cdb9bec7210-releases/2022/1"/>
		<Runtime_version value="2022.1.0-7019-cdb9bec7210-releases/2022/1"/>
		<legacy_path value="True"/>
		<cli_parameters>
			<caffe_parser_path value="DIR"/>
			<compress_fp16 value="False"/>
			<data_type value="FP32"/>
			<disable_nhwc_to_nchw value="False"/>
			<disable_omitting_optional value="False"/>
			<disable_resnet_optimization value="False"/>
			<disable_weights_compression value="False"/>
			<enable_concat_optimization value="False"/>
			<enable_flattening_nested_params value="False"/>
			<enable_ssd_gluoncv value="False"/>
			<extensions value="DIR"/>
			<framework value="tf"/>
			<freeze_placeholder_with_value value="{}"/>
			<input_model_is_text value="False"/>
			<input_shape value="[1,144,144,144,1]"/>
			<k value="DIR/CustomLayersMapping.xml"/>
			<layout value="()"/>
			<layout_values value="{}"/>
			<legacy_mxnet_model value="False"/>
			<log_level value="ERROR"/>
			<mean_scale_values value="{}"/>
			<mean_values value="()"/>
			<model_name value="3d_unet_decathlon_tf_ov_fp32_ir"/>
			<output_dir value="DIR"/>
			<packed_user_shapes value="defaultdict(&lt;class 'list'&gt;, {'mrimages': [{'shape': (1, 144, 144, 144, 1), 'port': None, 'added': True}]})"/>
			<placeholder_data_types value="{}"/>
			<placeholder_shapes value="(1, 144, 144, 144, 1)"/>
			<progress value="False"/>
			<remove_memory value="False"/>
			<remove_output_softmax value="False"/>
			<reverse_input_channels value="False"/>
			<save_params_from_nd value="False"/>
			<saved_model_dir value="DIR"/>
			<scale_values value="()"/>
			<silent value="False"/>
			<source_layout value="()"/>
			<static_shape value="False"/>
			<stream_output value="False"/>
			<target_layout value="()"/>
			<transform value=""/>
			<use_legacy_frontend value="False"/>
			<use_new_frontend value="False"/>
			<unset unset_cli_parameters="batch, counts, disable_fusing, finegrain_fusing, input, input_checkpoint, input_meta_graph, input_model, input_proto, input_symbol, mean_file, mean_file_offsets, nd_prefix_name, output, pretrained_model_name, saved_model_tags, scale, tensorboard_logdir, tensorflow_custom_layer_libraries, tensorflow_custom_operations_config_update, tensorflow_object_detection_api_pipeline_config, tensorflow_use_custom_operations_config, transformations_config"/>
		</cli_parameters>
	</meta_data>
</net>
