<?xml version="1.0" ?>
<net name="3d_unet_decathlon_tf_ov_fp32_ir" version="11">
	<layers>
		<layer id="147" name="mrimages" type="Parameter" version="opset1">
			<data element_type="f32" shape="1,144,144,144,1"/>
			<rt_info>
				<attribute name="fused_names" value="mrimages" version="0"/>
				<attribute name="old_api_map_order" value="0,2,3,4,1" version="0"/>
			</rt_info>
			<output>
				<port id="0" names="Func/StatefulPartitionedCall/input/_0:0,mrimages,mrimages:0" precision="FP32">
					<dim>1</dim>
					<dim>144</dim>
					<dim>144</dim>
					<dim>144</dim>
					<dim>1</dim>
					<rt_info/>
				</port>
			</output>
		</layer>
		<layer id="0" name="126512695244" type="Const" version="opset1">
			<data element_type="f32" offset="0" shape="" size="4"/>
			<output>
				<port id="0" precision="FP32"/>
			</output>
		</layer>
		<layer id="1" name="126612705286" type="Const" version="opset1">
			<data element_type="f32" offset="4" shape="" size="4"/>
			<output>
				<port id="0" precision="FP32"/>
			</output>
		</layer>
		<layer id="2" name="126712714956" type="Const" version="opset1">
			<data element_type="f32" offset="0" shape="" size="4"/>
			<output>
				<port id="0" precision="FP32"/>
			</output>
		</layer>
		<layer id="3" name="126812724944" type="Const" version="opset1">
			<data element_type="f32" offset="4" shape="" size="4"/>
			<output>
				<port id="0" precision="FP32"/>
			</output>
		</layer>
		<layer id="4" name="164516495310" type="Const" version="opset1">
			<data element_type="f32" offset="0" shape="" size="4"/>
			<output>
				<port id="0" precision="FP32"/>
			</output>
		</layer>
		<layer id="5" name="164616505316" type="Const" version="opset1">
			<data element_type="f32" offset="8" shape="" size="4"/>
			<output>
				<port id="0" precision="FP32"/>
			</output>
		</layer>
		<layer id="6" name="164716514644" type="Const" version="opset1">
			<data element_type="f32" offset="0" shape="" size="4"/>
			<output>
				<port id="0" precision="FP32"/>
			</output>
		</layer>
		<layer id="7" name="164816525304" type="Const" version="opset1">
			<data element_type="f32" offset="8" shape="" size="4"/>
			<output>
				<port id="0" precision="FP32"/>
			</output>
		</layer>
		<layer id="8" name="137513795454" type="Const" version="opset1">
			<data element_type="f32" offset="12" shape="16,1,1,1,1" size="64"/>
			<output>
				<port id="0" precision="FP32">
					<dim>16</dim>
					<dim>1</dim>
					<dim>1</dim>
					<dim>1</dim>
					<dim>1</dim>
				</port>
			</output>
		</layer>
		<layer id="9" name="137613805295" type="Const" version="opset1">
			<data element_type="f32" offset="76" shape="16,1,1,1,1" size="64"/>
			<output>
				<port id="0" precision="FP32">
					<dim>16</dim>
					<dim>1</dim>
					<dim>1</dim>
					<dim>1</dim>
					<dim>1</dim>
				</port>
			</output>
		</layer>
		<layer id="10" name="137713814707" type="Const" version="opset1">
			<data element_type="f32" offset="12" shape="16,1,1,1,1" size="64"/>
			<output>
				<port id="0" precision="FP32">
					<dim>16</dim>
					<dim>1</dim>
					<dim>1</dim>
					<dim>1</dim>
					<dim>1</dim>
				</port>
			</output>
		</layer>
		<layer id="11" name="137813825475" type="Const" version="opset1">
			<data element_type="f32" offset="76" shape="16,1,1,1,1" size="64"/>
			<output>
				<port id="0" precision="FP32">
					<dim>16</dim>
					<dim>1</dim>
					<dim>1</dim>
					<dim>1</dim>
					<dim>1</dim>
				</port>
			</output>
		</layer>
		<layer id="12" name="StatefulPartitionedCall/3d_unet_decathlon/conv_out_bn_0/FusedBatchNormV3/mean/Fused_Mul__copy5885325" type="Const" version="opset1">
			<data element_type="f32" offset="140" shape="16,32,3,3,3" size="55296"/>
			<rt_info>
				<attribute name="fused_names" value="StatefulPartitionedCall/3d_unet_decathlon/conv_out_bn_0/FusedBatchNormV3/mean/Fused_Mul__copy" version="0"/>
			</rt_info>
			<output>
				<port id="0" names="StatefulPartitionedCall/3d_unet_decathlon/conv_out_conv_0/Conv3D/ReadVariableOp:0" precision="FP32">
					<dim>16</dim>
					<dim>32</dim>
					<dim>3</dim>
					<dim>3</dim>
					<dim>3</dim>
				</port>
			</output>
		</layer>
		<layer id="13" name="StatefulPartitionedCall/3d_unet_decathlon/conv_out_conv_0/Conv3D/fq_weights_1" type="FakeQuantize" version="opset1">
			<data auto_broadcast="numpy" levels="255"/>
			<input>
				<port id="0">
					<dim>16</dim>
					<dim>32</dim>
					<dim>3</dim>
					<dim>3</dim>
					<dim>3</dim>
				</port>
				<port id="1">
					<dim>16</dim>
					<dim>1</dim>
					<dim>1</dim>
					<dim>1</dim>
					<dim>1</dim>
				</port>
				<port id="2">
					<dim>16</dim>
					<dim>1</dim>
					<dim>1</dim>
					<dim>1</dim>
					<dim>1</dim>
				</port>
				<port id="3">
					<dim>16</dim>
					<dim>1</dim>
					<dim>1</dim>
					<dim>1</dim>
					<dim>1</dim>
				</port>
				<port id="4">
					<dim>16</dim>
					<dim>1</dim>
					<dim>1</dim>
					<dim>1</dim>
					<dim>1</dim>
				</port>
			</input>
			<output>
				<port id="5" precision="FP32">
					<dim>16</dim>
					<dim>32</dim>
					<dim>3</dim>
					<dim>3</dim>
					<dim>3</dim>
				</port>
			</output>
		</layer>
		<layer id="14" name="204620505511" type="Const" version="opset1">
			<data element_type="f32" offset="55436" shape="" size="4"/>
			<output>
				<port id="0" precision="FP32"/>
			</output>
		</layer>
		<layer id="15" name="204720514920" type="Const" version="opset1">
			<data element_type="f32" offset="55440" shape="" size="4"/>
			<output>
				<port id="0" precision="FP32"/>
			</output>
		</layer>
		<layer id="16" name="204820525463" type="Const" version="opset1">
			<data element_type="f32" offset="55436" shape="" size="4"/>
			<output>
				<port id="0" precision="FP32"/>
			</output>
		</layer>
		<layer id="17" name="204920534668" type="Const" version="opset1">
			<data element_type="f32" offset="55440" shape="" size="4"/>
			<output>
				<port id="0" precision="FP32"/>
			</output>
		</layer>
		<layer id="18" name="162516295283" type="Const" version="opset1">
			<data element_type="f32" offset="0" shape="" size="4"/>
			<output>
				<port id="0" precision="FP32"/>
			</output>
		</layer>
		<layer id="19" name="162616304971" type="Const" version="opset1">
			<data element_type="f32" offset="55444" shape="" size="4"/>
			<output>
				<port id="0" precision="FP32"/>
			</output>
		</layer>
		<layer id="20" name="162716315409" type="Const" version="opset1">
			<data element_type="f32" offset="0" shape="" size="4"/>
			<output>
				<port id="0" precision="FP32"/>
			</output>
		</layer>
		<layer id="21" name="162816325427" type="Const" version="opset1">
			<data element_type="f32" offset="55444" shape="" size="4"/>
			<output>
				<port id="0" precision="FP32"/>
			</output>
		</layer>
		<layer id="22" name="146514695163" type="Const" version="opset1">
			<data element_type="f32" offset="0" shape="" size="4"/>
			<output>
				<port id="0" precision="FP32"/>
			</output>
		</layer>
		<layer id="23" name="146614705238" type="Const" version="opset1">
			<data element_type="f32" offset="55448" shape="" size="4"/>
			<output>
				<port id="0" precision="FP32"/>
			</output>
		</layer>
		<layer id="24" name="146714715520" type="Const" version="opset1">
			<data element_type="f32" offset="0" shape="" size="4"/>
			<output>
				<port id="0" precision="FP32"/>
			</output>
		</layer>
		<layer id="25" name="146814725472" type="Const" version="opset1">
			<data element_type="f32" offset="55448" shape="" size="4"/>
			<output>
				<port id="0" precision="FP32"/>
			</output>
		</layer>
		<layer id="26" name="139513995442" type="Const" version="opset1">
			<data element_type="f32" offset="55452" shape="32,1,1,1,1" size="128"/>
			<output>
				<port id="0" precision="FP32">
					<dim>32</dim>
					<dim>1</dim>
					<dim>1</dim>
					<dim>1</dim>
					<dim>1</dim>
				</port>
			</output>
		</layer>
		<layer id="27" name="139614004866" type="Const" version="opset1">
			<data element_type="f32" offset="55580" shape="32,1,1,1,1" size="128"/>
			<output>
				<port id="0" precision="FP32">
					<dim>32</dim>
					<dim>1</dim>
					<dim>1</dim>
					<dim>1</dim>
					<dim>1</dim>
				</port>
			</output>
		</layer>
		<layer id="28" name="139714014770" type="Const" version="opset1">
			<data element_type="f32" offset="55452" shape="32,1,1,1,1" size="128"/>
			<output>
				<port id="0" precision="FP32">
					<dim>32</dim>
					<dim>1</dim>
					<dim>1</dim>
					<dim>1</dim>
					<dim>1</dim>
				</port>
			</output>
		</layer>
		<layer id="29" name="139814024695" type="Const" version="opset1">
			<data element_type="f32" offset="55580" shape="32,1,1,1,1" size="128"/>
			<output>
				<port id="0" precision="FP32">
					<dim>32</dim>
					<dim>1</dim>
					<dim>1</dim>
					<dim>1</dim>
					<dim>1</dim>
				</port>
			</output>
		</layer>
		<layer id="30" name="StatefulPartitionedCall/3d_unet_decathlon/decode_a_bn_0/FusedBatchNormV3/mean/Fused_Mul__copy5294890" type="Const" version="opset1">
			<data element_type="f32" offset="55708" shape="32,64,3,3,3" size="221184"/>
			<rt_info>
				<attribute name="fused_names" value="StatefulPartitionedCall/3d_unet_decathlon/decode_a_bn_0/FusedBatchNormV3/mean/Fused_Mul__copy" version="0"/>
			</rt_info>
			<output>
				<port id="0" names="StatefulPartitionedCall/3d_unet_decathlon/decode_a_conv_0/Conv3D/ReadVariableOp:0" precision="FP32">
					<dim>32</dim>
					<dim>64</dim>
					<dim>3</dim>
					<dim>3</dim>
					<dim>3</dim>
				</port>
			</output>
		</layer>
		<layer id="31" name="StatefulPartitionedCall/3d_unet_decathlon/decode_a_conv_0/Conv3D/fq_weights_1" type="FakeQuantize" version="opset1">
			<data auto_broadcast="numpy" levels="255"/>
			<input>
				<port id="0">
					<dim>32</dim>
					<dim>64</dim>
					<dim>3</dim>
					<dim>3</dim>
					<dim>3</dim>
				</port>
				<port id="1">
					<dim>32</dim>
					<dim>1</dim>
					<dim>1</dim>
					<dim>1</dim>
					<dim>1</dim>
				</port>
				<port id="2">
					<dim>32</dim>
					<dim>1</dim>
					<dim>1</dim>
					<dim>1</dim>
					<dim>1</dim>
				</port>
				<port id="3">
					<dim>32</dim>
					<dim>1</dim>
					<dim>1</dim>
					<dim>1</dim>
					<dim>1</dim>
				</port>
				<port id="4">
					<dim>32</dim>
					<dim>1</dim>
					<dim>1</dim>
					<dim>1</dim>
					<dim>1</dim>
				</port>
			</input>
			<output>
				<port id="5" precision="FP32">
					<dim>32</dim>
					<dim>64</dim>
					<dim>3</dim>
					<dim>3</dim>
					<dim>3</dim>
				</port>
			</output>
		</layer>
		<layer id="32" name="206620705583" type="Const" version="opset1">
			<data element_type="f32" offset="276892" shape="" size="4"/>
			<output>
				<port id="0" precision="FP32"/>
			</output>
		</layer>
		<layer id="33" name="206720715418" type="Const" version="opset1">
			<data element_type="f32" offset="276896" shape="" size="4"/>
			<output>
				<port id="0" precision="FP32"/>
			</output>
		</layer>
		<layer id="34" name="206820724899" type="Const" version="opset1">
			<data element_type="f32" offset="276892" shape="" size="4"/>
			<output>
				<port id="0" precision="FP32"/>
			</output>
		</layer>
		<layer id="35" name="206920735277" type="Const" version="opset1">
			<data element_type="f32" offset="276896" shape="" size="4"/>
			<output>
				<port id="0" precision="FP32"/>
			</output>
		</layer>
		<layer id="36" name="132513295289" type="Const" version="opset1">
			<data element_type="f32" offset="0" shape="" size="4"/>
			<output>
				<port id="0" precision="FP32"/>
			</output>
		</layer>
		<layer id="37" name="132613304812" type="Const" version="opset1">
			<data element_type="f32" offset="276900" shape="" size="4"/>
			<output>
				<port id="0" precision="FP32"/>
			</output>
		</layer>
		<layer id="38" name="132713315514" type="Const" version="opset1">
			<data element_type="f32" offset="0" shape="" size="4"/>
			<output>
				<port id="0" precision="FP32"/>
			</output>
		</layer>
		<layer id="39" name="132813325214" type="Const" version="opset1">
			<data element_type="f32" offset="276900" shape="" size="4"/>
			<output>
				<port id="0" precision="FP32"/>
			</output>
		</layer>
		<layer id="40" name="128512895502" type="Const" version="opset1">
			<data element_type="f32" offset="0" shape="" size="4"/>
			<output>
				<port id="0" precision="FP32"/>
			</output>
		</layer>
		<layer id="41" name="128612904977" type="Const" version="opset1">
			<data element_type="f32" offset="276904" shape="" size="4"/>
			<output>
				<port id="0" precision="FP32"/>
			</output>
		</layer>
		<layer id="42" name="128712915508" type="Const" version="opset1">
			<data element_type="f32" offset="0" shape="" size="4"/>
			<output>
				<port id="0" precision="FP32"/>
			</output>
		</layer>
		<layer id="43" name="128812924629" type="Const" version="opset1">
			<data element_type="f32" offset="276904" shape="" size="4"/>
			<output>
				<port id="0" precision="FP32"/>
			</output>
		</layer>
		<layer id="44" name="169516994980" type="Const" version="opset1">
			<data element_type="f32" offset="276908" shape="64,1,1,1,1" size="256"/>
			<output>
				<port id="0" precision="FP32">
					<dim>64</dim>
					<dim>1</dim>
					<dim>1</dim>
					<dim>1</dim>
					<dim>1</dim>
				</port>
			</output>
		</layer>
		<layer id="45" name="169617004965" type="Const" version="opset1">
			<data element_type="f32" offset="277164" shape="64,1,1,1,1" size="256"/>
			<output>
				<port id="0" precision="FP32">
					<dim>64</dim>
					<dim>1</dim>
					<dim>1</dim>
					<dim>1</dim>
					<dim>1</dim>
				</port>
			</output>
		</layer>
		<layer id="46" name="169717014632" type="Const" version="opset1">
			<data element_type="f32" offset="276908" shape="64,1,1,1,1" size="256"/>
			<output>
				<port id="0" precision="FP32">
					<dim>64</dim>
					<dim>1</dim>
					<dim>1</dim>
					<dim>1</dim>
					<dim>1</dim>
				</port>
			</output>
		</layer>
		<layer id="47" name="169817024815" type="Const" version="opset1">
			<data element_type="f32" offset="277164" shape="64,1,1,1,1" size="256"/>
			<output>
				<port id="0" precision="FP32">
					<dim>64</dim>
					<dim>1</dim>
					<dim>1</dim>
					<dim>1</dim>
					<dim>1</dim>
				</port>
			</output>
		</layer>
		<layer id="48" name="StatefulPartitionedCall/3d_unet_decathlon/decode_b_bn_0/FusedBatchNormV3/mean/Fused_Mul__copy4705247" type="Const" version="opset1">
			<data element_type="f32" offset="277420" shape="64,128,3,3,3" size="884736"/>
			<rt_info>
				<attribute name="fused_names" value="StatefulPartitionedCall/3d_unet_decathlon/decode_b_bn_0/FusedBatchNormV3/mean/Fused_Mul__copy" version="0"/>
			</rt_info>
			<output>
				<port id="0" names="StatefulPartitionedCall/3d_unet_decathlon/decode_b_conv_0/Conv3D/ReadVariableOp:0" precision="FP32">
					<dim>64</dim>
					<dim>128</dim>
					<dim>3</dim>
					<dim>3</dim>
					<dim>3</dim>
				</port>
			</output>
		</layer>
		<layer id="49" name="StatefulPartitionedCall/3d_unet_decathlon/decode_b_conv_0/Conv3D/fq_weights_1" type="FakeQuantize" version="opset1">
			<data auto_broadcast="numpy" levels="255"/>
			<input>
				<port id="0">
					<dim>64</dim>
					<dim>128</dim>
					<dim>3</dim>
					<dim>3</dim>
					<dim>3</dim>
				</port>
				<port id="1">
					<dim>64</dim>
					<dim>1</dim>
					<dim>1</dim>
					<dim>1</dim>
					<dim>1</dim>
				</port>
				<port id="2">
					<dim>64</dim>
					<dim>1</dim>
					<dim>1</dim>
					<dim>1</dim>
					<dim>1</dim>
				</port>
				<port id="3">
					<dim>64</dim>
					<dim>1</dim>
					<dim>1</dim>
					<dim>1</dim>
					<dim>1</dim>
				</port>
				<port id="4">
					<dim>64</dim>
					<dim>1</dim>
					<dim>1</dim>
					<dim>1</dim>
					<dim>1</dim>
				</port>
			</input>
			<output>
				<port id="5" precision="FP32">
					<dim>64</dim>
					<dim>128</dim>
					<dim>3</dim>
					<dim>3</dim>
					<dim>3</dim>
				</port>
			</output>
		</layer>
		<layer id="50" name="208620904656" type="Const" version="opset1">
			<data element_type="f32" offset="1162156" shape="" size="4"/>
			<output>
				<port id="0" precision="FP32"/>
			</output>
		</layer>
		<layer id="51" name="208720914923" type="Const" version="opset1">
			<data element_type="f32" offset="1162160" shape="" size="4"/>
			<output>
				<port id="0" precision="FP32"/>
			</output>
		</layer>
		<layer id="52" name="208820924833" type="Const" version="opset1">
			<data element_type="f32" offset="1162156" shape="" size="4"/>
			<output>
				<port id="0" precision="FP32"/>
			</output>
		</layer>
		<layer id="53" name="208920935043" type="Const" version="opset1">
			<data element_type="f32" offset="1162160" shape="" size="4"/>
			<output>
				<port id="0" precision="FP32"/>
			</output>
		</layer>
		<layer id="54" name="144514495220" type="Const" version="opset1">
			<data element_type="f32" offset="0" shape="" size="4"/>
			<output>
				<port id="0" precision="FP32"/>
			</output>
		</layer>
		<layer id="55" name="144614504893" type="Const" version="opset1">
			<data element_type="f32" offset="1162164" shape="" size="4"/>
			<output>
				<port id="0" precision="FP32"/>
			</output>
		</layer>
		<layer id="56" name="144714515436" type="Const" version="opset1">
			<data element_type="f32" offset="0" shape="" size="4"/>
			<output>
				<port id="0" precision="FP32"/>
			</output>
		</layer>
		<layer id="57" name="144814525328" type="Const" version="opset1">
			<data element_type="f32" offset="1162164" shape="" size="4"/>
			<output>
				<port id="0" precision="FP32"/>
			</output>
		</layer>
		<layer id="58" name="130513094713" type="Const" version="opset1">
			<data element_type="f32" offset="0" shape="" size="4"/>
			<output>
				<port id="0" precision="FP32"/>
			</output>
		</layer>
		<layer id="59" name="130613104929" type="Const" version="opset1">
			<data element_type="f32" offset="1162168" shape="" size="4"/>
			<output>
				<port id="0" precision="FP32"/>
			</output>
		</layer>
		<layer id="60" name="130713114794" type="Const" version="opset1">
			<data element_type="f32" offset="0" shape="" size="4"/>
			<output>
				<port id="0" precision="FP32"/>
			</output>
		</layer>
		<layer id="61" name="130813124779" type="Const" version="opset1">
			<data element_type="f32" offset="1162168" shape="" size="4"/>
			<output>
				<port id="0" precision="FP32"/>
			</output>
		</layer>
		<layer id="62" name="155515594650" type="Const" version="opset1">
			<data element_type="f32" offset="1162172" shape="128,1,1,1,1" size="512"/>
			<output>
				<port id="0" precision="FP32">
					<dim>128</dim>
					<dim>1</dim>
					<dim>1</dim>
					<dim>1</dim>
					<dim>1</dim>
				</port>
			</output>
		</layer>
		<layer id="63" name="155615605070" type="Const" version="opset1">
			<data element_type="f32" offset="1162684" shape="128,1,1,1,1" size="512"/>
			<output>
				<port id="0" precision="FP32">
					<dim>128</dim>
					<dim>1</dim>
					<dim>1</dim>
					<dim>1</dim>
					<dim>1</dim>
				</port>
			</output>
		</layer>
		<layer id="64" name="155715614917" type="Const" version="opset1">
			<data element_type="f32" offset="1162172" shape="128,1,1,1,1" size="512"/>
			<output>
				<port id="0" precision="FP32">
					<dim>128</dim>
					<dim>1</dim>
					<dim>1</dim>
					<dim>1</dim>
					<dim>1</dim>
				</port>
			</output>
		</layer>
		<layer id="65" name="155815625223" type="Const" version="opset1">
			<data element_type="f32" offset="1162684" shape="128,1,1,1,1" size="512"/>
			<output>
				<port id="0" precision="FP32">
					<dim>128</dim>
					<dim>1</dim>
					<dim>1</dim>
					<dim>1</dim>
					<dim>1</dim>
				</port>
			</output>
		</layer>
		<layer id="66" name="StatefulPartitionedCall/3d_unet_decathlon/decode_c_bn_0/FusedBatchNormV3/mean/Fused_Mul__copy4114599" type="Const" version="opset1">
			<data element_type="f32" offset="1163196" shape="128,256,3,3,3" size="3538944"/>
			<rt_info>
				<attribute name="fused_names" value="StatefulPartitionedCall/3d_unet_decathlon/decode_c_bn_0/FusedBatchNormV3/mean/Fused_Mul__copy" version="0"/>
			</rt_info>
			<output>
				<port id="0" names="StatefulPartitionedCall/3d_unet_decathlon/decode_c_conv_0/Conv3D/ReadVariableOp:0" precision="FP32">
					<dim>128</dim>
					<dim>256</dim>
					<dim>3</dim>
					<dim>3</dim>
					<dim>3</dim>
				</port>
			</output>
		</layer>
		<layer id="67" name="StatefulPartitionedCall/3d_unet_decathlon/decode_c_conv_0/Conv3D/fq_weights_1" type="FakeQuantize" version="opset1">
			<data auto_broadcast="numpy" levels="255"/>
			<input>
				<port id="0">
					<dim>128</dim>
					<dim>256</dim>
					<dim>3</dim>
					<dim>3</dim>
					<dim>3</dim>
				</port>
				<port id="1">
					<dim>128</dim>
					<dim>1</dim>
					<dim>1</dim>
					<dim>1</dim>
					<dim>1</dim>
				</port>
				<port id="2">
					<dim>128</dim>
					<dim>1</dim>
					<dim>1</dim>
					<dim>1</dim>
					<dim>1</dim>
				</port>
				<port id="3">
					<dim>128</dim>
					<dim>1</dim>
					<dim>1</dim>
					<dim>1</dim>
					<dim>1</dim>
				</port>
				<port id="4">
					<dim>128</dim>
					<dim>1</dim>
					<dim>1</dim>
					<dim>1</dim>
					<dim>1</dim>
				</port>
			</input>
			<output>
				<port id="5" precision="FP32">
					<dim>128</dim>
					<dim>256</dim>
					<dim>3</dim>
					<dim>3</dim>
					<dim>3</dim>
				</port>
			</output>
		</layer>
		<layer id="68" name="210621105559" type="Const" version="opset1">
			<data element_type="f32" offset="4702140" shape="" size="4"/>
			<output>
				<port id="0" precision="FP32"/>
			</output>
		</layer>
		<layer id="69" name="210721114653" type="Const" version="opset1">
			<data element_type="f32" offset="4702144" shape="" size="4"/>
			<output>
				<port id="0" precision="FP32"/>
			</output>
		</layer>
		<layer id="70" name="210821124716" type="Const" version="opset1">
			<data element_type="f32" offset="4702140" shape="" size="4"/>
			<output>
				<port id="0" precision="FP32"/>
			</output>
		</layer>
		<layer id="71" name="210921135280" type="Const" version="opset1">
			<data element_type="f32" offset="4702144" shape="" size="4"/>
			<output>
				<port id="0" precision="FP32"/>
			</output>
		</layer>
		<layer id="72" name="160516095379" type="Const" version="opset1">
			<data element_type="f32" offset="0" shape="" size="4"/>
			<output>
				<port id="0" precision="FP32"/>
			</output>
		</layer>
		<layer id="73" name="160616105259" type="Const" version="opset1">
			<data element_type="f32" offset="4702148" shape="" size="4"/>
			<output>
				<port id="0" precision="FP32"/>
			</output>
		</layer>
		<layer id="74" name="160716114617" type="Const" version="opset1">
			<data element_type="f32" offset="0" shape="" size="4"/>
			<output>
				<port id="0" precision="FP32"/>
			</output>
		</layer>
		<layer id="75" name="160816125049" type="Const" version="opset1">
			<data element_type="f32" offset="4702148" shape="" size="4"/>
			<output>
				<port id="0" precision="FP32"/>
			</output>
		</layer>
		<layer id="76" name="140514095424" type="Const" version="opset1">
			<data element_type="f32" offset="0" shape="" size="4"/>
			<output>
				<port id="0" precision="FP32"/>
			</output>
		</layer>
		<layer id="77" name="140614105364" type="Const" version="opset1">
			<data element_type="f32" offset="4702152" shape="" size="4"/>
			<output>
				<port id="0" precision="FP32"/>
			</output>
		</layer>
		<layer id="78" name="140714114836" type="Const" version="opset1">
			<data element_type="f32" offset="0" shape="" size="4"/>
			<output>
				<port id="0" precision="FP32"/>
			</output>
		</layer>
		<layer id="79" name="140814125400" type="Const" version="opset1">
			<data element_type="f32" offset="4702152" shape="" size="4"/>
			<output>
				<port id="0" precision="FP32"/>
			</output>
		</layer>
		<layer id="80" name="167516794701" type="Const" version="opset1">
			<data element_type="f32" offset="4702156" shape="256,1,1,1,1" size="1024"/>
			<output>
				<port id="0" precision="FP32">
					<dim>256</dim>
					<dim>1</dim>
					<dim>1</dim>
					<dim>1</dim>
					<dim>1</dim>
				</port>
			</output>
		</layer>
		<layer id="81" name="167616805157" type="Const" version="opset1">
			<data element_type="f32" offset="4703180" shape="256,1,1,1,1" size="1024"/>
			<output>
				<port id="0" precision="FP32">
					<dim>256</dim>
					<dim>1</dim>
					<dim>1</dim>
					<dim>1</dim>
					<dim>1</dim>
				</port>
			</output>
		</layer>
		<layer id="82" name="167716814722" type="Const" version="opset1">
			<data element_type="f32" offset="4702156" shape="256,1,1,1,1" size="1024"/>
			<output>
				<port id="0" precision="FP32">
					<dim>256</dim>
					<dim>1</dim>
					<dim>1</dim>
					<dim>1</dim>
					<dim>1</dim>
				</port>
			</output>
		</layer>
		<layer id="83" name="167816824872" type="Const" version="opset1">
			<data element_type="f32" offset="4703180" shape="256,1,1,1,1" size="1024"/>
			<output>
				<port id="0" precision="FP32">
					<dim>256</dim>
					<dim>1</dim>
					<dim>1</dim>
					<dim>1</dim>
					<dim>1</dim>
				</port>
			</output>
		</layer>
		<layer id="84" name="StatefulPartitionedCall/3d_unet_decathlon/encode_e_bn_0/FusedBatchNormV3/mean/Fused_Mul__copy3525406" type="Const" version="opset1">
			<data element_type="f32" offset="4704204" shape="256,128,3,3,3" size="3538944"/>
			<rt_info>
				<attribute name="fused_names" value="StatefulPartitionedCall/3d_unet_decathlon/encode_e_bn_0/FusedBatchNormV3/mean/Fused_Mul__copy" version="0"/>
			</rt_info>
			<output>
				<port id="0" names="StatefulPartitionedCall/3d_unet_decathlon/encode_e_conv_0/Conv3D/ReadVariableOp:0" precision="FP32">
					<dim>256</dim>
					<dim>128</dim>
					<dim>3</dim>
					<dim>3</dim>
					<dim>3</dim>
				</port>
			</output>
		</layer>
		<layer id="85" name="StatefulPartitionedCall/3d_unet_decathlon/encode_e_conv_0/Conv3D/fq_weights_1" type="FakeQuantize" version="opset1">
			<data auto_broadcast="numpy" levels="255"/>
			<input>
				<port id="0">
					<dim>256</dim>
					<dim>128</dim>
					<dim>3</dim>
					<dim>3</dim>
					<dim>3</dim>
				</port>
				<port id="1">
					<dim>256</dim>
					<dim>1</dim>
					<dim>1</dim>
					<dim>1</dim>
					<dim>1</dim>
				</port>
				<port id="2">
					<dim>256</dim>
					<dim>1</dim>
					<dim>1</dim>
					<dim>1</dim>
					<dim>1</dim>
				</port>
				<port id="3">
					<dim>256</dim>
					<dim>1</dim>
					<dim>1</dim>
					<dim>1</dim>
					<dim>1</dim>
				</port>
				<port id="4">
					<dim>256</dim>
					<dim>1</dim>
					<dim>1</dim>
					<dim>1</dim>
					<dim>1</dim>
				</port>
			</input>
			<output>
				<port id="5" precision="FP32">
					<dim>256</dim>
					<dim>128</dim>
					<dim>3</dim>
					<dim>3</dim>
					<dim>3</dim>
				</port>
			</output>
		</layer>
		<layer id="86" name="211621205349" type="Const" version="opset1">
			<data element_type="f32" offset="4702140" shape="" size="4"/>
			<output>
				<port id="0" precision="FP32"/>
			</output>
		</layer>
		<layer id="87" name="211721214677" type="Const" version="opset1">
			<data element_type="f32" offset="4702144" shape="" size="4"/>
			<output>
				<port id="0" precision="FP32"/>
			</output>
		</layer>
		<layer id="88" name="211821225340" type="Const" version="opset1">
			<data element_type="f32" offset="4702140" shape="" size="4"/>
			<output>
				<port id="0" precision="FP32"/>
			</output>
		</layer>
		<layer id="89" name="211921234623" type="Const" version="opset1">
			<data element_type="f32" offset="4702144" shape="" size="4"/>
			<output>
				<port id="0" precision="FP32"/>
			</output>
		</layer>
		<layer id="90" name="156515695529" type="Const" version="opset1">
			<data element_type="f32" offset="0" shape="" size="4"/>
			<output>
				<port id="0" precision="FP32"/>
			</output>
		</layer>
		<layer id="91" name="156615705403" type="Const" version="opset1">
			<data element_type="f32" offset="8243148" shape="" size="4"/>
			<output>
				<port id="0" precision="FP32"/>
			</output>
		</layer>
		<layer id="92" name="156715715346" type="Const" version="opset1">
			<data element_type="f32" offset="0" shape="" size="4"/>
			<output>
				<port id="0" precision="FP32"/>
			</output>
		</layer>
		<layer id="93" name="156815725337" type="Const" version="opset1">
			<data element_type="f32" offset="8243148" shape="" size="4"/>
			<output>
				<port id="0" precision="FP32"/>
			</output>
		</layer>
		<layer id="94" name="143514395460" type="Const" version="opset1">
			<data element_type="f32" offset="8243152" shape="128,1,1,1,1" size="512"/>
			<output>
				<port id="0" precision="FP32">
					<dim>128</dim>
					<dim>1</dim>
					<dim>1</dim>
					<dim>1</dim>
					<dim>1</dim>
				</port>
			</output>
		</layer>
		<layer id="95" name="143614404728" type="Const" version="opset1">
			<data element_type="f32" offset="8243664" shape="128,1,1,1,1" size="512"/>
			<output>
				<port id="0" precision="FP32">
					<dim>128</dim>
					<dim>1</dim>
					<dim>1</dim>
					<dim>1</dim>
					<dim>1</dim>
				</port>
			</output>
		</layer>
		<layer id="96" name="143714415268" type="Const" version="opset1">
			<data element_type="f32" offset="8243152" shape="128,1,1,1,1" size="512"/>
			<output>
				<port id="0" precision="FP32">
					<dim>128</dim>
					<dim>1</dim>
					<dim>1</dim>
					<dim>1</dim>
					<dim>1</dim>
				</port>
			</output>
		</layer>
		<layer id="97" name="143814425334" type="Const" version="opset1">
			<data element_type="f32" offset="8243664" shape="128,1,1,1,1" size="512"/>
			<output>
				<port id="0" precision="FP32">
					<dim>128</dim>
					<dim>1</dim>
					<dim>1</dim>
					<dim>1</dim>
					<dim>1</dim>
				</port>
			</output>
		</layer>
		<layer id="98" name="StatefulPartitionedCall/3d_unet_decathlon/encode_d_bn_0/FusedBatchNormV3/mean/Fused_Mul__copy3414584" type="Const" version="opset1">
			<data element_type="f32" offset="8244176" shape="128,64,3,3,3" size="884736"/>
			<rt_info>
				<attribute name="fused_names" value="StatefulPartitionedCall/3d_unet_decathlon/encode_d_bn_0/FusedBatchNormV3/mean/Fused_Mul__copy" version="0"/>
			</rt_info>
			<output>
				<port id="0" names="StatefulPartitionedCall/3d_unet_decathlon/encode_d_conv_0/Conv3D/ReadVariableOp:0" precision="FP32">
					<dim>128</dim>
					<dim>64</dim>
					<dim>3</dim>
					<dim>3</dim>
					<dim>3</dim>
				</port>
			</output>
		</layer>
		<layer id="99" name="StatefulPartitionedCall/3d_unet_decathlon/encode_d_conv_0/Conv3D/fq_weights_1" type="FakeQuantize" version="opset1">
			<data auto_broadcast="numpy" levels="255"/>
			<input>
				<port id="0">
					<dim>128</dim>
					<dim>64</dim>
					<dim>3</dim>
					<dim>3</dim>
					<dim>3</dim>
				</port>
				<port id="1">
					<dim>128</dim>
					<dim>1</dim>
					<dim>1</dim>
					<dim>1</dim>
					<dim>1</dim>
				</port>
				<port id="2">
					<dim>128</dim>
					<dim>1</dim>
					<dim>1</dim>
					<dim>1</dim>
					<dim>1</dim>
				</port>
				<port id="3">
					<dim>128</dim>
					<dim>1</dim>
					<dim>1</dim>
					<dim>1</dim>
					<dim>1</dim>
				</port>
				<port id="4">
					<dim>128</dim>
					<dim>1</dim>
					<dim>1</dim>
					<dim>1</dim>
					<dim>1</dim>
				</port>
			</input>
			<output>
				<port id="5" precision="FP32">
					<dim>128</dim>
					<dim>64</dim>
					<dim>3</dim>
					<dim>3</dim>
					<dim>3</dim>
				</port>
			</output>
		</layer>
		<layer id="100" name="209621004743" type="Const" version="opset1">
			<data element_type="f32" offset="1162156" shape="" size="4"/>
			<output>
				<port id="0" precision="FP32"/>
			</output>
		</layer>
		<layer id="101" name="209721014881" type="Const" version="opset1">
			<data element_type="f32" offset="1162160" shape="" size="4"/>
			<output>
				<port id="0" precision="FP32"/>
			</output>
		</layer>
		<layer id="102" name="209821025121" type="Const" version="opset1">
			<data element_type="f32" offset="1162156" shape="" size="4"/>
			<output>
				<port id="0" precision="FP32"/>
			</output>
		</layer>
		<layer id="103" name="209921035352" type="Const" version="opset1">
			<data element_type="f32" offset="1162160" shape="" size="4"/>
			<output>
				<port id="0" precision="FP32"/>
			</output>
		</layer>
		<layer id="104" name="124512494719" type="Const" version="opset1">
			<data element_type="f32" offset="0" shape="" size="4"/>
			<output>
				<port id="0" precision="FP32"/>
			</output>
		</layer>
		<layer id="105" name="124612505184" type="Const" version="opset1">
			<data element_type="f32" offset="9128912" shape="" size="4"/>
			<output>
				<port id="0" precision="FP32"/>
			</output>
		</layer>
		<layer id="106" name="124712515250" type="Const" version="opset1">
			<data element_type="f32" offset="0" shape="" size="4"/>
			<output>
				<port id="0" precision="FP32"/>
			</output>
		</layer>
		<layer id="107" name="124812525130" type="Const" version="opset1">
			<data element_type="f32" offset="9128912" shape="" size="4"/>
			<output>
				<port id="0" precision="FP32"/>
			</output>
		</layer>
		<layer id="108" name="135513594851" type="Const" version="opset1">
			<data element_type="f32" offset="9128916" shape="64,1,1,1,1" size="256"/>
			<output>
				<port id="0" precision="FP32">
					<dim>64</dim>
					<dim>1</dim>
					<dim>1</dim>
					<dim>1</dim>
					<dim>1</dim>
				</port>
			</output>
		</layer>
		<layer id="109" name="135613604737" type="Const" version="opset1">
			<data element_type="f32" offset="9129172" shape="64,1,1,1,1" size="256"/>
			<output>
				<port id="0" precision="FP32">
					<dim>64</dim>
					<dim>1</dim>
					<dim>1</dim>
					<dim>1</dim>
					<dim>1</dim>
				</port>
			</output>
		</layer>
		<layer id="110" name="135713614749" type="Const" version="opset1">
			<data element_type="f32" offset="9128916" shape="64,1,1,1,1" size="256"/>
			<output>
				<port id="0" precision="FP32">
					<dim>64</dim>
					<dim>1</dim>
					<dim>1</dim>
					<dim>1</dim>
					<dim>1</dim>
				</port>
			</output>
		</layer>
		<layer id="111" name="135813625388" type="Const" version="opset1">
			<data element_type="f32" offset="9129172" shape="64,1,1,1,1" size="256"/>
			<output>
				<port id="0" precision="FP32">
					<dim>64</dim>
					<dim>1</dim>
					<dim>1</dim>
					<dim>1</dim>
					<dim>1</dim>
				</port>
			</output>
		</layer>
		<layer id="112" name="StatefulPartitionedCall/3d_unet_decathlon/encode_c_bn_0/FusedBatchNormV3/mean/Fused_Mul__copy3304896" type="Const" version="opset1">
			<data element_type="f32" offset="9129428" shape="64,32,3,3,3" size="221184"/>
			<rt_info>
				<attribute name="fused_names" value="StatefulPartitionedCall/3d_unet_decathlon/encode_c_bn_0/FusedBatchNormV3/mean/Fused_Mul__copy" version="0"/>
			</rt_info>
			<output>
				<port id="0" names="StatefulPartitionedCall/3d_unet_decathlon/encode_c_conv_0/Conv3D/ReadVariableOp:0" precision="FP32">
					<dim>64</dim>
					<dim>32</dim>
					<dim>3</dim>
					<dim>3</dim>
					<dim>3</dim>
				</port>
			</output>
		</layer>
		<layer id="113" name="StatefulPartitionedCall/3d_unet_decathlon/encode_c_conv_0/Conv3D/fq_weights_1" type="FakeQuantize" version="opset1">
			<data auto_broadcast="numpy" levels="255"/>
			<input>
				<port id="0">
					<dim>64</dim>
					<dim>32</dim>
					<dim>3</dim>
					<dim>3</dim>
					<dim>3</dim>
				</port>
				<port id="1">
					<dim>64</dim>
					<dim>1</dim>
					<dim>1</dim>
					<dim>1</dim>
					<dim>1</dim>
				</port>
				<port id="2">
					<dim>64</dim>
					<dim>1</dim>
					<dim>1</dim>
					<dim>1</dim>
					<dim>1</dim>
				</port>
				<port id="3">
					<dim>64</dim>
					<dim>1</dim>
					<dim>1</dim>
					<dim>1</dim>
					<dim>1</dim>
				</port>
				<port id="4">
					<dim>64</dim>
					<dim>1</dim>
					<dim>1</dim>
					<dim>1</dim>
					<dim>1</dim>
				</port>
			</input>
			<output>
				<port id="5" precision="FP32">
					<dim>64</dim>
					<dim>32</dim>
					<dim>3</dim>
					<dim>3</dim>
					<dim>3</dim>
				</port>
			</output>
		</layer>
		<layer id="114" name="207620805028" type="Const" version="opset1">
			<data element_type="f32" offset="276892" shape="" size="4"/>
			<output>
				<port id="0" precision="FP32"/>
			</output>
		</layer>
		<layer id="115" name="207720815421" type="Const" version="opset1">
			<data element_type="f32" offset="276896" shape="" size="4"/>
			<output>
				<port id="0" precision="FP32"/>
			</output>
		</layer>
		<layer id="116" name="207820825196" type="Const" version="opset1">
			<data element_type="f32" offset="276892" shape="" size="4"/>
			<output>
				<port id="0" precision="FP32"/>
			</output>
		</layer>
		<layer id="117" name="207920835265" type="Const" version="opset1">
			<data element_type="f32" offset="276896" shape="" size="4"/>
			<output>
				<port id="0" precision="FP32"/>
			</output>
		</layer>
		<layer id="118" name="158515895193" type="Const" version="opset1">
			<data element_type="f32" offset="0" shape="" size="4"/>
			<output>
				<port id="0" precision="FP32"/>
			</output>
		</layer>
		<layer id="119" name="158615905523" type="Const" version="opset1">
			<data element_type="f32" offset="9350612" shape="" size="4"/>
			<output>
				<port id="0" precision="FP32"/>
			</output>
		</layer>
		<layer id="120" name="158715915448" type="Const" version="opset1">
			<data element_type="f32" offset="0" shape="" size="4"/>
			<output>
				<port id="0" precision="FP32"/>
			</output>
		</layer>
		<layer id="121" name="158815925037" type="Const" version="opset1">
			<data element_type="f32" offset="9350612" shape="" size="4"/>
			<output>
				<port id="0" precision="FP32"/>
			</output>
		</layer>
		<layer id="122" name="153515395112" type="Const" version="opset1">
			<data element_type="f32" offset="9350616" shape="32,1,1,1,1" size="128"/>
			<output>
				<port id="0" precision="FP32">
					<dim>32</dim>
					<dim>1</dim>
					<dim>1</dim>
					<dim>1</dim>
					<dim>1</dim>
				</port>
			</output>
		</layer>
		<layer id="123" name="153615405568" type="Const" version="opset1">
			<data element_type="f32" offset="9350744" shape="32,1,1,1,1" size="128"/>
			<output>
				<port id="0" precision="FP32">
					<dim>32</dim>
					<dim>1</dim>
					<dim>1</dim>
					<dim>1</dim>
					<dim>1</dim>
				</port>
			</output>
		</layer>
		<layer id="124" name="153715415229" type="Const" version="opset1">
			<data element_type="f32" offset="9350616" shape="32,1,1,1,1" size="128"/>
			<output>
				<port id="0" precision="FP32">
					<dim>32</dim>
					<dim>1</dim>
					<dim>1</dim>
					<dim>1</dim>
					<dim>1</dim>
				</port>
			</output>
		</layer>
		<layer id="125" name="153815424758" type="Const" version="opset1">
			<data element_type="f32" offset="9350744" shape="32,1,1,1,1" size="128"/>
			<output>
				<port id="0" precision="FP32">
					<dim>32</dim>
					<dim>1</dim>
					<dim>1</dim>
					<dim>1</dim>
					<dim>1</dim>
				</port>
			</output>
		</layer>
		<layer id="126" name="StatefulPartitionedCall/3d_unet_decathlon/encode_b_bn_0/FusedBatchNormV3/mean/Fused_Mul__copy3195091" type="Const" version="opset1">
			<data element_type="f32" offset="9350872" shape="32,16,3,3,3" size="55296"/>
			<rt_info>
				<attribute name="fused_names" value="StatefulPartitionedCall/3d_unet_decathlon/encode_b_bn_0/FusedBatchNormV3/mean/Fused_Mul__copy" version="0"/>
			</rt_info>
			<output>
				<port id="0" names="StatefulPartitionedCall/3d_unet_decathlon/encode_b_conv_0/Conv3D/ReadVariableOp:0" precision="FP32">
					<dim>32</dim>
					<dim>16</dim>
					<dim>3</dim>
					<dim>3</dim>
					<dim>3</dim>
				</port>
			</output>
		</layer>
		<layer id="127" name="StatefulPartitionedCall/3d_unet_decathlon/encode_b_conv_0/Conv3D/fq_weights_1" type="FakeQuantize" version="opset1">
			<data auto_broadcast="numpy" levels="255"/>
			<input>
				<port id="0">
					<dim>32</dim>
					<dim>16</dim>
					<dim>3</dim>
					<dim>3</dim>
					<dim>3</dim>
				</port>
				<port id="1">
					<dim>32</dim>
					<dim>1</dim>
					<dim>1</dim>
					<dim>1</dim>
					<dim>1</dim>
				</port>
				<port id="2">
					<dim>32</dim>
					<dim>1</dim>
					<dim>1</dim>
					<dim>1</dim>
					<dim>1</dim>
				</port>
				<port id="3">
					<dim>32</dim>
					<dim>1</dim>
					<dim>1</dim>
					<dim>1</dim>
					<dim>1</dim>
				</port>
				<port id="4">
					<dim>32</dim>
					<dim>1</dim>
					<dim>1</dim>
					<dim>1</dim>
					<dim>1</dim>
				</port>
			</input>
			<output>
				<port id="5" precision="FP32">
					<dim>32</dim>
					<dim>16</dim>
					<dim>3</dim>
					<dim>3</dim>
					<dim>3</dim>
				</port>
			</output>
		</layer>
		<layer id="128" name="205620604638" type="Const" version="opset1">
			<data element_type="f32" offset="55436" shape="" size="4"/>
			<output>
				<port id="0" precision="FP32"/>
			</output>
		</layer>
		<layer id="129" name="205720615124" type="Const" version="opset1">
			<data element_type="f32" offset="55440" shape="" size="4"/>
			<output>
				<port id="0" precision="FP32"/>
			</output>
		</layer>
		<layer id="130" name="205820624785" type="Const" version="opset1">
			<data element_type="f32" offset="55436" shape="" size="4"/>
			<output>
				<port id="0" precision="FP32"/>
			</output>
		</layer>
		<layer id="131" name="205920635073" type="Const" version="opset1">
			<data element_type="f32" offset="55440" shape="" size="4"/>
			<output>
				<port id="0" precision="FP32"/>
			</output>
		</layer>
		<layer id="132" name="148514894845" type="Const" version="opset1">
			<data element_type="f32" offset="0" shape="" size="4"/>
			<output>
				<port id="0" precision="FP32"/>
			</output>
		</layer>
		<layer id="133" name="148614905067" type="Const" version="opset1">
			<data element_type="f32" offset="9406168" shape="" size="4"/>
			<output>
				<port id="0" precision="FP32"/>
			</output>
		</layer>
		<layer id="134" name="148714915415" type="Const" version="opset1">
			<data element_type="f32" offset="0" shape="" size="4"/>
			<output>
				<port id="0" precision="FP32"/>
			</output>
		</layer>
		<layer id="135" name="148814924674" type="Const" version="opset1">
			<data element_type="f32" offset="9406168" shape="" size="4"/>
			<output>
				<port id="0" precision="FP32"/>
			</output>
		</layer>
		<layer id="136" name="151515194848" type="Const" version="opset1">
			<data element_type="f32" offset="9406172" shape="16,1,1,1,1" size="64"/>
			<output>
				<port id="0" precision="FP32">
					<dim>16</dim>
					<dim>1</dim>
					<dim>1</dim>
					<dim>1</dim>
					<dim>1</dim>
				</port>
			</output>
		</layer>
		<layer id="137" name="151615204860" type="Const" version="opset1">
			<data element_type="f32" offset="9406236" shape="16,1,1,1,1" size="64"/>
			<output>
				<port id="0" precision="FP32">
					<dim>16</dim>
					<dim>1</dim>
					<dim>1</dim>
					<dim>1</dim>
					<dim>1</dim>
				</port>
			</output>
		</layer>
		<layer id="138" name="151715214665" type="Const" version="opset1">
			<data element_type="f32" offset="9406300" shape="16,1,1,1,1" size="64"/>
			<output>
				<port id="0" precision="FP32">
					<dim>16</dim>
					<dim>1</dim>
					<dim>1</dim>
					<dim>1</dim>
					<dim>1</dim>
				</port>
			</output>
		</layer>
		<layer id="139" name="151815224596" type="Const" version="opset1">
			<data element_type="f32" offset="9406364" shape="16,1,1,1,1" size="64"/>
			<output>
				<port id="0" precision="FP32">
					<dim>16</dim>
					<dim>1</dim>
					<dim>1</dim>
					<dim>1</dim>
					<dim>1</dim>
				</port>
			</output>
		</layer>
		<layer id="140" name="StatefulPartitionedCall/3d_unet_decathlon/encode_a_bn_0/FusedBatchNormV3/mean/Fused_Mul__copy3085118" type="Const" version="opset1">
			<data element_type="f32" offset="9406428" shape="16,1,3,3,3" size="1728"/>
			<rt_info>
				<attribute name="fused_names" value="StatefulPartitionedCall/3d_unet_decathlon/encode_a_bn_0/FusedBatchNormV3/mean/Fused_Mul__copy" version="0"/>
			</rt_info>
			<output>
				<port id="0" names="StatefulPartitionedCall/3d_unet_decathlon/encode_a_conv_0/Conv3D/ReadVariableOp:0" precision="FP32">
					<dim>16</dim>
					<dim>1</dim>
					<dim>3</dim>
					<dim>3</dim>
					<dim>3</dim>
				</port>
			</output>
		</layer>
		<layer id="141" name="StatefulPartitionedCall/3d_unet_decathlon/encode_a_conv_0/Conv3D/fq_weights_1" type="FakeQuantize" version="opset1">
			<data auto_broadcast="numpy" levels="255"/>
			<input>
				<port id="0">
					<dim>16</dim>
					<dim>1</dim>
					<dim>3</dim>
					<dim>3</dim>
					<dim>3</dim>
				</port>
				<port id="1">
					<dim>16</dim>
					<dim>1</dim>
					<dim>1</dim>
					<dim>1</dim>
					<dim>1</dim>
				</port>
				<port id="2">
					<dim>16</dim>
					<dim>1</dim>
					<dim>1</dim>
					<dim>1</dim>
					<dim>1</dim>
				</port>
				<port id="3">
					<dim>16</dim>
					<dim>1</dim>
					<dim>1</dim>
					<dim>1</dim>
					<dim>1</dim>
				</port>
				<port id="4">
					<dim>16</dim>
					<dim>1</dim>
					<dim>1</dim>
					<dim>1</dim>
					<dim>1</dim>
				</port>
			</input>
			<output>
				<port id="5" precision="FP32">
					<dim>16</dim>
					<dim>1</dim>
					<dim>3</dim>
					<dim>3</dim>
					<dim>3</dim>
				</port>
			</output>
		</layer>
		<layer id="142" name="mrimages/Transpose([0 4 1 2 3])/value9268132753065412" type="Const" version="opset1">
			<data element_type="i64" offset="9408156" shape="5" size="40"/>
			<rt_info>
				<attribute name="fused_names" value="mrimages/Transpose([0 4 1 2 3])/value926813275" version="0"/>
			</rt_info>
			<output>
				<port id="0" precision="I64">
					<dim>5</dim>
				</port>
			</output>
		</layer>
		<layer id="143" name="212621305397" type="Const" version="opset1">
			<data element_type="f32" offset="9408196" shape="" size="4"/>
			<output>
				<port id="0" precision="FP32"/>
			</output>
		</layer>
		<layer id="144" name="212721314740" type="Const" version="opset1">
			<data element_type="f32" offset="9408200" shape="" size="4"/>
			<output>
				<port id="0" precision="FP32"/>
			</output>
		</layer>
		<layer id="145" name="212821325532" type="Const" version="opset1">
			<data element_type="f32" offset="9408196" shape="" size="4"/>
			<output>
				<port id="0" precision="FP32"/>
			</output>
		</layer>
		<layer id="146" name="212921334680" type="Const" version="opset1">
			<data element_type="f32" offset="9408200" shape="" size="4"/>
			<output>
				<port id="0" precision="FP32"/>
			</output>
		</layer>
		<layer id="148" name="mrimages/Transpose([0 4 1 2 3])/fq_input_0" type="FakeQuantize" version="opset1">
			<data auto_broadcast="numpy" levels="256"/>
			<input>
				<port id="0">
					<dim>1</dim>
					<dim>144</dim>
					<dim>144</dim>
					<dim>144</dim>
					<dim>1</dim>
				</port>
				<port id="1"/>
				<port id="2"/>
				<port id="3"/>
				<port id="4"/>
			</input>
			<output>
				<port id="5" precision="FP32">
					<dim>1</dim>
					<dim>144</dim>
					<dim>144</dim>
					<dim>144</dim>
					<dim>1</dim>
				</port>
			</output>
		</layer>
		<layer id="149" name="mrimages/Transpose([0 4 1 2 3])" type="Transpose" version="opset1">
			<rt_info>
				<attribute name="fused_names" value="mrimages/Transpose([0 4 1 2 3])" version="0"/>
			</rt_info>
			<input>
				<port id="0">
					<dim>1</dim>
					<dim>144</dim>
					<dim>144</dim>
					<dim>144</dim>
					<dim>1</dim>
				</port>
				<port id="1">
					<dim>5</dim>
				</port>
			</input>
			<output>
				<port id="2" precision="FP32">
					<dim>1</dim>
					<dim>1</dim>
					<dim>144</dim>
					<dim>144</dim>
					<dim>144</dim>
				</port>
			</output>
		</layer>
		<layer id="150" name="StatefulPartitionedCall/3d_unet_decathlon/encode_a_conv_0/Conv3D" type="Convolution" version="opset1">
			<data auto_pad="same_upper" dilations="1,1,1" pads_begin="0,0,0" pads_end="0,0,0" strides="1,1,1"/>
			<rt_info>
				<attribute name="fused_names" value="StatefulPartitionedCall/3d_unet_decathlon/encode_a_conv_0/Conv3D" version="0"/>
			</rt_info>
			<input>
				<port id="0">
					<dim>1</dim>
					<dim>1</dim>
					<dim>144</dim>
					<dim>144</dim>
					<dim>144</dim>
				</port>
				<port id="1">
					<dim>16</dim>
					<dim>1</dim>
					<dim>3</dim>
					<dim>3</dim>
					<dim>3</dim>
				</port>
			</input>
			<output>
				<port id="2" precision="FP32">
					<dim>1</dim>
					<dim>16</dim>
					<dim>144</dim>
					<dim>144</dim>
					<dim>144</dim>
				</port>
			</output>
		</layer>
		<layer id="151" name="data_add_70103105133" type="Const" version="opset1">
			<data element_type="f32" offset="9408204" shape="1,16,1,1,1" size="64"/>
			<rt_info>
				<attribute name="fused_names" value="data_add_7010" version="0"/>
			</rt_info>
			<output>
				<port id="0" precision="FP32">
					<dim>1</dim>
					<dim>16</dim>
					<dim>1</dim>
					<dim>1</dim>
					<dim>1</dim>
				</port>
			</output>
		</layer>
		<layer id="152" name="StatefulPartitionedCall/3d_unet_decathlon/encode_a_conv_0/BiasAdd/Add/Fused_Add_" type="Add" version="opset1">
			<data auto_broadcast="numpy"/>
			<rt_info>
				<attribute name="fused_names" value="StatefulPartitionedCall/3d_unet_decathlon/encode_a_conv_0/BiasAdd/Add/Fused_Add_" version="0"/>
			</rt_info>
			<input>
				<port id="0">
					<dim>1</dim>
					<dim>16</dim>
					<dim>144</dim>
					<dim>144</dim>
					<dim>144</dim>
				</port>
				<port id="1">
					<dim>1</dim>
					<dim>16</dim>
					<dim>1</dim>
					<dim>1</dim>
					<dim>1</dim>
				</port>
			</input>
			<output>
				<port id="2" names="StatefulPartitionedCall/3d_unet_decathlon/encode_a_bn_0/FusedBatchNormV3:0" precision="FP32">
					<dim>1</dim>
					<dim>16</dim>
					<dim>144</dim>
					<dim>144</dim>
					<dim>144</dim>
				</port>
			</output>
		</layer>
		<layer id="153" name="StatefulPartitionedCall/3d_unet_decathlon/encode_a_relu_0/Relu" type="ReLU" version="opset1">
			<rt_info>
				<attribute name="fused_names" value="StatefulPartitionedCall/3d_unet_decathlon/encode_a_relu_0/Relu" version="0"/>
			</rt_info>
			<input>
				<port id="0">
					<dim>1</dim>
					<dim>16</dim>
					<dim>144</dim>
					<dim>144</dim>
					<dim>144</dim>
				</port>
			</input>
			<output>
				<port id="1" names="StatefulPartitionedCall/3d_unet_decathlon/encode_a_relu_0/Relu:0" precision="FP32">
					<dim>1</dim>
					<dim>16</dim>
					<dim>144</dim>
					<dim>144</dim>
					<dim>144</dim>
				</port>
			</output>
		</layer>
		<layer id="154" name="StatefulPartitionedCall/3d_unet_decathlon/encode_a_conv_1/Conv3D/fq_input_0" type="FakeQuantize" version="opset1">
			<data auto_broadcast="numpy" levels="256"/>
			<input>
				<port id="0">
					<dim>1</dim>
					<dim>16</dim>
					<dim>144</dim>
					<dim>144</dim>
					<dim>144</dim>
				</port>
				<port id="1"/>
				<port id="2"/>
				<port id="3"/>
				<port id="4"/>
			</input>
			<output>
				<port id="5" precision="FP32">
					<dim>1</dim>
					<dim>16</dim>
					<dim>144</dim>
					<dim>144</dim>
					<dim>144</dim>
				</port>
			</output>
		</layer>
		<layer id="155" name="149514995538" type="Const" version="opset1">
			<data element_type="f32" offset="9408268" shape="16,1,1,1,1" size="64"/>
			<output>
				<port id="0" precision="FP32">
					<dim>16</dim>
					<dim>1</dim>
					<dim>1</dim>
					<dim>1</dim>
					<dim>1</dim>
				</port>
			</output>
		</layer>
		<layer id="156" name="149615004755" type="Const" version="opset1">
			<data element_type="f32" offset="9408332" shape="16,1,1,1,1" size="64"/>
			<output>
				<port id="0" precision="FP32">
					<dim>16</dim>
					<dim>1</dim>
					<dim>1</dim>
					<dim>1</dim>
					<dim>1</dim>
				</port>
			</output>
		</layer>
		<layer id="157" name="149715015526" type="Const" version="opset1">
			<data element_type="f32" offset="9408268" shape="16,1,1,1,1" size="64"/>
			<output>
				<port id="0" precision="FP32">
					<dim>16</dim>
					<dim>1</dim>
					<dim>1</dim>
					<dim>1</dim>
					<dim>1</dim>
				</port>
			</output>
		</layer>
		<layer id="158" name="149815025094" type="Const" version="opset1">
			<data element_type="f32" offset="9408332" shape="16,1,1,1,1" size="64"/>
			<output>
				<port id="0" precision="FP32">
					<dim>16</dim>
					<dim>1</dim>
					<dim>1</dim>
					<dim>1</dim>
					<dim>1</dim>
				</port>
			</output>
		</layer>
		<layer id="159" name="StatefulPartitionedCall/3d_unet_decathlon/encode_a_bn_1/FusedBatchNormV3/mean/Fused_Mul__copy3135376" type="Const" version="opset1">
			<data element_type="f32" offset="9408396" shape="16,16,3,3,3" size="27648"/>
			<rt_info>
				<attribute name="fused_names" value="StatefulPartitionedCall/3d_unet_decathlon/encode_a_bn_1/FusedBatchNormV3/mean/Fused_Mul__copy" version="0"/>
			</rt_info>
			<output>
				<port id="0" names="StatefulPartitionedCall/3d_unet_decathlon/encode_a_conv_1/Conv3D/ReadVariableOp:0" precision="FP32">
					<dim>16</dim>
					<dim>16</dim>
					<dim>3</dim>
					<dim>3</dim>
					<dim>3</dim>
				</port>
			</output>
		</layer>
		<layer id="160" name="StatefulPartitionedCall/3d_unet_decathlon/encode_a_conv_1/Conv3D/fq_weights_1" type="FakeQuantize" version="opset1">
			<data auto_broadcast="numpy" levels="255"/>
			<input>
				<port id="0">
					<dim>16</dim>
					<dim>16</dim>
					<dim>3</dim>
					<dim>3</dim>
					<dim>3</dim>
				</port>
				<port id="1">
					<dim>16</dim>
					<dim>1</dim>
					<dim>1</dim>
					<dim>1</dim>
					<dim>1</dim>
				</port>
				<port id="2">
					<dim>16</dim>
					<dim>1</dim>
					<dim>1</dim>
					<dim>1</dim>
					<dim>1</dim>
				</port>
				<port id="3">
					<dim>16</dim>
					<dim>1</dim>
					<dim>1</dim>
					<dim>1</dim>
					<dim>1</dim>
				</port>
				<port id="4">
					<dim>16</dim>
					<dim>1</dim>
					<dim>1</dim>
					<dim>1</dim>
					<dim>1</dim>
				</port>
			</input>
			<output>
				<port id="5" precision="FP32">
					<dim>16</dim>
					<dim>16</dim>
					<dim>3</dim>
					<dim>3</dim>
					<dim>3</dim>
				</port>
			</output>
		</layer>
		<layer id="161" name="StatefulPartitionedCall/3d_unet_decathlon/encode_a_conv_1/Conv3D" type="Convolution" version="opset1">
			<data auto_pad="same_upper" dilations="1,1,1" pads_begin="0,0,0" pads_end="0,0,0" strides="1,1,1"/>
			<rt_info>
				<attribute name="fused_names" value="StatefulPartitionedCall/3d_unet_decathlon/encode_a_conv_1/Conv3D" version="0"/>
			</rt_info>
			<input>
				<port id="0">
					<dim>1</dim>
					<dim>16</dim>
					<dim>144</dim>
					<dim>144</dim>
					<dim>144</dim>
				</port>
				<port id="1">
					<dim>16</dim>
					<dim>16</dim>
					<dim>3</dim>
					<dim>3</dim>
					<dim>3</dim>
				</port>
			</input>
			<output>
				<port id="2" precision="FP32">
					<dim>1</dim>
					<dim>16</dim>
					<dim>144</dim>
					<dim>144</dim>
					<dim>144</dim>
				</port>
			</output>
		</layer>
		<layer id="162" name="data_add_701370183155151" type="Const" version="opset1">
			<data element_type="f32" offset="9436044" shape="1,16,1,1,1" size="64"/>
			<rt_info>
				<attribute name="fused_names" value="data_add_70137018" version="0"/>
			</rt_info>
			<output>
				<port id="0" precision="FP32">
					<dim>1</dim>
					<dim>16</dim>
					<dim>1</dim>
					<dim>1</dim>
					<dim>1</dim>
				</port>
			</output>
		</layer>
		<layer id="163" name="StatefulPartitionedCall/3d_unet_decathlon/encode_a_conv_1/BiasAdd/Add/Fused_Add_" type="Add" version="opset1">
			<data auto_broadcast="numpy"/>
			<rt_info>
				<attribute name="fused_names" value="StatefulPartitionedCall/3d_unet_decathlon/encode_a_conv_1/BiasAdd/Add/Fused_Add_" version="0"/>
			</rt_info>
			<input>
				<port id="0">
					<dim>1</dim>
					<dim>16</dim>
					<dim>144</dim>
					<dim>144</dim>
					<dim>144</dim>
				</port>
				<port id="1">
					<dim>1</dim>
					<dim>16</dim>
					<dim>1</dim>
					<dim>1</dim>
					<dim>1</dim>
				</port>
			</input>
			<output>
				<port id="2" names="StatefulPartitionedCall/3d_unet_decathlon/encode_a_bn_1/FusedBatchNormV3:0" precision="FP32">
					<dim>1</dim>
					<dim>16</dim>
					<dim>144</dim>
					<dim>144</dim>
					<dim>144</dim>
				</port>
			</output>
		</layer>
		<layer id="164" name="StatefulPartitionedCall/3d_unet_decathlon/encode_a/Relu" type="ReLU" version="opset1">
			<rt_info>
				<attribute name="fused_names" value="StatefulPartitionedCall/3d_unet_decathlon/encode_a/Relu" version="0"/>
			</rt_info>
			<input>
				<port id="0">
					<dim>1</dim>
					<dim>16</dim>
					<dim>144</dim>
					<dim>144</dim>
					<dim>144</dim>
				</port>
			</input>
			<output>
				<port id="1" names="StatefulPartitionedCall/3d_unet_decathlon/encode_a/Relu:0" precision="FP32">
					<dim>1</dim>
					<dim>16</dim>
					<dim>144</dim>
					<dim>144</dim>
					<dim>144</dim>
				</port>
			</output>
		</layer>
		<layer id="165" name="StatefulPartitionedCall/3d_unet_decathlon/concat_a/concat/fq_input_1" type="FakeQuantize" version="opset1">
			<data auto_broadcast="numpy" levels="256"/>
			<input>
				<port id="0">
					<dim>1</dim>
					<dim>16</dim>
					<dim>144</dim>
					<dim>144</dim>
					<dim>144</dim>
				</port>
				<port id="1"/>
				<port id="2"/>
				<port id="3"/>
				<port id="4"/>
			</input>
			<output>
				<port id="5" precision="FP32">
					<dim>1</dim>
					<dim>16</dim>
					<dim>144</dim>
					<dim>144</dim>
					<dim>144</dim>
				</port>
			</output>
		</layer>
		<layer id="166" name="StatefulPartitionedCall/3d_unet_decathlon/pool_a/MaxPool3D" type="MaxPool" version="opset8">
			<data auto_pad="valid" axis="0" dilations="1,1,1" index_element_type="i64" kernel="2,2,2" pads_begin="0,0,0" pads_end="0,0,0" rounding_type="floor" strides="2,2,2"/>
			<rt_info>
				<attribute name="fused_names" value="StatefulPartitionedCall/3d_unet_decathlon/pool_a/MaxPool3D" version="0"/>
			</rt_info>
			<input>
				<port id="0">
					<dim>1</dim>
					<dim>16</dim>
					<dim>144</dim>
					<dim>144</dim>
					<dim>144</dim>
				</port>
			</input>
			<output>
				<port id="1" names="StatefulPartitionedCall/3d_unet_decathlon/pool_a/MaxPool3D:0" precision="FP32">
					<dim>1</dim>
					<dim>16</dim>
					<dim>72</dim>
					<dim>72</dim>
					<dim>72</dim>
				</port>
				<port id="2" precision="FP32">
					<dim>1</dim>
					<dim>16</dim>
					<dim>72</dim>
					<dim>72</dim>
					<dim>72</dim>
					<rt_info/>
				</port>
			</output>
		</layer>
		<layer id="167" name="StatefulPartitionedCall/3d_unet_decathlon/encode_b_conv_0/Conv3D" type="Convolution" version="opset1">
			<data auto_pad="same_upper" dilations="1,1,1" pads_begin="0,0,0" pads_end="0,0,0" strides="1,1,1"/>
			<rt_info>
				<attribute name="fused_names" value="StatefulPartitionedCall/3d_unet_decathlon/encode_b_conv_0/Conv3D" version="0"/>
			</rt_info>
			<input>
				<port id="0">
					<dim>1</dim>
					<dim>16</dim>
					<dim>72</dim>
					<dim>72</dim>
					<dim>72</dim>
				</port>
				<port id="1">
					<dim>32</dim>
					<dim>16</dim>
					<dim>3</dim>
					<dim>3</dim>
					<dim>3</dim>
				</port>
			</input>
			<output>
				<port id="2" precision="FP32">
					<dim>1</dim>
					<dim>32</dim>
					<dim>72</dim>
					<dim>72</dim>
					<dim>72</dim>
				</port>
			</output>
		</layer>
		<layer id="168" name="data_add_702170263214941" type="Const" version="opset1">
			<data element_type="f32" offset="9436108" shape="1,32,1,1,1" size="128"/>
			<rt_info>
				<attribute name="fused_names" value="data_add_70217026" version="0"/>
			</rt_info>
			<output>
				<port id="0" precision="FP32">
					<dim>1</dim>
					<dim>32</dim>
					<dim>1</dim>
					<dim>1</dim>
					<dim>1</dim>
				</port>
			</output>
		</layer>
		<layer id="169" name="StatefulPartitionedCall/3d_unet_decathlon/encode_b_conv_0/BiasAdd/Add/Fused_Add_" type="Add" version="opset1">
			<data auto_broadcast="numpy"/>
			<rt_info>
				<attribute name="fused_names" value="StatefulPartitionedCall/3d_unet_decathlon/encode_b_conv_0/BiasAdd/Add/Fused_Add_" version="0"/>
			</rt_info>
			<input>
				<port id="0">
					<dim>1</dim>
					<dim>32</dim>
					<dim>72</dim>
					<dim>72</dim>
					<dim>72</dim>
				</port>
				<port id="1">
					<dim>1</dim>
					<dim>32</dim>
					<dim>1</dim>
					<dim>1</dim>
					<dim>1</dim>
				</port>
			</input>
			<output>
				<port id="2" names="StatefulPartitionedCall/3d_unet_decathlon/encode_b_bn_0/FusedBatchNormV3:0" precision="FP32">
					<dim>1</dim>
					<dim>32</dim>
					<dim>72</dim>
					<dim>72</dim>
					<dim>72</dim>
				</port>
			</output>
		</layer>
		<layer id="170" name="StatefulPartitionedCall/3d_unet_decathlon/encode_b_relu_0/Relu" type="ReLU" version="opset1">
			<rt_info>
				<attribute name="fused_names" value="StatefulPartitionedCall/3d_unet_decathlon/encode_b_relu_0/Relu" version="0"/>
			</rt_info>
			<input>
				<port id="0">
					<dim>1</dim>
					<dim>32</dim>
					<dim>72</dim>
					<dim>72</dim>
					<dim>72</dim>
				</port>
			</input>
			<output>
				<port id="1" names="StatefulPartitionedCall/3d_unet_decathlon/encode_b_relu_0/Relu:0" precision="FP32">
					<dim>1</dim>
					<dim>32</dim>
					<dim>72</dim>
					<dim>72</dim>
					<dim>72</dim>
				</port>
			</output>
		</layer>
		<layer id="171" name="StatefulPartitionedCall/3d_unet_decathlon/encode_b_conv_1/Conv3D/fq_input_0" type="FakeQuantize" version="opset1">
			<data auto_broadcast="numpy" levels="256"/>
			<input>
				<port id="0">
					<dim>1</dim>
					<dim>32</dim>
					<dim>72</dim>
					<dim>72</dim>
					<dim>72</dim>
				</port>
				<port id="1"/>
				<port id="2"/>
				<port id="3"/>
				<port id="4"/>
			</input>
			<output>
				<port id="5" precision="FP32">
					<dim>1</dim>
					<dim>32</dim>
					<dim>72</dim>
					<dim>72</dim>
					<dim>72</dim>
				</port>
			</output>
		</layer>
		<layer id="172" name="159515995430" type="Const" version="opset1">
			<data element_type="f32" offset="9436236" shape="32,1,1,1,1" size="128"/>
			<output>
				<port id="0" precision="FP32">
					<dim>32</dim>
					<dim>1</dim>
					<dim>1</dim>
					<dim>1</dim>
					<dim>1</dim>
				</port>
			</output>
		</layer>
		<layer id="173" name="159616004788" type="Const" version="opset1">
			<data element_type="f32" offset="9436364" shape="32,1,1,1,1" size="128"/>
			<output>
				<port id="0" precision="FP32">
					<dim>32</dim>
					<dim>1</dim>
					<dim>1</dim>
					<dim>1</dim>
					<dim>1</dim>
				</port>
			</output>
		</layer>
		<layer id="174" name="159716014854" type="Const" version="opset1">
			<data element_type="f32" offset="9436236" shape="32,1,1,1,1" size="128"/>
			<output>
				<port id="0" precision="FP32">
					<dim>32</dim>
					<dim>1</dim>
					<dim>1</dim>
					<dim>1</dim>
					<dim>1</dim>
				</port>
			</output>
		</layer>
		<layer id="175" name="159816025535" type="Const" version="opset1">
			<data element_type="f32" offset="9436364" shape="32,1,1,1,1" size="128"/>
			<output>
				<port id="0" precision="FP32">
					<dim>32</dim>
					<dim>1</dim>
					<dim>1</dim>
					<dim>1</dim>
					<dim>1</dim>
				</port>
			</output>
		</layer>
		<layer id="176" name="StatefulPartitionedCall/3d_unet_decathlon/encode_b_bn_1/FusedBatchNormV3/mean/Fused_Mul__copy3245013" type="Const" version="opset1">
			<data element_type="f32" offset="9436492" shape="32,32,3,3,3" size="110592"/>
			<rt_info>
				<attribute name="fused_names" value="StatefulPartitionedCall/3d_unet_decathlon/encode_b_bn_1/FusedBatchNormV3/mean/Fused_Mul__copy" version="0"/>
			</rt_info>
			<output>
				<port id="0" names="StatefulPartitionedCall/3d_unet_decathlon/encode_b_conv_1/Conv3D/ReadVariableOp:0" precision="FP32">
					<dim>32</dim>
					<dim>32</dim>
					<dim>3</dim>
					<dim>3</dim>
					<dim>3</dim>
				</port>
			</output>
		</layer>
		<layer id="177" name="StatefulPartitionedCall/3d_unet_decathlon/encode_b_conv_1/Conv3D/fq_weights_1" type="FakeQuantize" version="opset1">
			<data auto_broadcast="numpy" levels="255"/>
			<input>
				<port id="0">
					<dim>32</dim>
					<dim>32</dim>
					<dim>3</dim>
					<dim>3</dim>
					<dim>3</dim>
				</port>
				<port id="1">
					<dim>32</dim>
					<dim>1</dim>
					<dim>1</dim>
					<dim>1</dim>
					<dim>1</dim>
				</port>
				<port id="2">
					<dim>32</dim>
					<dim>1</dim>
					<dim>1</dim>
					<dim>1</dim>
					<dim>1</dim>
				</port>
				<port id="3">
					<dim>32</dim>
					<dim>1</dim>
					<dim>1</dim>
					<dim>1</dim>
					<dim>1</dim>
				</port>
				<port id="4">
					<dim>32</dim>
					<dim>1</dim>
					<dim>1</dim>
					<dim>1</dim>
					<dim>1</dim>
				</port>
			</input>
			<output>
				<port id="5" precision="FP32">
					<dim>32</dim>
					<dim>32</dim>
					<dim>3</dim>
					<dim>3</dim>
					<dim>3</dim>
				</port>
			</output>
		</layer>
		<layer id="178" name="StatefulPartitionedCall/3d_unet_decathlon/encode_b_conv_1/Conv3D" type="Convolution" version="opset1">
			<data auto_pad="same_upper" dilations="1,1,1" pads_begin="0,0,0" pads_end="0,0,0" strides="1,1,1"/>
			<rt_info>
				<attribute name="fused_names" value="StatefulPartitionedCall/3d_unet_decathlon/encode_b_conv_1/Conv3D" version="0"/>
			</rt_info>
			<input>
				<port id="0">
					<dim>1</dim>
					<dim>32</dim>
					<dim>72</dim>
					<dim>72</dim>
					<dim>72</dim>
				</port>
				<port id="1">
					<dim>32</dim>
					<dim>32</dim>
					<dim>3</dim>
					<dim>3</dim>
					<dim>3</dim>
				</port>
			</input>
			<output>
				<port id="2" precision="FP32">
					<dim>1</dim>
					<dim>32</dim>
					<dim>72</dim>
					<dim>72</dim>
					<dim>72</dim>
				</port>
			</output>
		</layer>
		<layer id="179" name="data_add_702970343264950" type="Const" version="opset1">
			<data element_type="f32" offset="9547084" shape="1,32,1,1,1" size="128"/>
			<rt_info>
				<attribute name="fused_names" value="data_add_70297034" version="0"/>
			</rt_info>
			<output>
				<port id="0" precision="FP32">
					<dim>1</dim>
					<dim>32</dim>
					<dim>1</dim>
					<dim>1</dim>
					<dim>1</dim>
				</port>
			</output>
		</layer>
		<layer id="180" name="StatefulPartitionedCall/3d_unet_decathlon/encode_b_conv_1/BiasAdd/Add/Fused_Add_" type="Add" version="opset1">
			<data auto_broadcast="numpy"/>
			<rt_info>
				<attribute name="fused_names" value="StatefulPartitionedCall/3d_unet_decathlon/encode_b_conv_1/BiasAdd/Add/Fused_Add_" version="0"/>
			</rt_info>
			<input>
				<port id="0">
					<dim>1</dim>
					<dim>32</dim>
					<dim>72</dim>
					<dim>72</dim>
					<dim>72</dim>
				</port>
				<port id="1">
					<dim>1</dim>
					<dim>32</dim>
					<dim>1</dim>
					<dim>1</dim>
					<dim>1</dim>
				</port>
			</input>
			<output>
				<port id="2" names="StatefulPartitionedCall/3d_unet_decathlon/encode_b_bn_1/FusedBatchNormV3:0" precision="FP32">
					<dim>1</dim>
					<dim>32</dim>
					<dim>72</dim>
					<dim>72</dim>
					<dim>72</dim>
				</port>
			</output>
		</layer>
		<layer id="181" name="StatefulPartitionedCall/3d_unet_decathlon/encode_b/Relu" type="ReLU" version="opset1">
			<rt_info>
				<attribute name="fused_names" value="StatefulPartitionedCall/3d_unet_decathlon/encode_b/Relu" version="0"/>
			</rt_info>
			<input>
				<port id="0">
					<dim>1</dim>
					<dim>32</dim>
					<dim>72</dim>
					<dim>72</dim>
					<dim>72</dim>
				</port>
			</input>
			<output>
				<port id="1" names="StatefulPartitionedCall/3d_unet_decathlon/encode_b/Relu:0" precision="FP32">
					<dim>1</dim>
					<dim>32</dim>
					<dim>72</dim>
					<dim>72</dim>
					<dim>72</dim>
				</port>
			</output>
		</layer>
		<layer id="182" name="StatefulPartitionedCall/3d_unet_decathlon/concat_b/concat/fq_input_1" type="FakeQuantize" version="opset1">
			<data auto_broadcast="numpy" levels="256"/>
			<input>
				<port id="0">
					<dim>1</dim>
					<dim>32</dim>
					<dim>72</dim>
					<dim>72</dim>
					<dim>72</dim>
				</port>
				<port id="1"/>
				<port id="2"/>
				<port id="3"/>
				<port id="4"/>
			</input>
			<output>
				<port id="5" precision="FP32">
					<dim>1</dim>
					<dim>32</dim>
					<dim>72</dim>
					<dim>72</dim>
					<dim>72</dim>
				</port>
			</output>
		</layer>
		<layer id="183" name="StatefulPartitionedCall/3d_unet_decathlon/pool_b/MaxPool3D" type="MaxPool" version="opset8">
			<data auto_pad="valid" axis="0" dilations="1,1,1" index_element_type="i64" kernel="2,2,2" pads_begin="0,0,0" pads_end="0,0,0" rounding_type="floor" strides="2,2,2"/>
			<rt_info>
				<attribute name="fused_names" value="StatefulPartitionedCall/3d_unet_decathlon/pool_b/MaxPool3D" version="0"/>
			</rt_info>
			<input>
				<port id="0">
					<dim>1</dim>
					<dim>32</dim>
					<dim>72</dim>
					<dim>72</dim>
					<dim>72</dim>
				</port>
			</input>
			<output>
				<port id="1" names="StatefulPartitionedCall/3d_unet_decathlon/pool_b/MaxPool3D:0" precision="FP32">
					<dim>1</dim>
					<dim>32</dim>
					<dim>36</dim>
					<dim>36</dim>
					<dim>36</dim>
				</port>
				<port id="2" precision="FP32">
					<dim>1</dim>
					<dim>32</dim>
					<dim>36</dim>
					<dim>36</dim>
					<dim>36</dim>
					<rt_info/>
				</port>
			</output>
		</layer>
		<layer id="184" name="StatefulPartitionedCall/3d_unet_decathlon/encode_c_conv_0/Conv3D" type="Convolution" version="opset1">
			<data auto_pad="same_upper" dilations="1,1,1" pads_begin="0,0,0" pads_end="0,0,0" strides="1,1,1"/>
			<rt_info>
				<attribute name="fused_names" value="StatefulPartitionedCall/3d_unet_decathlon/encode_c_conv_0/Conv3D" version="0"/>
			</rt_info>
			<input>
				<port id="0">
					<dim>1</dim>
					<dim>32</dim>
					<dim>36</dim>
					<dim>36</dim>
					<dim>36</dim>
				</port>
				<port id="1">
					<dim>64</dim>
					<dim>32</dim>
					<dim>3</dim>
					<dim>3</dim>
					<dim>3</dim>
				</port>
			</input>
			<output>
				<port id="2" precision="FP32">
					<dim>1</dim>
					<dim>64</dim>
					<dim>36</dim>
					<dim>36</dim>
					<dim>36</dim>
				</port>
			</output>
		</layer>
		<layer id="185" name="data_add_703770423325031" type="Const" version="opset1">
			<data element_type="f32" offset="9547212" shape="1,64,1,1,1" size="256"/>
			<rt_info>
				<attribute name="fused_names" value="data_add_70377042" version="0"/>
			</rt_info>
			<output>
				<port id="0" precision="FP32">
					<dim>1</dim>
					<dim>64</dim>
					<dim>1</dim>
					<dim>1</dim>
					<dim>1</dim>
				</port>
			</output>
		</layer>
		<layer id="186" name="StatefulPartitionedCall/3d_unet_decathlon/encode_c_conv_0/BiasAdd/Add/Fused_Add_" type="Add" version="opset1">
			<data auto_broadcast="numpy"/>
			<rt_info>
				<attribute name="fused_names" value="StatefulPartitionedCall/3d_unet_decathlon/encode_c_conv_0/BiasAdd/Add/Fused_Add_" version="0"/>
			</rt_info>
			<input>
				<port id="0">
					<dim>1</dim>
					<dim>64</dim>
					<dim>36</dim>
					<dim>36</dim>
					<dim>36</dim>
				</port>
				<port id="1">
					<dim>1</dim>
					<dim>64</dim>
					<dim>1</dim>
					<dim>1</dim>
					<dim>1</dim>
				</port>
			</input>
			<output>
				<port id="2" names="StatefulPartitionedCall/3d_unet_decathlon/encode_c_bn_0/FusedBatchNormV3:0" precision="FP32">
					<dim>1</dim>
					<dim>64</dim>
					<dim>36</dim>
					<dim>36</dim>
					<dim>36</dim>
				</port>
			</output>
		</layer>
		<layer id="187" name="StatefulPartitionedCall/3d_unet_decathlon/encode_c_relu_0/Relu" type="ReLU" version="opset1">
			<rt_info>
				<attribute name="fused_names" value="StatefulPartitionedCall/3d_unet_decathlon/encode_c_relu_0/Relu" version="0"/>
			</rt_info>
			<input>
				<port id="0">
					<dim>1</dim>
					<dim>64</dim>
					<dim>36</dim>
					<dim>36</dim>
					<dim>36</dim>
				</port>
			</input>
			<output>
				<port id="1" names="StatefulPartitionedCall/3d_unet_decathlon/encode_c_relu_0/Relu:0" precision="FP32">
					<dim>1</dim>
					<dim>64</dim>
					<dim>36</dim>
					<dim>36</dim>
					<dim>36</dim>
				</port>
			</output>
		</layer>
		<layer id="188" name="StatefulPartitionedCall/3d_unet_decathlon/encode_c_conv_1/Conv3D/fq_input_0" type="FakeQuantize" version="opset1">
			<data auto_broadcast="numpy" levels="256"/>
			<input>
				<port id="0">
					<dim>1</dim>
					<dim>64</dim>
					<dim>36</dim>
					<dim>36</dim>
					<dim>36</dim>
				</port>
				<port id="1"/>
				<port id="2"/>
				<port id="3"/>
				<port id="4"/>
			</input>
			<output>
				<port id="5" precision="FP32">
					<dim>1</dim>
					<dim>64</dim>
					<dim>36</dim>
					<dim>36</dim>
					<dim>36</dim>
				</port>
			</output>
		</layer>
		<layer id="189" name="125512595313" type="Const" version="opset1">
			<data element_type="f32" offset="9547468" shape="64,1,1,1,1" size="256"/>
			<output>
				<port id="0" precision="FP32">
					<dim>64</dim>
					<dim>1</dim>
					<dim>1</dim>
					<dim>1</dim>
					<dim>1</dim>
				</port>
			</output>
		</layer>
		<layer id="190" name="125612605439" type="Const" version="opset1">
			<data element_type="f32" offset="9547724" shape="64,1,1,1,1" size="256"/>
			<output>
				<port id="0" precision="FP32">
					<dim>64</dim>
					<dim>1</dim>
					<dim>1</dim>
					<dim>1</dim>
					<dim>1</dim>
				</port>
			</output>
		</layer>
		<layer id="191" name="125712615001" type="Const" version="opset1">
			<data element_type="f32" offset="9547468" shape="64,1,1,1,1" size="256"/>
			<output>
				<port id="0" precision="FP32">
					<dim>64</dim>
					<dim>1</dim>
					<dim>1</dim>
					<dim>1</dim>
					<dim>1</dim>
				</port>
			</output>
		</layer>
		<layer id="192" name="125812624602" type="Const" version="opset1">
			<data element_type="f32" offset="9547724" shape="64,1,1,1,1" size="256"/>
			<output>
				<port id="0" precision="FP32">
					<dim>64</dim>
					<dim>1</dim>
					<dim>1</dim>
					<dim>1</dim>
					<dim>1</dim>
				</port>
			</output>
		</layer>
		<layer id="193" name="StatefulPartitionedCall/3d_unet_decathlon/encode_c_bn_1/FusedBatchNormV3/mean/Fused_Mul__copy3354782" type="Const" version="opset1">
			<data element_type="f32" offset="9547980" shape="64,64,3,3,3" size="442368"/>
			<rt_info>
				<attribute name="fused_names" value="StatefulPartitionedCall/3d_unet_decathlon/encode_c_bn_1/FusedBatchNormV3/mean/Fused_Mul__copy" version="0"/>
			</rt_info>
			<output>
				<port id="0" names="StatefulPartitionedCall/3d_unet_decathlon/encode_c_conv_1/Conv3D/ReadVariableOp:0" precision="FP32">
					<dim>64</dim>
					<dim>64</dim>
					<dim>3</dim>
					<dim>3</dim>
					<dim>3</dim>
				</port>
			</output>
		</layer>
		<layer id="194" name="StatefulPartitionedCall/3d_unet_decathlon/encode_c_conv_1/Conv3D/fq_weights_1" type="FakeQuantize" version="opset1">
			<data auto_broadcast="numpy" levels="255"/>
			<input>
				<port id="0">
					<dim>64</dim>
					<dim>64</dim>
					<dim>3</dim>
					<dim>3</dim>
					<dim>3</dim>
				</port>
				<port id="1">
					<dim>64</dim>
					<dim>1</dim>
					<dim>1</dim>
					<dim>1</dim>
					<dim>1</dim>
				</port>
				<port id="2">
					<dim>64</dim>
					<dim>1</dim>
					<dim>1</dim>
					<dim>1</dim>
					<dim>1</dim>
				</port>
				<port id="3">
					<dim>64</dim>
					<dim>1</dim>
					<dim>1</dim>
					<dim>1</dim>
					<dim>1</dim>
				</port>
				<port id="4">
					<dim>64</dim>
					<dim>1</dim>
					<dim>1</dim>
					<dim>1</dim>
					<dim>1</dim>
				</port>
			</input>
			<output>
				<port id="5" precision="FP32">
					<dim>64</dim>
					<dim>64</dim>
					<dim>3</dim>
					<dim>3</dim>
					<dim>3</dim>
				</port>
			</output>
		</layer>
		<layer id="195" name="StatefulPartitionedCall/3d_unet_decathlon/encode_c_conv_1/Conv3D" type="Convolution" version="opset1">
			<data auto_pad="same_upper" dilations="1,1,1" pads_begin="0,0,0" pads_end="0,0,0" strides="1,1,1"/>
			<rt_info>
				<attribute name="fused_names" value="StatefulPartitionedCall/3d_unet_decathlon/encode_c_conv_1/Conv3D" version="0"/>
			</rt_info>
			<input>
				<port id="0">
					<dim>1</dim>
					<dim>64</dim>
					<dim>36</dim>
					<dim>36</dim>
					<dim>36</dim>
				</port>
				<port id="1">
					<dim>64</dim>
					<dim>64</dim>
					<dim>3</dim>
					<dim>3</dim>
					<dim>3</dim>
				</port>
			</input>
			<output>
				<port id="2" precision="FP32">
					<dim>1</dim>
					<dim>64</dim>
					<dim>36</dim>
					<dim>36</dim>
					<dim>36</dim>
				</port>
			</output>
		</layer>
		<layer id="196" name="data_add_704570503375004" type="Const" version="opset1">
			<data element_type="f32" offset="9990348" shape="1,64,1,1,1" size="256"/>
			<rt_info>
				<attribute name="fused_names" value="data_add_70457050" version="0"/>
			</rt_info>
			<output>
				<port id="0" precision="FP32">
					<dim>1</dim>
					<dim>64</dim>
					<dim>1</dim>
					<dim>1</dim>
					<dim>1</dim>
				</port>
			</output>
		</layer>
		<layer id="197" name="StatefulPartitionedCall/3d_unet_decathlon/encode_c_conv_1/BiasAdd/Add/Fused_Add_" type="Add" version="opset1">
			<data auto_broadcast="numpy"/>
			<rt_info>
				<attribute name="fused_names" value="StatefulPartitionedCall/3d_unet_decathlon/encode_c_conv_1/BiasAdd/Add/Fused_Add_" version="0"/>
			</rt_info>
			<input>
				<port id="0">
					<dim>1</dim>
					<dim>64</dim>
					<dim>36</dim>
					<dim>36</dim>
					<dim>36</dim>
				</port>
				<port id="1">
					<dim>1</dim>
					<dim>64</dim>
					<dim>1</dim>
					<dim>1</dim>
					<dim>1</dim>
				</port>
			</input>
			<output>
				<port id="2" names="StatefulPartitionedCall/3d_unet_decathlon/encode_c_bn_1/FusedBatchNormV3:0" precision="FP32">
					<dim>1</dim>
					<dim>64</dim>
					<dim>36</dim>
					<dim>36</dim>
					<dim>36</dim>
				</port>
			</output>
		</layer>
		<layer id="198" name="StatefulPartitionedCall/3d_unet_decathlon/encode_c/Relu" type="ReLU" version="opset1">
			<rt_info>
				<attribute name="fused_names" value="StatefulPartitionedCall/3d_unet_decathlon/encode_c/Relu" version="0"/>
			</rt_info>
			<input>
				<port id="0">
					<dim>1</dim>
					<dim>64</dim>
					<dim>36</dim>
					<dim>36</dim>
					<dim>36</dim>
				</port>
			</input>
			<output>
				<port id="1" names="StatefulPartitionedCall/3d_unet_decathlon/encode_c/Relu:0" precision="FP32">
					<dim>1</dim>
					<dim>64</dim>
					<dim>36</dim>
					<dim>36</dim>
					<dim>36</dim>
				</port>
			</output>
		</layer>
		<layer id="199" name="StatefulPartitionedCall/3d_unet_decathlon/concat_c/concat/fq_input_1" type="FakeQuantize" version="opset1">
			<data auto_broadcast="numpy" levels="256"/>
			<input>
				<port id="0">
					<dim>1</dim>
					<dim>64</dim>
					<dim>36</dim>
					<dim>36</dim>
					<dim>36</dim>
				</port>
				<port id="1"/>
				<port id="2"/>
				<port id="3"/>
				<port id="4"/>
			</input>
			<output>
				<port id="5" precision="FP32">
					<dim>1</dim>
					<dim>64</dim>
					<dim>36</dim>
					<dim>36</dim>
					<dim>36</dim>
				</port>
			</output>
		</layer>
		<layer id="200" name="StatefulPartitionedCall/3d_unet_decathlon/pool_c/MaxPool3D" type="MaxPool" version="opset8">
			<data auto_pad="valid" axis="0" dilations="1,1,1" index_element_type="i64" kernel="2,2,2" pads_begin="0,0,0" pads_end="0,0,0" rounding_type="floor" strides="2,2,2"/>
			<rt_info>
				<attribute name="fused_names" value="StatefulPartitionedCall/3d_unet_decathlon/pool_c/MaxPool3D" version="0"/>
			</rt_info>
			<input>
				<port id="0">
					<dim>1</dim>
					<dim>64</dim>
					<dim>36</dim>
					<dim>36</dim>
					<dim>36</dim>
				</port>
			</input>
			<output>
				<port id="1" names="StatefulPartitionedCall/3d_unet_decathlon/pool_c/MaxPool3D:0" precision="FP32">
					<dim>1</dim>
					<dim>64</dim>
					<dim>18</dim>
					<dim>18</dim>
					<dim>18</dim>
				</port>
				<port id="2" precision="FP32">
					<dim>1</dim>
					<dim>64</dim>
					<dim>18</dim>
					<dim>18</dim>
					<dim>18</dim>
					<rt_info/>
				</port>
			</output>
		</layer>
		<layer id="201" name="StatefulPartitionedCall/3d_unet_decathlon/encode_d_conv_0/Conv3D" type="Convolution" version="opset1">
			<data auto_pad="same_upper" dilations="1,1,1" pads_begin="0,0,0" pads_end="0,0,0" strides="1,1,1"/>
			<rt_info>
				<attribute name="fused_names" value="StatefulPartitionedCall/3d_unet_decathlon/encode_d_conv_0/Conv3D" version="0"/>
			</rt_info>
			<input>
				<port id="0">
					<dim>1</dim>
					<dim>64</dim>
					<dim>18</dim>
					<dim>18</dim>
					<dim>18</dim>
				</port>
				<port id="1">
					<dim>128</dim>
					<dim>64</dim>
					<dim>3</dim>
					<dim>3</dim>
					<dim>3</dim>
				</port>
			</input>
			<output>
				<port id="2" precision="FP32">
					<dim>1</dim>
					<dim>128</dim>
					<dim>18</dim>
					<dim>18</dim>
					<dim>18</dim>
				</port>
			</output>
		</layer>
		<layer id="202" name="data_add_705370583435331" type="Const" version="opset1">
			<data element_type="f32" offset="9990604" shape="1,128,1,1,1" size="512"/>
			<rt_info>
				<attribute name="fused_names" value="data_add_70537058" version="0"/>
			</rt_info>
			<output>
				<port id="0" precision="FP32">
					<dim>1</dim>
					<dim>128</dim>
					<dim>1</dim>
					<dim>1</dim>
					<dim>1</dim>
				</port>
			</output>
		</layer>
		<layer id="203" name="StatefulPartitionedCall/3d_unet_decathlon/encode_d_conv_0/BiasAdd/Add/Fused_Add_" type="Add" version="opset1">
			<data auto_broadcast="numpy"/>
			<rt_info>
				<attribute name="fused_names" value="StatefulPartitionedCall/3d_unet_decathlon/encode_d_conv_0/BiasAdd/Add/Fused_Add_" version="0"/>
			</rt_info>
			<input>
				<port id="0">
					<dim>1</dim>
					<dim>128</dim>
					<dim>18</dim>
					<dim>18</dim>
					<dim>18</dim>
				</port>
				<port id="1">
					<dim>1</dim>
					<dim>128</dim>
					<dim>1</dim>
					<dim>1</dim>
					<dim>1</dim>
				</port>
			</input>
			<output>
				<port id="2" names="StatefulPartitionedCall/3d_unet_decathlon/encode_d_bn_0/FusedBatchNormV3:0" precision="FP32">
					<dim>1</dim>
					<dim>128</dim>
					<dim>18</dim>
					<dim>18</dim>
					<dim>18</dim>
				</port>
			</output>
		</layer>
		<layer id="204" name="StatefulPartitionedCall/3d_unet_decathlon/encode_d_relu_0/Relu" type="ReLU" version="opset1">
			<rt_info>
				<attribute name="fused_names" value="StatefulPartitionedCall/3d_unet_decathlon/encode_d_relu_0/Relu" version="0"/>
			</rt_info>
			<input>
				<port id="0">
					<dim>1</dim>
					<dim>128</dim>
					<dim>18</dim>
					<dim>18</dim>
					<dim>18</dim>
				</port>
			</input>
			<output>
				<port id="1" names="StatefulPartitionedCall/3d_unet_decathlon/encode_d_relu_0/Relu:0" precision="FP32">
					<dim>1</dim>
					<dim>128</dim>
					<dim>18</dim>
					<dim>18</dim>
					<dim>18</dim>
				</port>
			</output>
		</layer>
		<layer id="205" name="StatefulPartitionedCall/3d_unet_decathlon/encode_d_conv_1/Conv3D/fq_input_0" type="FakeQuantize" version="opset1">
			<data auto_broadcast="numpy" levels="256"/>
			<input>
				<port id="0">
					<dim>1</dim>
					<dim>128</dim>
					<dim>18</dim>
					<dim>18</dim>
					<dim>18</dim>
				</port>
				<port id="1"/>
				<port id="2"/>
				<port id="3"/>
				<port id="4"/>
			</input>
			<output>
				<port id="5" precision="FP32">
					<dim>1</dim>
					<dim>128</dim>
					<dim>18</dim>
					<dim>18</dim>
					<dim>18</dim>
				</port>
			</output>
		</layer>
		<layer id="206" name="157515795154" type="Const" version="opset1">
			<data element_type="f32" offset="9991116" shape="128,1,1,1,1" size="512"/>
			<output>
				<port id="0" precision="FP32">
					<dim>128</dim>
					<dim>1</dim>
					<dim>1</dim>
					<dim>1</dim>
					<dim>1</dim>
				</port>
			</output>
		</layer>
		<layer id="207" name="157615804839" type="Const" version="opset1">
			<data element_type="f32" offset="9991628" shape="128,1,1,1,1" size="512"/>
			<output>
				<port id="0" precision="FP32">
					<dim>128</dim>
					<dim>1</dim>
					<dim>1</dim>
					<dim>1</dim>
					<dim>1</dim>
				</port>
			</output>
		</layer>
		<layer id="208" name="157715815181" type="Const" version="opset1">
			<data element_type="f32" offset="9991116" shape="128,1,1,1,1" size="512"/>
			<output>
				<port id="0" precision="FP32">
					<dim>128</dim>
					<dim>1</dim>
					<dim>1</dim>
					<dim>1</dim>
					<dim>1</dim>
				</port>
			</output>
		</layer>
		<layer id="209" name="157815824761" type="Const" version="opset1">
			<data element_type="f32" offset="9991628" shape="128,1,1,1,1" size="512"/>
			<output>
				<port id="0" precision="FP32">
					<dim>128</dim>
					<dim>1</dim>
					<dim>1</dim>
					<dim>1</dim>
					<dim>1</dim>
				</port>
			</output>
		</layer>
		<layer id="210" name="StatefulPartitionedCall/3d_unet_decathlon/encode_d_bn_1/FusedBatchNormV3/mean/Fused_Mul__copy3464986" type="Const" version="opset1">
			<data element_type="f32" offset="9992140" shape="128,128,3,3,3" size="1769472"/>
			<rt_info>
				<attribute name="fused_names" value="StatefulPartitionedCall/3d_unet_decathlon/encode_d_bn_1/FusedBatchNormV3/mean/Fused_Mul__copy" version="0"/>
			</rt_info>
			<output>
				<port id="0" names="StatefulPartitionedCall/3d_unet_decathlon/encode_d_conv_1/Conv3D/ReadVariableOp:0" precision="FP32">
					<dim>128</dim>
					<dim>128</dim>
					<dim>3</dim>
					<dim>3</dim>
					<dim>3</dim>
				</port>
			</output>
		</layer>
		<layer id="211" name="StatefulPartitionedCall/3d_unet_decathlon/encode_d_conv_1/Conv3D/fq_weights_1" type="FakeQuantize" version="opset1">
			<data auto_broadcast="numpy" levels="255"/>
			<input>
				<port id="0">
					<dim>128</dim>
					<dim>128</dim>
					<dim>3</dim>
					<dim>3</dim>
					<dim>3</dim>
				</port>
				<port id="1">
					<dim>128</dim>
					<dim>1</dim>
					<dim>1</dim>
					<dim>1</dim>
					<dim>1</dim>
				</port>
				<port id="2">
					<dim>128</dim>
					<dim>1</dim>
					<dim>1</dim>
					<dim>1</dim>
					<dim>1</dim>
				</port>
				<port id="3">
					<dim>128</dim>
					<dim>1</dim>
					<dim>1</dim>
					<dim>1</dim>
					<dim>1</dim>
				</port>
				<port id="4">
					<dim>128</dim>
					<dim>1</dim>
					<dim>1</dim>
					<dim>1</dim>
					<dim>1</dim>
				</port>
			</input>
			<output>
				<port id="5" precision="FP32">
					<dim>128</dim>
					<dim>128</dim>
					<dim>3</dim>
					<dim>3</dim>
					<dim>3</dim>
				</port>
			</output>
		</layer>
		<layer id="212" name="StatefulPartitionedCall/3d_unet_decathlon/encode_d_conv_1/Conv3D" type="Convolution" version="opset1">
			<data auto_pad="same_upper" dilations="1,1,1" pads_begin="0,0,0" pads_end="0,0,0" strides="1,1,1"/>
			<rt_info>
				<attribute name="fused_names" value="StatefulPartitionedCall/3d_unet_decathlon/encode_d_conv_1/Conv3D" version="0"/>
			</rt_info>
			<input>
				<port id="0">
					<dim>1</dim>
					<dim>128</dim>
					<dim>18</dim>
					<dim>18</dim>
					<dim>18</dim>
				</port>
				<port id="1">
					<dim>128</dim>
					<dim>128</dim>
					<dim>3</dim>
					<dim>3</dim>
					<dim>3</dim>
				</port>
			</input>
			<output>
				<port id="2" precision="FP32">
					<dim>1</dim>
					<dim>128</dim>
					<dim>18</dim>
					<dim>18</dim>
					<dim>18</dim>
				</port>
			</output>
		</layer>
		<layer id="213" name="data_add_706170663485022" type="Const" version="opset1">
			<data element_type="f32" offset="11761612" shape="1,128,1,1,1" size="512"/>
			<rt_info>
				<attribute name="fused_names" value="data_add_70617066" version="0"/>
			</rt_info>
			<output>
				<port id="0" precision="FP32">
					<dim>1</dim>
					<dim>128</dim>
					<dim>1</dim>
					<dim>1</dim>
					<dim>1</dim>
				</port>
			</output>
		</layer>
		<layer id="214" name="StatefulPartitionedCall/3d_unet_decathlon/encode_d_conv_1/BiasAdd/Add/Fused_Add_" type="Add" version="opset1">
			<data auto_broadcast="numpy"/>
			<rt_info>
				<attribute name="fused_names" value="StatefulPartitionedCall/3d_unet_decathlon/encode_d_conv_1/BiasAdd/Add/Fused_Add_" version="0"/>
			</rt_info>
			<input>
				<port id="0">
					<dim>1</dim>
					<dim>128</dim>
					<dim>18</dim>
					<dim>18</dim>
					<dim>18</dim>
				</port>
				<port id="1">
					<dim>1</dim>
					<dim>128</dim>
					<dim>1</dim>
					<dim>1</dim>
					<dim>1</dim>
				</port>
			</input>
			<output>
				<port id="2" names="StatefulPartitionedCall/3d_unet_decathlon/encode_d_bn_1/FusedBatchNormV3:0" precision="FP32">
					<dim>1</dim>
					<dim>128</dim>
					<dim>18</dim>
					<dim>18</dim>
					<dim>18</dim>
				</port>
			</output>
		</layer>
		<layer id="215" name="StatefulPartitionedCall/3d_unet_decathlon/encode_d/Relu" type="ReLU" version="opset1">
			<rt_info>
				<attribute name="fused_names" value="StatefulPartitionedCall/3d_unet_decathlon/encode_d/Relu" version="0"/>
			</rt_info>
			<input>
				<port id="0">
					<dim>1</dim>
					<dim>128</dim>
					<dim>18</dim>
					<dim>18</dim>
					<dim>18</dim>
				</port>
			</input>
			<output>
				<port id="1" names="StatefulPartitionedCall/3d_unet_decathlon/encode_d/Relu:0" precision="FP32">
					<dim>1</dim>
					<dim>128</dim>
					<dim>18</dim>
					<dim>18</dim>
					<dim>18</dim>
				</port>
			</output>
		</layer>
		<layer id="216" name="StatefulPartitionedCall/3d_unet_decathlon/concat_d/concat/fq_input_1" type="FakeQuantize" version="opset1">
			<data auto_broadcast="numpy" levels="256"/>
			<input>
				<port id="0">
					<dim>1</dim>
					<dim>128</dim>
					<dim>18</dim>
					<dim>18</dim>
					<dim>18</dim>
				</port>
				<port id="1"/>
				<port id="2"/>
				<port id="3"/>
				<port id="4"/>
			</input>
			<output>
				<port id="5" precision="FP32">
					<dim>1</dim>
					<dim>128</dim>
					<dim>18</dim>
					<dim>18</dim>
					<dim>18</dim>
				</port>
			</output>
		</layer>
		<layer id="217" name="StatefulPartitionedCall/3d_unet_decathlon/pool_d/MaxPool3D" type="MaxPool" version="opset8">
			<data auto_pad="valid" axis="0" dilations="1,1,1" index_element_type="i64" kernel="2,2,2" pads_begin="0,0,0" pads_end="0,0,0" rounding_type="floor" strides="2,2,2"/>
			<rt_info>
				<attribute name="fused_names" value="StatefulPartitionedCall/3d_unet_decathlon/pool_d/MaxPool3D" version="0"/>
			</rt_info>
			<input>
				<port id="0">
					<dim>1</dim>
					<dim>128</dim>
					<dim>18</dim>
					<dim>18</dim>
					<dim>18</dim>
				</port>
			</input>
			<output>
				<port id="1" names="StatefulPartitionedCall/3d_unet_decathlon/pool_d/MaxPool3D:0" precision="FP32">
					<dim>1</dim>
					<dim>128</dim>
					<dim>9</dim>
					<dim>9</dim>
					<dim>9</dim>
				</port>
				<port id="2" precision="FP32">
					<dim>1</dim>
					<dim>128</dim>
					<dim>9</dim>
					<dim>9</dim>
					<dim>9</dim>
					<rt_info/>
				</port>
			</output>
		</layer>
		<layer id="218" name="StatefulPartitionedCall/3d_unet_decathlon/encode_e_conv_0/Conv3D" type="Convolution" version="opset1">
			<data auto_pad="same_upper" dilations="1,1,1" pads_begin="0,0,0" pads_end="0,0,0" strides="1,1,1"/>
			<rt_info>
				<attribute name="fused_names" value="StatefulPartitionedCall/3d_unet_decathlon/encode_e_conv_0/Conv3D" version="0"/>
			</rt_info>
			<input>
				<port id="0">
					<dim>1</dim>
					<dim>128</dim>
					<dim>9</dim>
					<dim>9</dim>
					<dim>9</dim>
				</port>
				<port id="1">
					<dim>256</dim>
					<dim>128</dim>
					<dim>3</dim>
					<dim>3</dim>
					<dim>3</dim>
				</port>
			</input>
			<output>
				<port id="2" precision="FP32">
					<dim>1</dim>
					<dim>256</dim>
					<dim>9</dim>
					<dim>9</dim>
					<dim>9</dim>
				</port>
			</output>
		</layer>
		<layer id="219" name="data_add_706970743544953" type="Const" version="opset1">
			<data element_type="f32" offset="11762124" shape="1,256,1,1,1" size="1024"/>
			<rt_info>
				<attribute name="fused_names" value="data_add_70697074" version="0"/>
			</rt_info>
			<output>
				<port id="0" precision="FP32">
					<dim>1</dim>
					<dim>256</dim>
					<dim>1</dim>
					<dim>1</dim>
					<dim>1</dim>
				</port>
			</output>
		</layer>
		<layer id="220" name="StatefulPartitionedCall/3d_unet_decathlon/encode_e_conv_0/BiasAdd/Add/Fused_Add_" type="Add" version="opset1">
			<data auto_broadcast="numpy"/>
			<rt_info>
				<attribute name="fused_names" value="StatefulPartitionedCall/3d_unet_decathlon/encode_e_conv_0/BiasAdd/Add/Fused_Add_" version="0"/>
			</rt_info>
			<input>
				<port id="0">
					<dim>1</dim>
					<dim>256</dim>
					<dim>9</dim>
					<dim>9</dim>
					<dim>9</dim>
				</port>
				<port id="1">
					<dim>1</dim>
					<dim>256</dim>
					<dim>1</dim>
					<dim>1</dim>
					<dim>1</dim>
				</port>
			</input>
			<output>
				<port id="2" names="StatefulPartitionedCall/3d_unet_decathlon/encode_e_bn_0/FusedBatchNormV3:0" precision="FP32">
					<dim>1</dim>
					<dim>256</dim>
					<dim>9</dim>
					<dim>9</dim>
					<dim>9</dim>
				</port>
			</output>
		</layer>
		<layer id="221" name="StatefulPartitionedCall/3d_unet_decathlon/encode_e_relu_0/Relu" type="ReLU" version="opset1">
			<rt_info>
				<attribute name="fused_names" value="StatefulPartitionedCall/3d_unet_decathlon/encode_e_relu_0/Relu" version="0"/>
			</rt_info>
			<input>
				<port id="0">
					<dim>1</dim>
					<dim>256</dim>
					<dim>9</dim>
					<dim>9</dim>
					<dim>9</dim>
				</port>
			</input>
			<output>
				<port id="1" names="StatefulPartitionedCall/3d_unet_decathlon/encode_e_relu_0/Relu:0" precision="FP32">
					<dim>1</dim>
					<dim>256</dim>
					<dim>9</dim>
					<dim>9</dim>
					<dim>9</dim>
				</port>
			</output>
		</layer>
		<layer id="222" name="StatefulPartitionedCall/3d_unet_decathlon/encode_e_conv_1/Conv3D/fq_input_0" type="FakeQuantize" version="opset1">
			<data auto_broadcast="numpy" levels="256"/>
			<input>
				<port id="0">
					<dim>1</dim>
					<dim>256</dim>
					<dim>9</dim>
					<dim>9</dim>
					<dim>9</dim>
				</port>
				<port id="1"/>
				<port id="2"/>
				<port id="3"/>
				<port id="4"/>
			</input>
			<output>
				<port id="5" precision="FP32">
					<dim>1</dim>
					<dim>256</dim>
					<dim>9</dim>
					<dim>9</dim>
					<dim>9</dim>
				</port>
			</output>
		</layer>
		<layer id="223" name="141514195166" type="Const" version="opset1">
			<data element_type="f32" offset="11763148" shape="256,1,1,1,1" size="1024"/>
			<output>
				<port id="0" precision="FP32">
					<dim>256</dim>
					<dim>1</dim>
					<dim>1</dim>
					<dim>1</dim>
					<dim>1</dim>
				</port>
			</output>
		</layer>
		<layer id="224" name="141614205034" type="Const" version="opset1">
			<data element_type="f32" offset="11764172" shape="256,1,1,1,1" size="1024"/>
			<output>
				<port id="0" precision="FP32">
					<dim>256</dim>
					<dim>1</dim>
					<dim>1</dim>
					<dim>1</dim>
					<dim>1</dim>
				</port>
			</output>
		</layer>
		<layer id="225" name="141714215556" type="Const" version="opset1">
			<data element_type="f32" offset="11763148" shape="256,1,1,1,1" size="1024"/>
			<output>
				<port id="0" precision="FP32">
					<dim>256</dim>
					<dim>1</dim>
					<dim>1</dim>
					<dim>1</dim>
					<dim>1</dim>
				</port>
			</output>
		</layer>
		<layer id="226" name="141814225271" type="Const" version="opset1">
			<data element_type="f32" offset="11764172" shape="256,1,1,1,1" size="1024"/>
			<output>
				<port id="0" precision="FP32">
					<dim>256</dim>
					<dim>1</dim>
					<dim>1</dim>
					<dim>1</dim>
					<dim>1</dim>
				</port>
			</output>
		</layer>
		<layer id="227" name="StatefulPartitionedCall/3d_unet_decathlon/encode_e_bn_1/FusedBatchNormV3/mean/Fused_Mul__copy3574605" type="Const" version="opset1">
			<data element_type="f32" offset="11765196" shape="256,256,3,3,3" size="7077888"/>
			<rt_info>
				<attribute name="fused_names" value="StatefulPartitionedCall/3d_unet_decathlon/encode_e_bn_1/FusedBatchNormV3/mean/Fused_Mul__copy" version="0"/>
			</rt_info>
			<output>
				<port id="0" names="StatefulPartitionedCall/3d_unet_decathlon/encode_e_conv_1/Conv3D/ReadVariableOp:0" precision="FP32">
					<dim>256</dim>
					<dim>256</dim>
					<dim>3</dim>
					<dim>3</dim>
					<dim>3</dim>
				</port>
			</output>
		</layer>
		<layer id="228" name="StatefulPartitionedCall/3d_unet_decathlon/encode_e_conv_1/Conv3D/fq_weights_1" type="FakeQuantize" version="opset1">
			<data auto_broadcast="numpy" levels="255"/>
			<input>
				<port id="0">
					<dim>256</dim>
					<dim>256</dim>
					<dim>3</dim>
					<dim>3</dim>
					<dim>3</dim>
				</port>
				<port id="1">
					<dim>256</dim>
					<dim>1</dim>
					<dim>1</dim>
					<dim>1</dim>
					<dim>1</dim>
				</port>
				<port id="2">
					<dim>256</dim>
					<dim>1</dim>
					<dim>1</dim>
					<dim>1</dim>
					<dim>1</dim>
				</port>
				<port id="3">
					<dim>256</dim>
					<dim>1</dim>
					<dim>1</dim>
					<dim>1</dim>
					<dim>1</dim>
				</port>
				<port id="4">
					<dim>256</dim>
					<dim>1</dim>
					<dim>1</dim>
					<dim>1</dim>
					<dim>1</dim>
				</port>
			</input>
			<output>
				<port id="5" precision="FP32">
					<dim>256</dim>
					<dim>256</dim>
					<dim>3</dim>
					<dim>3</dim>
					<dim>3</dim>
				</port>
			</output>
		</layer>
		<layer id="229" name="StatefulPartitionedCall/3d_unet_decathlon/encode_e_conv_1/Conv3D" type="Convolution" version="opset1">
			<data auto_pad="same_upper" dilations="1,1,1" pads_begin="0,0,0" pads_end="0,0,0" strides="1,1,1"/>
			<rt_info>
				<attribute name="fused_names" value="StatefulPartitionedCall/3d_unet_decathlon/encode_e_conv_1/Conv3D" version="0"/>
			</rt_info>
			<input>
				<port id="0">
					<dim>1</dim>
					<dim>256</dim>
					<dim>9</dim>
					<dim>9</dim>
					<dim>9</dim>
				</port>
				<port id="1">
					<dim>256</dim>
					<dim>256</dim>
					<dim>3</dim>
					<dim>3</dim>
					<dim>3</dim>
				</port>
			</input>
			<output>
				<port id="2" precision="FP32">
					<dim>1</dim>
					<dim>256</dim>
					<dim>9</dim>
					<dim>9</dim>
					<dim>9</dim>
				</port>
			</output>
		</layer>
		<layer id="230" name="data_add_707770823594791" type="Const" version="opset1">
			<data element_type="f32" offset="18843084" shape="1,256,1,1,1" size="1024"/>
			<rt_info>
				<attribute name="fused_names" value="data_add_70777082" version="0"/>
			</rt_info>
			<output>
				<port id="0" precision="FP32">
					<dim>1</dim>
					<dim>256</dim>
					<dim>1</dim>
					<dim>1</dim>
					<dim>1</dim>
				</port>
			</output>
		</layer>
		<layer id="231" name="StatefulPartitionedCall/3d_unet_decathlon/encode_e_conv_1/BiasAdd/Add/Fused_Add_" type="Add" version="opset1">
			<data auto_broadcast="numpy"/>
			<rt_info>
				<attribute name="fused_names" value="StatefulPartitionedCall/3d_unet_decathlon/encode_e_conv_1/BiasAdd/Add/Fused_Add_" version="0"/>
			</rt_info>
			<input>
				<port id="0">
					<dim>1</dim>
					<dim>256</dim>
					<dim>9</dim>
					<dim>9</dim>
					<dim>9</dim>
				</port>
				<port id="1">
					<dim>1</dim>
					<dim>256</dim>
					<dim>1</dim>
					<dim>1</dim>
					<dim>1</dim>
				</port>
			</input>
			<output>
				<port id="2" names="StatefulPartitionedCall/3d_unet_decathlon/encode_e_bn_1/FusedBatchNormV3:0" precision="FP32">
					<dim>1</dim>
					<dim>256</dim>
					<dim>9</dim>
					<dim>9</dim>
					<dim>9</dim>
				</port>
			</output>
		</layer>
		<layer id="232" name="StatefulPartitionedCall/3d_unet_decathlon/encode_e/Relu" type="ReLU" version="opset1">
			<rt_info>
				<attribute name="fused_names" value="StatefulPartitionedCall/3d_unet_decathlon/encode_e/Relu" version="0"/>
			</rt_info>
			<input>
				<port id="0">
					<dim>1</dim>
					<dim>256</dim>
					<dim>9</dim>
					<dim>9</dim>
					<dim>9</dim>
				</port>
			</input>
			<output>
				<port id="1" names="StatefulPartitionedCall/3d_unet_decathlon/encode_e/Relu:0" precision="FP32">
					<dim>1</dim>
					<dim>256</dim>
					<dim>9</dim>
					<dim>9</dim>
					<dim>9</dim>
				</port>
			</output>
		</layer>
		<layer id="233" name="StatefulPartitionedCall/3d_unet_decathlon/transconv_e/conv3d_transpose/fq_input_0" type="FakeQuantize" version="opset1">
			<data auto_broadcast="numpy" levels="256"/>
			<input>
				<port id="0">
					<dim>1</dim>
					<dim>256</dim>
					<dim>9</dim>
					<dim>9</dim>
					<dim>9</dim>
				</port>
				<port id="1"/>
				<port id="2"/>
				<port id="3"/>
				<port id="4"/>
			</input>
			<output>
				<port id="5" precision="FP32">
					<dim>1</dim>
					<dim>256</dim>
					<dim>9</dim>
					<dim>9</dim>
					<dim>9</dim>
				</port>
			</output>
		</layer>
		<layer id="234" name="161516194725" type="Const" version="opset1">
			<data element_type="f32" offset="18844108" shape="1,128,1,1,1" size="512"/>
			<output>
				<port id="0" precision="FP32">
					<dim>1</dim>
					<dim>128</dim>
					<dim>1</dim>
					<dim>1</dim>
					<dim>1</dim>
				</port>
			</output>
		</layer>
		<layer id="235" name="161616204968" type="Const" version="opset1">
			<data element_type="f32" offset="18844620" shape="1,128,1,1,1" size="512"/>
			<output>
				<port id="0" precision="FP32">
					<dim>1</dim>
					<dim>128</dim>
					<dim>1</dim>
					<dim>1</dim>
					<dim>1</dim>
				</port>
			</output>
		</layer>
		<layer id="236" name="161716214932" type="Const" version="opset1">
			<data element_type="f32" offset="18844108" shape="1,128,1,1,1" size="512"/>
			<output>
				<port id="0" precision="FP32">
					<dim>1</dim>
					<dim>128</dim>
					<dim>1</dim>
					<dim>1</dim>
					<dim>1</dim>
				</port>
			</output>
		</layer>
		<layer id="237" name="161816224806" type="Const" version="opset1">
			<data element_type="f32" offset="18844620" shape="1,128,1,1,1" size="512"/>
			<output>
				<port id="0" precision="FP32">
					<dim>1</dim>
					<dim>128</dim>
					<dim>1</dim>
					<dim>1</dim>
					<dim>1</dim>
				</port>
			</output>
		</layer>
		<layer id="238" name="StatefulPartitionedCall/3d_unet_decathlon/transconv_e/conv3d_transpose/ReadVariableOp3625451" type="Const" version="opset1">
			<data element_type="f32" offset="18845132" shape="256,128,2,2,2" size="1048576"/>
			<rt_info>
				<attribute name="fused_names" value="StatefulPartitionedCall/3d_unet_decathlon/transconv_e/conv3d_transpose/ReadVariableOp" version="0"/>
			</rt_info>
			<output>
				<port id="0" names="StatefulPartitionedCall/3d_unet_decathlon/transconv_e/conv3d_transpose/ReadVariableOp:0" precision="FP32">
					<dim>256</dim>
					<dim>128</dim>
					<dim>2</dim>
					<dim>2</dim>
					<dim>2</dim>
				</port>
			</output>
		</layer>
		<layer id="239" name="StatefulPartitionedCall/3d_unet_decathlon/transconv_e/conv3d_transpose/fq_weights_1" type="FakeQuantize" version="opset1">
			<data auto_broadcast="numpy" levels="255"/>
			<input>
				<port id="0">
					<dim>256</dim>
					<dim>128</dim>
					<dim>2</dim>
					<dim>2</dim>
					<dim>2</dim>
				</port>
				<port id="1">
					<dim>1</dim>
					<dim>128</dim>
					<dim>1</dim>
					<dim>1</dim>
					<dim>1</dim>
				</port>
				<port id="2">
					<dim>1</dim>
					<dim>128</dim>
					<dim>1</dim>
					<dim>1</dim>
					<dim>1</dim>
				</port>
				<port id="3">
					<dim>1</dim>
					<dim>128</dim>
					<dim>1</dim>
					<dim>1</dim>
					<dim>1</dim>
				</port>
				<port id="4">
					<dim>1</dim>
					<dim>128</dim>
					<dim>1</dim>
					<dim>1</dim>
					<dim>1</dim>
				</port>
			</input>
			<output>
				<port id="5" precision="FP32">
					<dim>256</dim>
					<dim>128</dim>
					<dim>2</dim>
					<dim>2</dim>
					<dim>2</dim>
				</port>
			</output>
		</layer>
		<layer id="240" name="StatefulPartitionedCall/3d_unet_decathlon/transconv_e/Shape" type="ShapeOf" version="opset3">
			<data output_type="i32"/>
			<rt_info>
				<attribute name="fused_names" value="StatefulPartitionedCall/3d_unet_decathlon/transconv_e/Shape" version="0"/>
			</rt_info>
			<input>
				<port id="0">
					<dim>1</dim>
					<dim>256</dim>
					<dim>9</dim>
					<dim>9</dim>
					<dim>9</dim>
				</port>
			</input>
			<output>
				<port id="1" precision="I32">
					<dim>5</dim>
				</port>
			</output>
		</layer>
		<layer id="241" name="StatefulPartitionedCall/3d_unet_decathlon/transconv_e/Shape/GatherNCHWtoNHWC_input_port_1/value9078133473644926" type="Const" version="opset1">
			<data element_type="i32" offset="19893708" shape="5" size="20"/>
			<rt_info>
				<attribute name="fused_names" value="StatefulPartitionedCall/3d_unet_decathlon/transconv_e/Shape/GatherNCHWtoNHWC_input_port_1/value907813347" version="0"/>
			</rt_info>
			<output>
				<port id="0" precision="I32">
					<dim>5</dim>
				</port>
			</output>
		</layer>
		<layer id="242" name="StatefulPartitionedCall/3d_unet_decathlon/transconv_e/Shape/GatherNCHWtoNHWC_input_port_2/value9080135303655592" type="Const" version="opset1">
			<data element_type="i64" offset="19893728" shape="" size="8"/>
			<rt_info>
				<attribute name="fused_names" value="StatefulPartitionedCall/3d_unet_decathlon/transconv_e/Shape/GatherNCHWtoNHWC_input_port_2/value908013530" version="0"/>
			</rt_info>
			<output>
				<port id="0" precision="I64"/>
			</output>
		</layer>
		<layer id="243" name="StatefulPartitionedCall/3d_unet_decathlon/transconv_e/Shape/GatherNCHWtoNHWC" type="Gather" version="opset8">
			<data batch_dims="0"/>
			<rt_info>
				<attribute name="fused_names" value="StatefulPartitionedCall/3d_unet_decathlon/transconv_e/Shape/GatherNCHWtoNHWC, StatefulPartitionedCall/3d_unet_decathlon/transconv_e/Shape/GatherNCHWtoNHWC_input_port_1/value907813347, StatefulPartitionedCall/3d_unet_decathlon/transconv_e/Shape/GatherNCHWtoNHWC_input_port_2/value908013530" version="0"/>
			</rt_info>
			<input>
				<port id="0">
					<dim>5</dim>
				</port>
				<port id="1">
					<dim>5</dim>
				</port>
				<port id="2"/>
			</input>
			<output>
				<port id="3" names="StatefulPartitionedCall/3d_unet_decathlon/transconv_e/Shape:0" precision="I32">
					<dim>5</dim>
				</port>
			</output>
		</layer>
		<layer id="244" name="StatefulPartitionedCall/3d_unet_decathlon/transconv_e/strided_slice/stack3675493" type="Const" version="opset1">
			<data element_type="i64" offset="19893728" shape="1" size="8"/>
			<rt_info>
				<attribute name="fused_names" value="StatefulPartitionedCall/3d_unet_decathlon/transconv_e/strided_slice/stack" version="0"/>
			</rt_info>
			<output>
				<port id="0" names="StatefulPartitionedCall/3d_unet_decathlon/transconv_e/strided_slice/stack:0" precision="I64">
					<dim>1</dim>
				</port>
			</output>
		</layer>
		<layer id="245" name="StatefulPartitionedCall/3d_unet_decathlon/transconv_e/strided_slice/stack_13685142" type="Const" version="opset1">
			<data element_type="i64" offset="19893736" shape="1" size="8"/>
			<rt_info>
				<attribute name="fused_names" value="StatefulPartitionedCall/3d_unet_decathlon/transconv_e/strided_slice/stack_1" version="0"/>
			</rt_info>
			<output>
				<port id="0" names="StatefulPartitionedCall/3d_unet_decathlon/transconv_e/strided_slice/stack_1:0" precision="I64">
					<dim>1</dim>
				</port>
			</output>
		</layer>
		<layer id="246" name="StatefulPartitionedCall/3d_unet_decathlon/transconv_e/strided_slice/stack_23695076" type="Const" version="opset1">
			<data element_type="i64" offset="19893736" shape="1" size="8"/>
			<rt_info>
				<attribute name="fused_names" value="StatefulPartitionedCall/3d_unet_decathlon/transconv_e/strided_slice/stack_2" version="0"/>
			</rt_info>
			<output>
				<port id="0" names="StatefulPartitionedCall/3d_unet_decathlon/transconv_e/strided_slice/stack_2:0" precision="I64">
					<dim>1</dim>
				</port>
			</output>
		</layer>
		<layer id="247" name="StatefulPartitionedCall/3d_unet_decathlon/transconv_e/strided_slice" type="StridedSlice" version="opset1">
			<data begin_mask="0" ellipsis_mask="0" end_mask="0" new_axis_mask="0" shrink_axis_mask="1"/>
			<rt_info>
				<attribute name="fused_names" value="StatefulPartitionedCall/3d_unet_decathlon/transconv_e/strided_slice, StatefulPartitionedCall/3d_unet_decathlon/transconv_e/strided_slice/stack, StatefulPartitionedCall/3d_unet_decathlon/transconv_e/strided_slice/stack_1, StatefulPartitionedCall/3d_unet_decathlon/transconv_e/strided_slice/stack_2" version="0"/>
			</rt_info>
			<input>
				<port id="0">
					<dim>5</dim>
				</port>
				<port id="1">
					<dim>1</dim>
				</port>
				<port id="2">
					<dim>1</dim>
				</port>
				<port id="3">
					<dim>1</dim>
				</port>
			</input>
			<output>
				<port id="4" names="StatefulPartitionedCall/3d_unet_decathlon/transconv_e/strided_slice:0" precision="I32"/>
			</output>
		</layer>
		<layer id="248" name="StatefulPartitionedCall/3d_unet_decathlon/transconv_e/stack/Unsqueeze_input_port_1/value3715544" type="Const" version="opset1">
			<data element_type="i64" offset="19893728" shape="1" size="8"/>
			<rt_info>
				<attribute name="fused_names" value="StatefulPartitionedCall/3d_unet_decathlon/transconv_e/stack/Unsqueeze_input_port_1/value" version="0"/>
			</rt_info>
			<output>
				<port id="0" precision="I64">
					<dim>1</dim>
				</port>
			</output>
		</layer>
		<layer id="249" name="StatefulPartitionedCall/3d_unet_decathlon/transconv_e/stack/Unsqueeze" type="Unsqueeze" version="opset1">
			<rt_info>
				<attribute name="fused_names" value="StatefulPartitionedCall/3d_unet_decathlon/transconv_e/stack/Unsqueeze, StatefulPartitionedCall/3d_unet_decathlon/transconv_e/stack/Unsqueeze_input_port_1/value" version="0"/>
			</rt_info>
			<input>
				<port id="0"/>
				<port id="1">
					<dim>1</dim>
				</port>
			</input>
			<output>
				<port id="2" precision="I32">
					<dim>1</dim>
				</port>
			</output>
		</layer>
		<layer id="250" name="StatefulPartitionedCall/3d_unet_decathlon/transconv_e/strided_slice_1/stack3735322" type="Const" version="opset1">
			<data element_type="i64" offset="19893736" shape="1" size="8"/>
			<rt_info>
				<attribute name="fused_names" value="StatefulPartitionedCall/3d_unet_decathlon/transconv_e/strided_slice_1/stack" version="0"/>
			</rt_info>
			<output>
				<port id="0" names="StatefulPartitionedCall/3d_unet_decathlon/transconv_e/strided_slice_1/stack:0" precision="I64">
					<dim>1</dim>
				</port>
			</output>
		</layer>
		<layer id="251" name="StatefulPartitionedCall/3d_unet_decathlon/transconv_e/strided_slice_1/stack_13745253" type="Const" version="opset1">
			<data element_type="i64" offset="19893744" shape="1" size="8"/>
			<rt_info>
				<attribute name="fused_names" value="StatefulPartitionedCall/3d_unet_decathlon/transconv_e/strided_slice_1/stack_1" version="0"/>
			</rt_info>
			<output>
				<port id="0" names="StatefulPartitionedCall/3d_unet_decathlon/transconv_e/strided_slice_1/stack_1:0" precision="I64">
					<dim>1</dim>
				</port>
			</output>
		</layer>
		<layer id="252" name="StatefulPartitionedCall/3d_unet_decathlon/transconv_e/strided_slice_1/stack_23755040" type="Const" version="opset1">
			<data element_type="i64" offset="19893736" shape="1" size="8"/>
			<rt_info>
				<attribute name="fused_names" value="StatefulPartitionedCall/3d_unet_decathlon/transconv_e/strided_slice_1/stack_2" version="0"/>
			</rt_info>
			<output>
				<port id="0" names="StatefulPartitionedCall/3d_unet_decathlon/transconv_e/strided_slice_1/stack_2:0" precision="I64">
					<dim>1</dim>
				</port>
			</output>
		</layer>
		<layer id="253" name="StatefulPartitionedCall/3d_unet_decathlon/transconv_e/strided_slice_1" type="StridedSlice" version="opset1">
			<data begin_mask="0" ellipsis_mask="0" end_mask="0" new_axis_mask="0" shrink_axis_mask="1"/>
			<rt_info>
				<attribute name="fused_names" value="StatefulPartitionedCall/3d_unet_decathlon/transconv_e/strided_slice_1, StatefulPartitionedCall/3d_unet_decathlon/transconv_e/strided_slice_1/stack, StatefulPartitionedCall/3d_unet_decathlon/transconv_e/strided_slice_1/stack_1, StatefulPartitionedCall/3d_unet_decathlon/transconv_e/strided_slice_1/stack_2" version="0"/>
			</rt_info>
			<input>
				<port id="0">
					<dim>5</dim>
				</port>
				<port id="1">
					<dim>1</dim>
				</port>
				<port id="2">
					<dim>1</dim>
				</port>
				<port id="3">
					<dim>1</dim>
				</port>
			</input>
			<output>
				<port id="4" names="StatefulPartitionedCall/3d_unet_decathlon/transconv_e/strided_slice_1:0" precision="I32"/>
			</output>
		</layer>
		<layer id="254" name="StatefulPartitionedCall/3d_unet_decathlon/transconv_e/mul/y3775052" type="Const" version="opset1">
			<data element_type="i32" offset="19893752" shape="" size="4"/>
			<rt_info>
				<attribute name="fused_names" value="StatefulPartitionedCall/3d_unet_decathlon/transconv_e/mul/y" version="0"/>
			</rt_info>
			<output>
				<port id="0" names="StatefulPartitionedCall/3d_unet_decathlon/transconv_e/mul/y:0" precision="I32"/>
			</output>
		</layer>
		<layer id="255" name="StatefulPartitionedCall/3d_unet_decathlon/transconv_e/mul" type="Multiply" version="opset1">
			<data auto_broadcast="numpy"/>
			<rt_info>
				<attribute name="fused_names" value="StatefulPartitionedCall/3d_unet_decathlon/transconv_e/mul, StatefulPartitionedCall/3d_unet_decathlon/transconv_e/mul/y" version="0"/>
			</rt_info>
			<input>
				<port id="0"/>
				<port id="1"/>
			</input>
			<output>
				<port id="2" names="StatefulPartitionedCall/3d_unet_decathlon/transconv_e/mul:0" precision="I32"/>
			</output>
		</layer>
		<layer id="256" name="StatefulPartitionedCall/3d_unet_decathlon/transconv_e/stack/Unsqueeze563_input_port_1/value3794797" type="Const" version="opset1">
			<data element_type="i64" offset="19893728" shape="1" size="8"/>
			<rt_info>
				<attribute name="fused_names" value="StatefulPartitionedCall/3d_unet_decathlon/transconv_e/stack/Unsqueeze563_input_port_1/value" version="0"/>
			</rt_info>
			<output>
				<port id="0" precision="I64">
					<dim>1</dim>
				</port>
			</output>
		</layer>
		<layer id="257" name="StatefulPartitionedCall/3d_unet_decathlon/transconv_e/stack/Unsqueeze563" type="Unsqueeze" version="opset1">
			<rt_info>
				<attribute name="fused_names" value="StatefulPartitionedCall/3d_unet_decathlon/transconv_e/stack/Unsqueeze563, StatefulPartitionedCall/3d_unet_decathlon/transconv_e/stack/Unsqueeze563_input_port_1/value" version="0"/>
			</rt_info>
			<input>
				<port id="0"/>
				<port id="1">
					<dim>1</dim>
				</port>
			</input>
			<output>
				<port id="2" precision="I32">
					<dim>1</dim>
				</port>
			</output>
		</layer>
		<layer id="258" name="StatefulPartitionedCall/3d_unet_decathlon/transconv_e/strided_slice_2/stack3814614" type="Const" version="opset1">
			<data element_type="i64" offset="19893744" shape="1" size="8"/>
			<rt_info>
				<attribute name="fused_names" value="StatefulPartitionedCall/3d_unet_decathlon/transconv_e/strided_slice_2/stack" version="0"/>
			</rt_info>
			<output>
				<port id="0" names="StatefulPartitionedCall/3d_unet_decathlon/transconv_e/strided_slice_2/stack:0" precision="I64">
					<dim>1</dim>
				</port>
			</output>
		</layer>
		<layer id="259" name="StatefulPartitionedCall/3d_unet_decathlon/transconv_e/strided_slice_2/stack_13824818" type="Const" version="opset1">
			<data element_type="i64" offset="19893756" shape="1" size="8"/>
			<rt_info>
				<attribute name="fused_names" value="StatefulPartitionedCall/3d_unet_decathlon/transconv_e/strided_slice_2/stack_1" version="0"/>
			</rt_info>
			<output>
				<port id="0" names="StatefulPartitionedCall/3d_unet_decathlon/transconv_e/strided_slice_2/stack_1:0" precision="I64">
					<dim>1</dim>
				</port>
			</output>
		</layer>
		<layer id="260" name="StatefulPartitionedCall/3d_unet_decathlon/transconv_e/strided_slice_2/stack_23834911" type="Const" version="opset1">
			<data element_type="i64" offset="19893736" shape="1" size="8"/>
			<rt_info>
				<attribute name="fused_names" value="StatefulPartitionedCall/3d_unet_decathlon/transconv_e/strided_slice_2/stack_2" version="0"/>
			</rt_info>
			<output>
				<port id="0" names="StatefulPartitionedCall/3d_unet_decathlon/transconv_e/strided_slice_2/stack_2:0" precision="I64">
					<dim>1</dim>
				</port>
			</output>
		</layer>
		<layer id="261" name="StatefulPartitionedCall/3d_unet_decathlon/transconv_e/strided_slice_2" type="StridedSlice" version="opset1">
			<data begin_mask="0" ellipsis_mask="0" end_mask="0" new_axis_mask="0" shrink_axis_mask="1"/>
			<rt_info>
				<attribute name="fused_names" value="StatefulPartitionedCall/3d_unet_decathlon/transconv_e/strided_slice_2, StatefulPartitionedCall/3d_unet_decathlon/transconv_e/strided_slice_2/stack, StatefulPartitionedCall/3d_unet_decathlon/transconv_e/strided_slice_2/stack_1, StatefulPartitionedCall/3d_unet_decathlon/transconv_e/strided_slice_2/stack_2" version="0"/>
			</rt_info>
			<input>
				<port id="0">
					<dim>5</dim>
				</port>
				<port id="1">
					<dim>1</dim>
				</port>
				<port id="2">
					<dim>1</dim>
				</port>
				<port id="3">
					<dim>1</dim>
				</port>
			</input>
			<output>
				<port id="4" names="StatefulPartitionedCall/3d_unet_decathlon/transconv_e/strided_slice_2:0" precision="I32"/>
			</output>
		</layer>
		<layer id="262" name="StatefulPartitionedCall/3d_unet_decathlon/transconv_e/mul_1/y3855367" type="Const" version="opset1">
			<data element_type="i32" offset="19893752" shape="" size="4"/>
			<rt_info>
				<attribute name="fused_names" value="StatefulPartitionedCall/3d_unet_decathlon/transconv_e/mul_1/y" version="0"/>
			</rt_info>
			<output>
				<port id="0" names="StatefulPartitionedCall/3d_unet_decathlon/transconv_e/mul_1/y:0" precision="I32"/>
			</output>
		</layer>
		<layer id="263" name="StatefulPartitionedCall/3d_unet_decathlon/transconv_e/mul_1" type="Multiply" version="opset1">
			<data auto_broadcast="numpy"/>
			<rt_info>
				<attribute name="fused_names" value="StatefulPartitionedCall/3d_unet_decathlon/transconv_e/mul_1, StatefulPartitionedCall/3d_unet_decathlon/transconv_e/mul_1/y" version="0"/>
			</rt_info>
			<input>
				<port id="0"/>
				<port id="1"/>
			</input>
			<output>
				<port id="2" names="StatefulPartitionedCall/3d_unet_decathlon/transconv_e/mul_1:0" precision="I32"/>
			</output>
		</layer>
		<layer id="264" name="StatefulPartitionedCall/3d_unet_decathlon/transconv_e/stack/Unsqueeze565_input_port_1/value3875499" type="Const" version="opset1">
			<data element_type="i64" offset="19893728" shape="1" size="8"/>
			<rt_info>
				<attribute name="fused_names" value="StatefulPartitionedCall/3d_unet_decathlon/transconv_e/stack/Unsqueeze565_input_port_1/value" version="0"/>
			</rt_info>
			<output>
				<port id="0" precision="I64">
					<dim>1</dim>
				</port>
			</output>
		</layer>
		<layer id="265" name="StatefulPartitionedCall/3d_unet_decathlon/transconv_e/stack/Unsqueeze565" type="Unsqueeze" version="opset1">
			<rt_info>
				<attribute name="fused_names" value="StatefulPartitionedCall/3d_unet_decathlon/transconv_e/stack/Unsqueeze565, StatefulPartitionedCall/3d_unet_decathlon/transconv_e/stack/Unsqueeze565_input_port_1/value" version="0"/>
			</rt_info>
			<input>
				<port id="0"/>
				<port id="1">
					<dim>1</dim>
				</port>
			</input>
			<output>
				<port id="2" precision="I32">
					<dim>1</dim>
				</port>
			</output>
		</layer>
		<layer id="266" name="StatefulPartitionedCall/3d_unet_decathlon/transconv_e/strided_slice_3/stack3894824" type="Const" version="opset1">
			<data element_type="i64" offset="19893756" shape="1" size="8"/>
			<rt_info>
				<attribute name="fused_names" value="StatefulPartitionedCall/3d_unet_decathlon/transconv_e/strided_slice_3/stack" version="0"/>
			</rt_info>
			<output>
				<port id="0" names="StatefulPartitionedCall/3d_unet_decathlon/transconv_e/strided_slice_3/stack:0" precision="I64">
					<dim>1</dim>
				</port>
			</output>
		</layer>
		<layer id="267" name="StatefulPartitionedCall/3d_unet_decathlon/transconv_e/strided_slice_3/stack_13905319" type="Const" version="opset1">
			<data element_type="i64" offset="19893764" shape="1" size="8"/>
			<rt_info>
				<attribute name="fused_names" value="StatefulPartitionedCall/3d_unet_decathlon/transconv_e/strided_slice_3/stack_1" version="0"/>
			</rt_info>
			<output>
				<port id="0" names="StatefulPartitionedCall/3d_unet_decathlon/transconv_e/strided_slice_3/stack_1:0" precision="I64">
					<dim>1</dim>
				</port>
			</output>
		</layer>
		<layer id="268" name="StatefulPartitionedCall/3d_unet_decathlon/transconv_e/strided_slice_3/stack_23914989" type="Const" version="opset1">
			<data element_type="i64" offset="19893736" shape="1" size="8"/>
			<rt_info>
				<attribute name="fused_names" value="StatefulPartitionedCall/3d_unet_decathlon/transconv_e/strided_slice_3/stack_2" version="0"/>
			</rt_info>
			<output>
				<port id="0" names="StatefulPartitionedCall/3d_unet_decathlon/transconv_e/strided_slice_3/stack_2:0" precision="I64">
					<dim>1</dim>
				</port>
			</output>
		</layer>
		<layer id="269" name="StatefulPartitionedCall/3d_unet_decathlon/transconv_e/strided_slice_3" type="StridedSlice" version="opset1">
			<data begin_mask="0" ellipsis_mask="0" end_mask="0" new_axis_mask="0" shrink_axis_mask="1"/>
			<rt_info>
				<attribute name="fused_names" value="StatefulPartitionedCall/3d_unet_decathlon/transconv_e/strided_slice_3, StatefulPartitionedCall/3d_unet_decathlon/transconv_e/strided_slice_3/stack, StatefulPartitionedCall/3d_unet_decathlon/transconv_e/strided_slice_3/stack_1, StatefulPartitionedCall/3d_unet_decathlon/transconv_e/strided_slice_3/stack_2" version="0"/>
			</rt_info>
			<input>
				<port id="0">
					<dim>5</dim>
				</port>
				<port id="1">
					<dim>1</dim>
				</port>
				<port id="2">
					<dim>1</dim>
				</port>
				<port id="3">
					<dim>1</dim>
				</port>
			</input>
			<output>
				<port id="4" names="StatefulPartitionedCall/3d_unet_decathlon/transconv_e/strided_slice_3:0" precision="I32"/>
			</output>
		</layer>
		<layer id="270" name="StatefulPartitionedCall/3d_unet_decathlon/transconv_e/mul_2/y3935445" type="Const" version="opset1">
			<data element_type="i32" offset="19893752" shape="" size="4"/>
			<rt_info>
				<attribute name="fused_names" value="StatefulPartitionedCall/3d_unet_decathlon/transconv_e/mul_2/y" version="0"/>
			</rt_info>
			<output>
				<port id="0" names="StatefulPartitionedCall/3d_unet_decathlon/transconv_e/mul_2/y:0" precision="I32"/>
			</output>
		</layer>
		<layer id="271" name="StatefulPartitionedCall/3d_unet_decathlon/transconv_e/mul_2" type="Multiply" version="opset1">
			<data auto_broadcast="numpy"/>
			<rt_info>
				<attribute name="fused_names" value="StatefulPartitionedCall/3d_unet_decathlon/transconv_e/mul_2, StatefulPartitionedCall/3d_unet_decathlon/transconv_e/mul_2/y" version="0"/>
			</rt_info>
			<input>
				<port id="0"/>
				<port id="1"/>
			</input>
			<output>
				<port id="2" names="StatefulPartitionedCall/3d_unet_decathlon/transconv_e/mul_2:0" precision="I32"/>
			</output>
		</layer>
		<layer id="272" name="StatefulPartitionedCall/3d_unet_decathlon/transconv_e/stack/Unsqueeze567_input_port_1/value3954842" type="Const" version="opset1">
			<data element_type="i64" offset="19893728" shape="1" size="8"/>
			<rt_info>
				<attribute name="fused_names" value="StatefulPartitionedCall/3d_unet_decathlon/transconv_e/stack/Unsqueeze567_input_port_1/value" version="0"/>
			</rt_info>
			<output>
				<port id="0" precision="I64">
					<dim>1</dim>
				</port>
			</output>
		</layer>
		<layer id="273" name="StatefulPartitionedCall/3d_unet_decathlon/transconv_e/stack/Unsqueeze567" type="Unsqueeze" version="opset1">
			<rt_info>
				<attribute name="fused_names" value="StatefulPartitionedCall/3d_unet_decathlon/transconv_e/stack/Unsqueeze567, StatefulPartitionedCall/3d_unet_decathlon/transconv_e/stack/Unsqueeze567_input_port_1/value" version="0"/>
			</rt_info>
			<input>
				<port id="0"/>
				<port id="1">
					<dim>1</dim>
				</port>
			</input>
			<output>
				<port id="2" precision="I32">
					<dim>1</dim>
				</port>
			</output>
		</layer>
		<layer id="274" name="StatefulPartitionedCall/3d_unet_decathlon/transconv_e/stack/Unsqueeze5693974659" type="Const" version="opset1">
			<data element_type="i32" offset="19893772" shape="1" size="4"/>
			<rt_info>
				<attribute name="fused_names" value="StatefulPartitionedCall/3d_unet_decathlon/transconv_e/stack/Unsqueeze569" version="0"/>
			</rt_info>
			<output>
				<port id="0" precision="I32">
					<dim>1</dim>
				</port>
			</output>
		</layer>
		<layer id="275" name="StatefulPartitionedCall/3d_unet_decathlon/transconv_e/stack" type="Concat" version="opset1">
			<data axis="0"/>
			<rt_info>
				<attribute name="fused_names" value="StatefulPartitionedCall/3d_unet_decathlon/transconv_e/stack, StatefulPartitionedCall/3d_unet_decathlon/transconv_e/stack/Unsqueeze569" version="0"/>
			</rt_info>
			<input>
				<port id="0">
					<dim>1</dim>
				</port>
				<port id="1">
					<dim>1</dim>
				</port>
				<port id="2">
					<dim>1</dim>
				</port>
				<port id="3">
					<dim>1</dim>
				</port>
				<port id="4">
					<dim>1</dim>
				</port>
			</input>
			<output>
				<port id="5" precision="I32">
					<dim>5</dim>
				</port>
			</output>
		</layer>
		<layer id="276" name="StatefulPartitionedCall/3d_unet_decathlon/transconv_e/conv3d_transpose/GatherNHWCtoNCHW_input_port_1/value9114132963994887" type="Const" version="opset1">
			<data element_type="i32" offset="19893776" shape="5" size="20"/>
			<rt_info>
				<attribute name="fused_names" value="StatefulPartitionedCall/3d_unet_decathlon/transconv_e/conv3d_transpose/GatherNHWCtoNCHW_input_port_1/value911413296" version="0"/>
			</rt_info>
			<output>
				<port id="0" precision="I32">
					<dim>5</dim>
				</port>
			</output>
		</layer>
		<layer id="277" name="StatefulPartitionedCall/3d_unet_decathlon/transconv_e/conv3d_transpose/GatherNHWCtoNCHW_input_port_2/value9116134344005148" type="Const" version="opset1">
			<data element_type="i64" offset="19893728" shape="" size="8"/>
			<rt_info>
				<attribute name="fused_names" value="StatefulPartitionedCall/3d_unet_decathlon/transconv_e/conv3d_transpose/GatherNHWCtoNCHW_input_port_2/value911613434" version="0"/>
			</rt_info>
			<output>
				<port id="0" precision="I64"/>
			</output>
		</layer>
		<layer id="278" name="StatefulPartitionedCall/3d_unet_decathlon/transconv_e/conv3d_transpose/GatherNHWCtoNCHW" type="Gather" version="opset8">
			<data batch_dims="0"/>
			<rt_info>
				<attribute name="fused_names" value="StatefulPartitionedCall/3d_unet_decathlon/transconv_e/conv3d_transpose/GatherNHWCtoNCHW, StatefulPartitionedCall/3d_unet_decathlon/transconv_e/conv3d_transpose/GatherNHWCtoNCHW_input_port_1/value911413296, StatefulPartitionedCall/3d_unet_decathlon/transconv_e/conv3d_transpose/GatherNHWCtoNCHW_input_port_2/value911613434" version="0"/>
			</rt_info>
			<input>
				<port id="0">
					<dim>5</dim>
				</port>
				<port id="1">
					<dim>5</dim>
				</port>
				<port id="2"/>
			</input>
			<output>
				<port id="3" precision="I32">
					<dim>5</dim>
				</port>
			</output>
		</layer>
		<layer id="279" name="StatefulPartitionedCall/3d_unet_decathlon/transconv_e/conv3d_transpose/ss_0_port_input_port_1/value12256136474025595" type="Const" version="opset1">
			<data element_type="i64" offset="19893744" shape="1" size="8"/>
			<rt_info>
				<attribute name="fused_names" value="StatefulPartitionedCall/3d_unet_decathlon/transconv_e/conv3d_transpose/ss_0_port_input_port_1/value1225613647" version="0"/>
			</rt_info>
			<output>
				<port id="0" precision="I64">
					<dim>1</dim>
				</port>
			</output>
		</layer>
		<layer id="280" name="StatefulPartitionedCall/3d_unet_decathlon/transconv_e/conv3d_transpose/ss_0_port_input_port_2/value12258135784035496" type="Const" version="opset1">
			<data element_type="i64" offset="19893796" shape="1" size="8"/>
			<rt_info>
				<attribute name="fused_names" value="StatefulPartitionedCall/3d_unet_decathlon/transconv_e/conv3d_transpose/ss_0_port_input_port_2/value1225813578" version="0"/>
			</rt_info>
			<output>
				<port id="0" precision="I64">
					<dim>1</dim>
				</port>
			</output>
		</layer>
		<layer id="281" name="StatefulPartitionedCall/3d_unet_decathlon/transconv_e/conv3d_transpose/ss_0_port_input_port_3/value12260134524045055" type="Const" version="opset1">
			<data element_type="i64" offset="19893736" shape="1" size="8"/>
			<rt_info>
				<attribute name="fused_names" value="StatefulPartitionedCall/3d_unet_decathlon/transconv_e/conv3d_transpose/ss_0_port_input_port_3/value1226013452" version="0"/>
			</rt_info>
			<output>
				<port id="0" precision="I64">
					<dim>1</dim>
				</port>
			</output>
		</layer>
		<layer id="282" name="StatefulPartitionedCall/3d_unet_decathlon/transconv_e/conv3d_transpose/ss_0_port" type="StridedSlice" version="opset1">
			<data begin_mask="0" ellipsis_mask="0" end_mask="1" new_axis_mask="0" shrink_axis_mask="0"/>
			<rt_info>
				<attribute name="fused_names" value="StatefulPartitionedCall/3d_unet_decathlon/transconv_e/conv3d_transpose/ss_0_port, StatefulPartitionedCall/3d_unet_decathlon/transconv_e/conv3d_transpose/ss_0_port_input_port_1/value1225613647, StatefulPartitionedCall/3d_unet_decathlon/transconv_e/conv3d_transpose/ss_0_port_input_port_2/value1225813578, StatefulPartitionedCall/3d_unet_decathlon/transconv_e/conv3d_transpose/ss_0_port_input_port_3/value1226013452" version="0"/>
			</rt_info>
			<input>
				<port id="0">
					<dim>5</dim>
				</port>
				<port id="1">
					<dim>1</dim>
				</port>
				<port id="2">
					<dim>1</dim>
				</port>
				<port id="3">
					<dim>1</dim>
				</port>
			</input>
			<output>
				<port id="4" precision="I32">
					<dim>3</dim>
				</port>
			</output>
		</layer>
		<layer id="283" name="StatefulPartitionedCall/3d_unet_decathlon/transconv_e/conv3d_transpose/Cast_2" type="Convert" version="opset1">
			<data destination_type="i64"/>
			<rt_info>
				<attribute name="fused_names" value="StatefulPartitionedCall/3d_unet_decathlon/transconv_e/conv3d_transpose/Cast_2" version="0"/>
			</rt_info>
			<input>
				<port id="0">
					<dim>3</dim>
				</port>
			</input>
			<output>
				<port id="1" precision="I64">
					<dim>3</dim>
				</port>
			</output>
		</layer>
		<layer id="284" name="StatefulPartitionedCall/3d_unet_decathlon/transconv_e/conv3d_transpose" type="ConvolutionBackpropData" version="opset1">
			<data auto_pad="same_lower" dilations="1,1,1" output_padding="0,0,0" pads_begin="0,0,0" pads_end="0,0,0" strides="2,2,2"/>
			<rt_info>
				<attribute name="fused_names" value="StatefulPartitionedCall/3d_unet_decathlon/transconv_e/conv3d_transpose" version="0"/>
			</rt_info>
			<input>
				<port id="0">
					<dim>1</dim>
					<dim>256</dim>
					<dim>9</dim>
					<dim>9</dim>
					<dim>9</dim>
				</port>
				<port id="1">
					<dim>256</dim>
					<dim>128</dim>
					<dim>2</dim>
					<dim>2</dim>
					<dim>2</dim>
				</port>
				<port id="2">
					<dim>3</dim>
				</port>
			</input>
			<output>
				<port id="3" names="StatefulPartitionedCall/3d_unet_decathlon/transconv_e/conv3d_transpose:0" precision="FP32">
					<dim>1</dim>
					<dim>128</dim>
					<dim>18</dim>
					<dim>18</dim>
					<dim>18</dim>
				</port>
			</output>
		</layer>
		<layer id="285" name="StatefulPartitionedCall/3d_unet_decathlon/transconv_e/BiasAdd/ReadVariableOp4085355" type="Const" version="opset1">
			<data element_type="f32" offset="19893804" shape="1,128,1,1,1" size="512"/>
			<rt_info>
				<attribute name="fused_names" value="StatefulPartitionedCall/3d_unet_decathlon/transconv_e/BiasAdd/ReadVariableOp" version="0"/>
			</rt_info>
			<output>
				<port id="0" names="StatefulPartitionedCall/3d_unet_decathlon/transconv_e/BiasAdd/ReadVariableOp:0" precision="FP32">
					<dim>1</dim>
					<dim>128</dim>
					<dim>1</dim>
					<dim>1</dim>
					<dim>1</dim>
				</port>
			</output>
		</layer>
		<layer id="286" name="StatefulPartitionedCall/3d_unet_decathlon/transconv_e/BiasAdd/Add" type="Add" version="opset1">
			<data auto_broadcast="numpy"/>
			<rt_info>
				<attribute name="fused_names" value="StatefulPartitionedCall/3d_unet_decathlon/transconv_e/BiasAdd/Add" version="0"/>
			</rt_info>
			<input>
				<port id="0">
					<dim>1</dim>
					<dim>128</dim>
					<dim>18</dim>
					<dim>18</dim>
					<dim>18</dim>
				</port>
				<port id="1">
					<dim>1</dim>
					<dim>128</dim>
					<dim>1</dim>
					<dim>1</dim>
					<dim>1</dim>
				</port>
			</input>
			<output>
				<port id="2" names="StatefulPartitionedCall/3d_unet_decathlon/transconv_e/BiasAdd:0" precision="FP32">
					<dim>1</dim>
					<dim>128</dim>
					<dim>18</dim>
					<dim>18</dim>
					<dim>18</dim>
				</port>
			</output>
		</layer>
		<layer id="287" name="StatefulPartitionedCall/3d_unet_decathlon/concat_d/concat/fq_input_0" type="FakeQuantize" version="opset1">
			<data auto_broadcast="numpy" levels="256"/>
			<input>
				<port id="0">
					<dim>1</dim>
					<dim>128</dim>
					<dim>18</dim>
					<dim>18</dim>
					<dim>18</dim>
				</port>
				<port id="1"/>
				<port id="2"/>
				<port id="3"/>
				<port id="4"/>
			</input>
			<output>
				<port id="5" precision="FP32">
					<dim>1</dim>
					<dim>128</dim>
					<dim>18</dim>
					<dim>18</dim>
					<dim>18</dim>
				</port>
			</output>
		</layer>
		<layer id="288" name="StatefulPartitionedCall/3d_unet_decathlon/concat_d/concat" type="Concat" version="opset1">
			<data axis="1"/>
			<rt_info>
				<attribute name="fused_names" value="StatefulPartitionedCall/3d_unet_decathlon/concat_d/concat" version="0"/>
			</rt_info>
			<input>
				<port id="0">
					<dim>1</dim>
					<dim>128</dim>
					<dim>18</dim>
					<dim>18</dim>
					<dim>18</dim>
				</port>
				<port id="1">
					<dim>1</dim>
					<dim>128</dim>
					<dim>18</dim>
					<dim>18</dim>
					<dim>18</dim>
				</port>
			</input>
			<output>
				<port id="2" names="StatefulPartitionedCall/3d_unet_decathlon/concat_d/concat:0" precision="FP32">
					<dim>1</dim>
					<dim>256</dim>
					<dim>18</dim>
					<dim>18</dim>
					<dim>18</dim>
				</port>
			</output>
		</layer>
		<layer id="289" name="StatefulPartitionedCall/3d_unet_decathlon/decode_c_conv_0/Conv3D" type="Convolution" version="opset1">
			<data auto_pad="same_upper" dilations="1,1,1" pads_begin="0,0,0" pads_end="0,0,0" strides="1,1,1"/>
			<rt_info>
				<attribute name="fused_names" value="StatefulPartitionedCall/3d_unet_decathlon/decode_c_conv_0/Conv3D" version="0"/>
			</rt_info>
			<input>
				<port id="0">
					<dim>1</dim>
					<dim>256</dim>
					<dim>18</dim>
					<dim>18</dim>
					<dim>18</dim>
				</port>
				<port id="1">
					<dim>128</dim>
					<dim>256</dim>
					<dim>3</dim>
					<dim>3</dim>
					<dim>3</dim>
				</port>
			</input>
			<output>
				<port id="2" precision="FP32">
					<dim>1</dim>
					<dim>128</dim>
					<dim>18</dim>
					<dim>18</dim>
					<dim>18</dim>
				</port>
			</output>
		</layer>
		<layer id="290" name="data_add_708570904134752" type="Const" version="opset1">
			<data element_type="f32" offset="19894316" shape="1,128,1,1,1" size="512"/>
			<rt_info>
				<attribute name="fused_names" value="data_add_70857090" version="0"/>
			</rt_info>
			<output>
				<port id="0" precision="FP32">
					<dim>1</dim>
					<dim>128</dim>
					<dim>1</dim>
					<dim>1</dim>
					<dim>1</dim>
				</port>
			</output>
		</layer>
		<layer id="291" name="StatefulPartitionedCall/3d_unet_decathlon/decode_c_conv_0/BiasAdd/Add/Fused_Add_" type="Add" version="opset1">
			<data auto_broadcast="numpy"/>
			<rt_info>
				<attribute name="fused_names" value="StatefulPartitionedCall/3d_unet_decathlon/decode_c_conv_0/BiasAdd/Add/Fused_Add_" version="0"/>
			</rt_info>
			<input>
				<port id="0">
					<dim>1</dim>
					<dim>128</dim>
					<dim>18</dim>
					<dim>18</dim>
					<dim>18</dim>
				</port>
				<port id="1">
					<dim>1</dim>
					<dim>128</dim>
					<dim>1</dim>
					<dim>1</dim>
					<dim>1</dim>
				</port>
			</input>
			<output>
				<port id="2" names="StatefulPartitionedCall/3d_unet_decathlon/decode_c_bn_0/FusedBatchNormV3:0" precision="FP32">
					<dim>1</dim>
					<dim>128</dim>
					<dim>18</dim>
					<dim>18</dim>
					<dim>18</dim>
				</port>
			</output>
		</layer>
		<layer id="292" name="StatefulPartitionedCall/3d_unet_decathlon/decode_c_relu_0/Relu" type="ReLU" version="opset1">
			<rt_info>
				<attribute name="fused_names" value="StatefulPartitionedCall/3d_unet_decathlon/decode_c_relu_0/Relu" version="0"/>
			</rt_info>
			<input>
				<port id="0">
					<dim>1</dim>
					<dim>128</dim>
					<dim>18</dim>
					<dim>18</dim>
					<dim>18</dim>
				</port>
			</input>
			<output>
				<port id="1" names="StatefulPartitionedCall/3d_unet_decathlon/decode_c_relu_0/Relu:0" precision="FP32">
					<dim>1</dim>
					<dim>128</dim>
					<dim>18</dim>
					<dim>18</dim>
					<dim>18</dim>
				</port>
			</output>
		</layer>
		<layer id="293" name="StatefulPartitionedCall/3d_unet_decathlon/decode_c_conv_1/Conv3D/fq_input_0" type="FakeQuantize" version="opset1">
			<data auto_broadcast="numpy" levels="256"/>
			<input>
				<port id="0">
					<dim>1</dim>
					<dim>128</dim>
					<dim>18</dim>
					<dim>18</dim>
					<dim>18</dim>
				</port>
				<port id="1"/>
				<port id="2"/>
				<port id="3"/>
				<port id="4"/>
			</input>
			<output>
				<port id="5" precision="FP32">
					<dim>1</dim>
					<dim>128</dim>
					<dim>18</dim>
					<dim>18</dim>
					<dim>18</dim>
				</port>
			</output>
		</layer>
		<layer id="294" name="131513195046" type="Const" version="opset1">
			<data element_type="f32" offset="19894828" shape="128,1,1,1,1" size="512"/>
			<output>
				<port id="0" precision="FP32">
					<dim>128</dim>
					<dim>1</dim>
					<dim>1</dim>
					<dim>1</dim>
					<dim>1</dim>
				</port>
			</output>
		</layer>
		<layer id="295" name="131613204626" type="Const" version="opset1">
			<data element_type="f32" offset="19895340" shape="128,1,1,1,1" size="512"/>
			<output>
				<port id="0" precision="FP32">
					<dim>128</dim>
					<dim>1</dim>
					<dim>1</dim>
					<dim>1</dim>
					<dim>1</dim>
				</port>
			</output>
		</layer>
		<layer id="296" name="131713214878" type="Const" version="opset1">
			<data element_type="f32" offset="19894828" shape="128,1,1,1,1" size="512"/>
			<output>
				<port id="0" precision="FP32">
					<dim>128</dim>
					<dim>1</dim>
					<dim>1</dim>
					<dim>1</dim>
					<dim>1</dim>
				</port>
			</output>
		</layer>
		<layer id="297" name="131813225343" type="Const" version="opset1">
			<data element_type="f32" offset="19895340" shape="128,1,1,1,1" size="512"/>
			<output>
				<port id="0" precision="FP32">
					<dim>128</dim>
					<dim>1</dim>
					<dim>1</dim>
					<dim>1</dim>
					<dim>1</dim>
				</port>
			</output>
		</layer>
		<layer id="298" name="StatefulPartitionedCall/3d_unet_decathlon/decode_c_bn_1/FusedBatchNormV3/mean/Fused_Mul__copy4165226" type="Const" version="opset1">
			<data element_type="f32" offset="19895852" shape="128,128,3,3,3" size="1769472"/>
			<rt_info>
				<attribute name="fused_names" value="StatefulPartitionedCall/3d_unet_decathlon/decode_c_bn_1/FusedBatchNormV3/mean/Fused_Mul__copy" version="0"/>
			</rt_info>
			<output>
				<port id="0" names="StatefulPartitionedCall/3d_unet_decathlon/decode_c_conv_1/Conv3D/ReadVariableOp:0" precision="FP32">
					<dim>128</dim>
					<dim>128</dim>
					<dim>3</dim>
					<dim>3</dim>
					<dim>3</dim>
				</port>
			</output>
		</layer>
		<layer id="299" name="StatefulPartitionedCall/3d_unet_decathlon/decode_c_conv_1/Conv3D/fq_weights_1" type="FakeQuantize" version="opset1">
			<data auto_broadcast="numpy" levels="255"/>
			<input>
				<port id="0">
					<dim>128</dim>
					<dim>128</dim>
					<dim>3</dim>
					<dim>3</dim>
					<dim>3</dim>
				</port>
				<port id="1">
					<dim>128</dim>
					<dim>1</dim>
					<dim>1</dim>
					<dim>1</dim>
					<dim>1</dim>
				</port>
				<port id="2">
					<dim>128</dim>
					<dim>1</dim>
					<dim>1</dim>
					<dim>1</dim>
					<dim>1</dim>
				</port>
				<port id="3">
					<dim>128</dim>
					<dim>1</dim>
					<dim>1</dim>
					<dim>1</dim>
					<dim>1</dim>
				</port>
				<port id="4">
					<dim>128</dim>
					<dim>1</dim>
					<dim>1</dim>
					<dim>1</dim>
					<dim>1</dim>
				</port>
			</input>
			<output>
				<port id="5" precision="FP32">
					<dim>128</dim>
					<dim>128</dim>
					<dim>3</dim>
					<dim>3</dim>
					<dim>3</dim>
				</port>
			</output>
		</layer>
		<layer id="300" name="StatefulPartitionedCall/3d_unet_decathlon/decode_c_conv_1/Conv3D" type="Convolution" version="opset1">
			<data auto_pad="same_upper" dilations="1,1,1" pads_begin="0,0,0" pads_end="0,0,0" strides="1,1,1"/>
			<rt_info>
				<attribute name="fused_names" value="StatefulPartitionedCall/3d_unet_decathlon/decode_c_conv_1/Conv3D" version="0"/>
			</rt_info>
			<input>
				<port id="0">
					<dim>1</dim>
					<dim>128</dim>
					<dim>18</dim>
					<dim>18</dim>
					<dim>18</dim>
				</port>
				<port id="1">
					<dim>128</dim>
					<dim>128</dim>
					<dim>3</dim>
					<dim>3</dim>
					<dim>3</dim>
				</port>
			</input>
			<output>
				<port id="2" precision="FP32">
					<dim>1</dim>
					<dim>128</dim>
					<dim>18</dim>
					<dim>18</dim>
					<dim>18</dim>
				</port>
			</output>
		</layer>
		<layer id="301" name="data_add_709370984184611" type="Const" version="opset1">
			<data element_type="f32" offset="21665324" shape="1,128,1,1,1" size="512"/>
			<rt_info>
				<attribute name="fused_names" value="data_add_70937098" version="0"/>
			</rt_info>
			<output>
				<port id="0" precision="FP32">
					<dim>1</dim>
					<dim>128</dim>
					<dim>1</dim>
					<dim>1</dim>
					<dim>1</dim>
				</port>
			</output>
		</layer>
		<layer id="302" name="StatefulPartitionedCall/3d_unet_decathlon/decode_c_conv_1/BiasAdd/Add/Fused_Add_" type="Add" version="opset1">
			<data auto_broadcast="numpy"/>
			<rt_info>
				<attribute name="fused_names" value="StatefulPartitionedCall/3d_unet_decathlon/decode_c_conv_1/BiasAdd/Add/Fused_Add_" version="0"/>
			</rt_info>
			<input>
				<port id="0">
					<dim>1</dim>
					<dim>128</dim>
					<dim>18</dim>
					<dim>18</dim>
					<dim>18</dim>
				</port>
				<port id="1">
					<dim>1</dim>
					<dim>128</dim>
					<dim>1</dim>
					<dim>1</dim>
					<dim>1</dim>
				</port>
			</input>
			<output>
				<port id="2" names="StatefulPartitionedCall/3d_unet_decathlon/decode_c_bn_1/FusedBatchNormV3:0" precision="FP32">
					<dim>1</dim>
					<dim>128</dim>
					<dim>18</dim>
					<dim>18</dim>
					<dim>18</dim>
				</port>
			</output>
		</layer>
		<layer id="303" name="StatefulPartitionedCall/3d_unet_decathlon/decode_c/Relu" type="ReLU" version="opset1">
			<rt_info>
				<attribute name="fused_names" value="StatefulPartitionedCall/3d_unet_decathlon/decode_c/Relu" version="0"/>
			</rt_info>
			<input>
				<port id="0">
					<dim>1</dim>
					<dim>128</dim>
					<dim>18</dim>
					<dim>18</dim>
					<dim>18</dim>
				</port>
			</input>
			<output>
				<port id="1" names="StatefulPartitionedCall/3d_unet_decathlon/decode_c/Relu:0" precision="FP32">
					<dim>1</dim>
					<dim>128</dim>
					<dim>18</dim>
					<dim>18</dim>
					<dim>18</dim>
				</port>
			</output>
		</layer>
		<layer id="304" name="StatefulPartitionedCall/3d_unet_decathlon/transconv_c/conv3d_transpose/fq_input_0" type="FakeQuantize" version="opset1">
			<data auto_broadcast="numpy" levels="256"/>
			<input>
				<port id="0">
					<dim>1</dim>
					<dim>128</dim>
					<dim>18</dim>
					<dim>18</dim>
					<dim>18</dim>
				</port>
				<port id="1"/>
				<port id="2"/>
				<port id="3"/>
				<port id="4"/>
			</input>
			<output>
				<port id="5" precision="FP32">
					<dim>1</dim>
					<dim>128</dim>
					<dim>18</dim>
					<dim>18</dim>
					<dim>18</dim>
				</port>
			</output>
		</layer>
		<layer id="305" name="145514595361" type="Const" version="opset1">
			<data element_type="f32" offset="21665836" shape="1,64,1,1,1" size="256"/>
			<output>
				<port id="0" precision="FP32">
					<dim>1</dim>
					<dim>64</dim>
					<dim>1</dim>
					<dim>1</dim>
					<dim>1</dim>
				</port>
			</output>
		</layer>
		<layer id="306" name="145614605217" type="Const" version="opset1">
			<data element_type="f32" offset="21666092" shape="1,64,1,1,1" size="256"/>
			<output>
				<port id="0" precision="FP32">
					<dim>1</dim>
					<dim>64</dim>
					<dim>1</dim>
					<dim>1</dim>
					<dim>1</dim>
				</port>
			</output>
		</layer>
		<layer id="307" name="145714614809" type="Const" version="opset1">
			<data element_type="f32" offset="21665836" shape="1,64,1,1,1" size="256"/>
			<output>
				<port id="0" precision="FP32">
					<dim>1</dim>
					<dim>64</dim>
					<dim>1</dim>
					<dim>1</dim>
					<dim>1</dim>
				</port>
			</output>
		</layer>
		<layer id="308" name="145814624773" type="Const" version="opset1">
			<data element_type="f32" offset="21666092" shape="1,64,1,1,1" size="256"/>
			<output>
				<port id="0" precision="FP32">
					<dim>1</dim>
					<dim>64</dim>
					<dim>1</dim>
					<dim>1</dim>
					<dim>1</dim>
				</port>
			</output>
		</layer>
		<layer id="309" name="StatefulPartitionedCall/3d_unet_decathlon/transconv_c/conv3d_transpose/ReadVariableOp4215484" type="Const" version="opset1">
			<data element_type="f32" offset="21666348" shape="128,64,2,2,2" size="262144"/>
			<rt_info>
				<attribute name="fused_names" value="StatefulPartitionedCall/3d_unet_decathlon/transconv_c/conv3d_transpose/ReadVariableOp" version="0"/>
			</rt_info>
			<output>
				<port id="0" names="StatefulPartitionedCall/3d_unet_decathlon/transconv_c/conv3d_transpose/ReadVariableOp:0" precision="FP32">
					<dim>128</dim>
					<dim>64</dim>
					<dim>2</dim>
					<dim>2</dim>
					<dim>2</dim>
				</port>
			</output>
		</layer>
		<layer id="310" name="StatefulPartitionedCall/3d_unet_decathlon/transconv_c/conv3d_transpose/fq_weights_1" type="FakeQuantize" version="opset1">
			<data auto_broadcast="numpy" levels="255"/>
			<input>
				<port id="0">
					<dim>128</dim>
					<dim>64</dim>
					<dim>2</dim>
					<dim>2</dim>
					<dim>2</dim>
				</port>
				<port id="1">
					<dim>1</dim>
					<dim>64</dim>
					<dim>1</dim>
					<dim>1</dim>
					<dim>1</dim>
				</port>
				<port id="2">
					<dim>1</dim>
					<dim>64</dim>
					<dim>1</dim>
					<dim>1</dim>
					<dim>1</dim>
				</port>
				<port id="3">
					<dim>1</dim>
					<dim>64</dim>
					<dim>1</dim>
					<dim>1</dim>
					<dim>1</dim>
				</port>
				<port id="4">
					<dim>1</dim>
					<dim>64</dim>
					<dim>1</dim>
					<dim>1</dim>
					<dim>1</dim>
				</port>
			</input>
			<output>
				<port id="5" precision="FP32">
					<dim>128</dim>
					<dim>64</dim>
					<dim>2</dim>
					<dim>2</dim>
					<dim>2</dim>
				</port>
			</output>
		</layer>
		<layer id="311" name="StatefulPartitionedCall/3d_unet_decathlon/transconv_c/Shape" type="ShapeOf" version="opset3">
			<data output_type="i32"/>
			<rt_info>
				<attribute name="fused_names" value="StatefulPartitionedCall/3d_unet_decathlon/transconv_c/Shape" version="0"/>
			</rt_info>
			<input>
				<port id="0">
					<dim>1</dim>
					<dim>128</dim>
					<dim>18</dim>
					<dim>18</dim>
					<dim>18</dim>
				</port>
			</input>
			<output>
				<port id="1" precision="I32">
					<dim>5</dim>
				</port>
			</output>
		</layer>
		<layer id="312" name="StatefulPartitionedCall/3d_unet_decathlon/transconv_c/Shape/GatherNCHWtoNHWC_input_port_1/value9084133144235541" type="Const" version="opset1">
			<data element_type="i32" offset="19893708" shape="5" size="20"/>
			<rt_info>
				<attribute name="fused_names" value="StatefulPartitionedCall/3d_unet_decathlon/transconv_c/Shape/GatherNCHWtoNHWC_input_port_1/value908413314" version="0"/>
			</rt_info>
			<output>
				<port id="0" precision="I32">
					<dim>5</dim>
				</port>
			</output>
		</layer>
		<layer id="313" name="StatefulPartitionedCall/3d_unet_decathlon/transconv_c/Shape/GatherNCHWtoNHWC_input_port_2/value9086132844245547" type="Const" version="opset1">
			<data element_type="i64" offset="19893728" shape="" size="8"/>
			<rt_info>
				<attribute name="fused_names" value="StatefulPartitionedCall/3d_unet_decathlon/transconv_c/Shape/GatherNCHWtoNHWC_input_port_2/value908613284" version="0"/>
			</rt_info>
			<output>
				<port id="0" precision="I64"/>
			</output>
		</layer>
		<layer id="314" name="StatefulPartitionedCall/3d_unet_decathlon/transconv_c/Shape/GatherNCHWtoNHWC" type="Gather" version="opset8">
			<data batch_dims="0"/>
			<rt_info>
				<attribute name="fused_names" value="StatefulPartitionedCall/3d_unet_decathlon/transconv_c/Shape/GatherNCHWtoNHWC, StatefulPartitionedCall/3d_unet_decathlon/transconv_c/Shape/GatherNCHWtoNHWC_input_port_1/value908413314, StatefulPartitionedCall/3d_unet_decathlon/transconv_c/Shape/GatherNCHWtoNHWC_input_port_2/value908613284" version="0"/>
			</rt_info>
			<input>
				<port id="0">
					<dim>5</dim>
				</port>
				<port id="1">
					<dim>5</dim>
				</port>
				<port id="2"/>
			</input>
			<output>
				<port id="3" names="StatefulPartitionedCall/3d_unet_decathlon/transconv_c/Shape:0" precision="I32">
					<dim>5</dim>
				</port>
			</output>
		</layer>
		<layer id="315" name="StatefulPartitionedCall/3d_unet_decathlon/transconv_c/strided_slice/stack4265577" type="Const" version="opset1">
			<data element_type="i64" offset="19893728" shape="1" size="8"/>
			<rt_info>
				<attribute name="fused_names" value="StatefulPartitionedCall/3d_unet_decathlon/transconv_c/strided_slice/stack" version="0"/>
			</rt_info>
			<output>
				<port id="0" names="StatefulPartitionedCall/3d_unet_decathlon/transconv_c/strided_slice/stack:0" precision="I64">
					<dim>1</dim>
				</port>
			</output>
		</layer>
		<layer id="316" name="StatefulPartitionedCall/3d_unet_decathlon/transconv_c/strided_slice/stack_14274884" type="Const" version="opset1">
			<data element_type="i64" offset="19893736" shape="1" size="8"/>
			<rt_info>
				<attribute name="fused_names" value="StatefulPartitionedCall/3d_unet_decathlon/transconv_c/strided_slice/stack_1" version="0"/>
			</rt_info>
			<output>
				<port id="0" names="StatefulPartitionedCall/3d_unet_decathlon/transconv_c/strided_slice/stack_1:0" precision="I64">
					<dim>1</dim>
				</port>
			</output>
		</layer>
		<layer id="317" name="StatefulPartitionedCall/3d_unet_decathlon/transconv_c/strided_slice/stack_24284578" type="Const" version="opset1">
			<data element_type="i64" offset="19893736" shape="1" size="8"/>
			<rt_info>
				<attribute name="fused_names" value="StatefulPartitionedCall/3d_unet_decathlon/transconv_c/strided_slice/stack_2" version="0"/>
			</rt_info>
			<output>
				<port id="0" names="StatefulPartitionedCall/3d_unet_decathlon/transconv_c/strided_slice/stack_2:0" precision="I64">
					<dim>1</dim>
				</port>
			</output>
		</layer>
		<layer id="318" name="StatefulPartitionedCall/3d_unet_decathlon/transconv_c/strided_slice" type="StridedSlice" version="opset1">
			<data begin_mask="0" ellipsis_mask="0" end_mask="0" new_axis_mask="0" shrink_axis_mask="1"/>
			<rt_info>
…
				<attribute name="fused_names" value="StatefulPartitionedCall/3d_unet_decathlon/conv_out/Relu" version="0"/>
			</rt_info>
			<input>
				<port id="0">
					<dim>1</dim>
					<dim>16</dim>
					<dim>144</dim>
					<dim>144</dim>
					<dim>144</dim>
				</port>
			</input>
			<output>
				<port id="1" names="StatefulPartitionedCall/3d_unet_decathlon/conv_out/Relu:0" precision="FP32">
					<dim>1</dim>
					<dim>16</dim>
					<dim>144</dim>
					<dim>144</dim>
					<dim>144</dim>
				</port>
			</output>
		</layer>
		<layer id="517" name="StatefulPartitionedCall/3d_unet_decathlon/prediction_mask/Conv3D/fq_input_0" type="FakeQuantize" version="opset1">
			<data auto_broadcast="numpy" levels="256"/>
			<input>
				<port id="0">
					<dim>1</dim>
					<dim>16</dim>
					<dim>144</dim>
					<dim>144</dim>
					<dim>144</dim>
				</port>
				<port id="1"/>
				<port id="2"/>
				<port id="3"/>
				<port id="4"/>
			</input>
			<output>
				<port id="5" precision="FP32">
					<dim>1</dim>
					<dim>16</dim>
					<dim>144</dim>
					<dim>144</dim>
					<dim>144</dim>
				</port>
			</output>
		</layer>
		<layer id="518" name="127512795088" type="Const" version="opset1">
			<data element_type="f32" offset="22593656" shape="1,1,1,1,1" size="4"/>
			<output>
				<port id="0" precision="FP32">
					<dim>1</dim>
					<dim>1</dim>
					<dim>1</dim>
					<dim>1</dim>
					<dim>1</dim>
				</port>
			</output>
		</layer>
		<layer id="519" name="127612804671" type="Const" version="opset1">
			<data element_type="f32" offset="22593660" shape="1,1,1,1,1" size="4"/>
			<output>
				<port id="0" precision="FP32">
					<dim>1</dim>
					<dim>1</dim>
					<dim>1</dim>
					<dim>1</dim>
					<dim>1</dim>
				</port>
			</output>
		</layer>
		<layer id="520" name="127712814974" type="Const" version="opset1">
			<data element_type="f32" offset="22593656" shape="1,1,1,1,1" size="4"/>
			<output>
				<port id="0" precision="FP32">
					<dim>1</dim>
					<dim>1</dim>
					<dim>1</dim>
					<dim>1</dim>
					<dim>1</dim>
				</port>
			</output>
		</layer>
		<layer id="521" name="127812824593" type="Const" version="opset1">
			<data element_type="f32" offset="22593660" shape="1,1,1,1,1" size="4"/>
			<output>
				<port id="0" precision="FP32">
					<dim>1</dim>
					<dim>1</dim>
					<dim>1</dim>
					<dim>1</dim>
					<dim>1</dim>
				</port>
			</output>
		</layer>
		<layer id="522" name="StatefulPartitionedCall/3d_unet_decathlon/prediction_mask/Conv3D/ReadVariableOp5985136" type="Const" version="opset1">
			<data element_type="f32" offset="22593664" shape="1,16,1,1,1" size="64"/>
			<rt_info>
				<attribute name="fused_names" value="StatefulPartitionedCall/3d_unet_decathlon/prediction_mask/Conv3D/ReadVariableOp" version="0"/>
			</rt_info>
			<output>
				<port id="0" names="StatefulPartitionedCall/3d_unet_decathlon/prediction_mask/Conv3D/ReadVariableOp:0" precision="FP32">
					<dim>1</dim>
					<dim>16</dim>
					<dim>1</dim>
					<dim>1</dim>
					<dim>1</dim>
				</port>
			</output>
		</layer>
		<layer id="523" name="StatefulPartitionedCall/3d_unet_decathlon/prediction_mask/Conv3D/fq_weights_1" type="FakeQuantize" version="opset1">
			<data auto_broadcast="numpy" levels="255"/>
			<input>
				<port id="0">
					<dim>1</dim>
					<dim>16</dim>
					<dim>1</dim>
					<dim>1</dim>
					<dim>1</dim>
				</port>
				<port id="1">
					<dim>1</dim>
					<dim>1</dim>
					<dim>1</dim>
					<dim>1</dim>
					<dim>1</dim>
				</port>
				<port id="2">
					<dim>1</dim>
					<dim>1</dim>
					<dim>1</dim>
					<dim>1</dim>
					<dim>1</dim>
				</port>
				<port id="3">
					<dim>1</dim>
					<dim>1</dim>
					<dim>1</dim>
					<dim>1</dim>
					<dim>1</dim>
				</port>
				<port id="4">
					<dim>1</dim>
					<dim>1</dim>
					<dim>1</dim>
					<dim>1</dim>
					<dim>1</dim>
				</port>
			</input>
			<output>
				<port id="5" precision="FP32">
					<dim>1</dim>
					<dim>16</dim>
					<dim>1</dim>
					<dim>1</dim>
					<dim>1</dim>
				</port>
			</output>
		</layer>
		<layer id="524" name="StatefulPartitionedCall/3d_unet_decathlon/prediction_mask/Conv3D" type="Convolution" version="opset1">
			<data auto_pad="valid" dilations="1,1,1" pads_begin="0,0,0" pads_end="0,0,0" strides="1,1,1"/>
			<rt_info>
				<attribute name="fused_names" value="StatefulPartitionedCall/3d_unet_decathlon/prediction_mask/Conv3D" version="0"/>
			</rt_info>
			<input>
				<port id="0">
					<dim>1</dim>
					<dim>16</dim>
					<dim>144</dim>
					<dim>144</dim>
					<dim>144</dim>
				</port>
				<port id="1">
					<dim>1</dim>
					<dim>16</dim>
					<dim>1</dim>
					<dim>1</dim>
					<dim>1</dim>
				</port>
			</input>
			<output>
				<port id="2" names="StatefulPartitionedCall/3d_unet_decathlon/prediction_mask/Conv3D:0" precision="FP32">
					<dim>1</dim>
					<dim>1</dim>
					<dim>144</dim>
					<dim>144</dim>
					<dim>144</dim>
				</port>
			</output>
		</layer>
		<layer id="525" name="StatefulPartitionedCall/3d_unet_decathlon/prediction_mask/BiasAdd/ReadVariableOp6005079" type="Const" version="opset1">
			<data element_type="f32" offset="22593728" shape="1,1,1,1,1" size="4"/>
			<rt_info>
				<attribute name="fused_names" value="StatefulPartitionedCall/3d_unet_decathlon/prediction_mask/BiasAdd/ReadVariableOp" version="0"/>
			</rt_info>
			<output>
				<port id="0" names="StatefulPartitionedCall/3d_unet_decathlon/prediction_mask/BiasAdd/ReadVariableOp:0" precision="FP32">
					<dim>1</dim>
					<dim>1</dim>
					<dim>1</dim>
					<dim>1</dim>
					<dim>1</dim>
				</port>
			</output>
		</layer>
		<layer id="526" name="StatefulPartitionedCall/3d_unet_decathlon/prediction_mask/BiasAdd/Add" type="Add" version="opset1">
			<data auto_broadcast="numpy"/>
			<rt_info>
				<attribute name="fused_names" value="StatefulPartitionedCall/3d_unet_decathlon/prediction_mask/BiasAdd/Add" version="0"/>
			</rt_info>
			<input>
				<port id="0">
					<dim>1</dim>
					<dim>1</dim>
					<dim>144</dim>
					<dim>144</dim>
					<dim>144</dim>
				</port>
				<port id="1">
					<dim>1</dim>
					<dim>1</dim>
					<dim>1</dim>
					<dim>1</dim>
					<dim>1</dim>
				</port>
			</input>
			<output>
				<port id="2" names="StatefulPartitionedCall/3d_unet_decathlon/prediction_mask/BiasAdd:0" precision="FP32">
					<dim>1</dim>
					<dim>1</dim>
					<dim>144</dim>
					<dim>144</dim>
					<dim>144</dim>
				</port>
			</output>
		</layer>
		<layer id="527" name="StatefulPartitionedCall/3d_unet_decathlon/prediction_mask/Sigmoid/prev" type="Sigmoid" version="opset1">
			<rt_info>
				<attribute name="fused_names" value="StatefulPartitionedCall/3d_unet_decathlon/prediction_mask/Sigmoid/prev" version="0"/>
			</rt_info>
			<input>
				<port id="0">
					<dim>1</dim>
					<dim>1</dim>
					<dim>144</dim>
					<dim>144</dim>
					<dim>144</dim>
				</port>
			</input>
			<output>
				<port id="1" precision="FP32">
					<dim>1</dim>
					<dim>1</dim>
					<dim>144</dim>
					<dim>144</dim>
					<dim>144</dim>
				</port>
			</output>
		</layer>
		<layer id="528" name="ShapeOf_4841" type="ShapeOf" version="opset3">
			<data output_type="i64"/>
			<rt_info>
				<attribute name="fused_names" value="9270/value927213671, StatefulPartitionedCall/3d_unet_decathlon/prediction_mask/Sigmoid" version="0"/>
			</rt_info>
			<input>
				<port id="0">
					<dim>1</dim>
					<dim>1</dim>
					<dim>144</dim>
					<dim>144</dim>
					<dim>144</dim>
				</port>
			</input>
			<output>
				<port id="1" precision="I64">
					<dim>5</dim>
				</port>
			</output>
		</layer>
		<layer id="529" name="9270/value9272136716045241" type="Const" version="opset1">
			<data element_type="i64" offset="22593732" shape="5" size="40"/>
			<rt_info>
				<attribute name="fused_names" value="9270/value927213671" version="0"/>
			</rt_info>
			<output>
				<port id="0" precision="I64">
					<dim>5</dim>
				</port>
			</output>
		</layer>
		<layer id="530" name="Constant_48426055598" type="Const" version="opset1">
			<data element_type="i64" offset="19893728" shape="1" size="8"/>
			<output>
				<port id="0" precision="I64">
					<dim>1</dim>
				</port>
			</output>
		</layer>
		<layer id="531" name="Gather_4843" type="Gather" version="opset1">
			<rt_info>
				<attribute name="fused_names" value="9270/value927213671, StatefulPartitionedCall/3d_unet_decathlon/prediction_mask/Sigmoid" version="0"/>
			</rt_info>
			<input>
				<port id="0">
					<dim>5</dim>
				</port>
				<port id="1">
					<dim>5</dim>
				</port>
				<port id="2">
					<dim>1</dim>
				</port>
			</input>
			<output>
				<port id="3" precision="I64">
					<dim>5</dim>
				</port>
			</output>
		</layer>
		<layer id="532" name="StatefulPartitionedCall/3d_unet_decathlon/prediction_mask/Sigmoid" type="Reshape" version="opset1">
			<data special_zero="true"/>
			<rt_info>
				<attribute name="fused_names" value="9270/value927213671, StatefulPartitionedCall/3d_unet_decathlon/prediction_mask/Sigmoid" version="0"/>
			</rt_info>
			<input>
				<port id="0">
					<dim>1</dim>
					<dim>1</dim>
					<dim>144</dim>
					<dim>144</dim>
					<dim>144</dim>
				</port>
				<port id="1">
					<dim>5</dim>
				</port>
			</input>
			<output>
				<port id="2" names="Func/StatefulPartitionedCall/output/_119:0,Identity:0,StatefulPartitionedCall/3d_unet_decathlon/prediction_mask/Sigmoid:0,StatefulPartitionedCall/Identity:0" precision="FP32">
					<dim>1</dim>
					<dim>144</dim>
					<dim>144</dim>
					<dim>144</dim>
					<dim>1</dim>
				</port>
			</output>
		</layer>
		<layer id="533" name="Func/StatefulPartitionedCall/output/_119:0" type="Result" version="opset1">
			<rt_info>
				<attribute name="fused_names" value="Func/StatefulPartitionedCall/output/_119:0" version="0"/>
				<attribute name="old_api_map_order" value="0,4,1,2,3" version="0"/>
			</rt_info>
			<input>
				<port id="0">
					<dim>1</dim>
					<dim>144</dim>
					<dim>144</dim>
					<dim>144</dim>
					<dim>1</dim>
				</port>
			</input>
		</layer>
	</layers>
	<edges>
		<edge from-layer="12" from-port="0" to-layer="13" to-port="0"/>
		<edge from-layer="8" from-port="0" to-layer="13" to-port="1"/>
		<edge from-layer="9" from-port="0" to-layer="13" to-port="2"/>
		<edge from-layer="10" from-port="0" to-layer="13" to-port="3"/>
		<edge from-layer="11" from-port="0" to-layer="13" to-port="4"/>
		<edge from-layer="30" from-port="0" to-layer="31" to-port="0"/>
		<edge from-layer="26" from-port="0" to-layer="31" to-port="1"/>
		<edge from-layer="27" from-port="0" to-layer="31" to-port="2"/>
		<edge from-layer="28" from-port="0" to-layer="31" to-port="3"/>
		<edge from-layer="29" from-port="0" to-layer="31" to-port="4"/>
		<edge from-layer="48" from-port="0" to-layer="49" to-port="0"/>
		<edge from-layer="44" from-port="0" to-layer="49" to-port="1"/>
		<edge from-layer="45" from-port="0" to-layer="49" to-port="2"/>
		<edge from-layer="46" from-port="0" to-layer="49" to-port="3"/>
		<edge from-layer="47" from-port="0" to-layer="49" to-port="4"/>
		<edge from-layer="66" from-port="0" to-layer="67" to-port="0"/>
		<edge from-layer="62" from-port="0" to-layer="67" to-port="1"/>
		<edge from-layer="63" from-port="0" to-layer="67" to-port="2"/>
		<edge from-layer="64" from-port="0" to-layer="67" to-port="3"/>
		<edge from-layer="65" from-port="0" to-layer="67" to-port="4"/>
		<edge from-layer="84" from-port="0" to-layer="85" to-port="0"/>
		<edge from-layer="80" from-port="0" to-layer="85" to-port="1"/>
		<edge from-layer="81" from-port="0" to-layer="85" to-port="2"/>
		<edge from-layer="82" from-port="0" to-layer="85" to-port="3"/>
		<edge from-layer="83" from-port="0" to-layer="85" to-port="4"/>
		<edge from-layer="98" from-port="0" to-layer="99" to-port="0"/>
		<edge from-layer="94" from-port="0" to-layer="99" to-port="1"/>
		<edge from-layer="95" from-port="0" to-layer="99" to-port="2"/>
		<edge from-layer="96" from-port="0" to-layer="99" to-port="3"/>
		<edge from-layer="97" from-port="0" to-layer="99" to-port="4"/>
		<edge from-layer="112" from-port="0" to-layer="113" to-port="0"/>
		<edge from-layer="108" from-port="0" to-layer="113" to-port="1"/>
		<edge from-layer="109" from-port="0" to-layer="113" to-port="2"/>
		<edge from-layer="110" from-port="0" to-layer="113" to-port="3"/>
		<edge from-layer="111" from-port="0" to-layer="113" to-port="4"/>
		<edge from-layer="126" from-port="0" to-layer="127" to-port="0"/>
		<edge from-layer="122" from-port="0" to-layer="127" to-port="1"/>
		<edge from-layer="123" from-port="0" to-layer="127" to-port="2"/>
		<edge from-layer="124" from-port="0" to-layer="127" to-port="3"/>
		<edge from-layer="125" from-port="0" to-layer="127" to-port="4"/>
		<edge from-layer="140" from-port="0" to-layer="141" to-port="0"/>
		<edge from-layer="136" from-port="0" to-layer="141" to-port="1"/>
		<edge from-layer="137" from-port="0" to-layer="141" to-port="2"/>
		<edge from-layer="138" from-port="0" to-layer="141" to-port="3"/>
		<edge from-layer="139" from-port="0" to-layer="141" to-port="4"/>
		<edge from-layer="147" from-port="0" to-layer="148" to-port="0"/>
		<edge from-layer="143" from-port="0" to-layer="148" to-port="1"/>
		<edge from-layer="144" from-port="0" to-layer="148" to-port="2"/>
		<edge from-layer="145" from-port="0" to-layer="148" to-port="3"/>
		<edge from-layer="146" from-port="0" to-layer="148" to-port="4"/>
		<edge from-layer="148" from-port="5" to-layer="149" to-port="0"/>
		<edge from-layer="142" from-port="0" to-layer="149" to-port="1"/>
		<edge from-layer="149" from-port="2" to-layer="150" to-port="0"/>
		<edge from-layer="141" from-port="5" to-layer="150" to-port="1"/>
		<edge from-layer="150" from-port="2" to-layer="152" to-port="0"/>
		<edge from-layer="151" from-port="0" to-layer="152" to-port="1"/>
		<edge from-layer="152" from-port="2" to-layer="153" to-port="0"/>
		<edge from-layer="153" from-port="1" to-layer="154" to-port="0"/>
		<edge from-layer="132" from-port="0" to-layer="154" to-port="1"/>
		<edge from-layer="133" from-port="0" to-layer="154" to-port="2"/>
		<edge from-layer="134" from-port="0" to-layer="154" to-port="3"/>
		<edge from-layer="135" from-port="0" to-layer="154" to-port="4"/>
		<edge from-layer="159" from-port="0" to-layer="160" to-port="0"/>
		<edge from-layer="155" from-port="0" to-layer="160" to-port="1"/>
		<edge from-layer="156" from-port="0" to-layer="160" to-port="2"/>
		<edge from-layer="157" from-port="0" to-layer="160" to-port="3"/>
		<edge from-layer="158" from-port="0" to-layer="160" to-port="4"/>
		<edge from-layer="154" from-port="5" to-layer="161" to-port="0"/>
		<edge from-layer="160" from-port="5" to-layer="161" to-port="1"/>
		<edge from-layer="161" from-port="2" to-layer="163" to-port="0"/>
		<edge from-layer="162" from-port="0" to-layer="163" to-port="1"/>
		<edge from-layer="163" from-port="2" to-layer="164" to-port="0"/>
		<edge from-layer="164" from-port="1" to-layer="165" to-port="0"/>
		<edge from-layer="128" from-port="0" to-layer="165" to-port="1"/>
		<edge from-layer="129" from-port="0" to-layer="165" to-port="2"/>
		<edge from-layer="130" from-port="0" to-layer="165" to-port="3"/>
		<edge from-layer="131" from-port="0" to-layer="165" to-port="4"/>
		<edge from-layer="165" from-port="5" to-layer="166" to-port="0"/>
		<edge from-layer="166" from-port="1" to-layer="167" to-port="0"/>
		<edge from-layer="127" from-port="5" to-layer="167" to-port="1"/>
		<edge from-layer="167" from-port="2" to-layer="169" to-port="0"/>
		<edge from-layer="168" from-port="0" to-layer="169" to-port="1"/>
		<edge from-layer="169" from-port="2" to-layer="170" to-port="0"/>
		<edge from-layer="170" from-port="1" to-layer="171" to-port="0"/>
		<edge from-layer="118" from-port="0" to-layer="171" to-port="1"/>
		<edge from-layer="119" from-port="0" to-layer="171" to-port="2"/>
		<edge from-layer="120" from-port="0" to-layer="171" to-port="3"/>
		<edge from-layer="121" from-port="0" to-layer="171" to-port="4"/>
		<edge from-layer="176" from-port="0" to-layer="177" to-port="0"/>
		<edge from-layer="172" from-port="0" to-layer="177" to-port="1"/>
		<edge from-layer="173" from-port="0" to-layer="177" to-port="2"/>
		<edge from-layer="174" from-port="0" to-layer="177" to-port="3"/>
		<edge from-layer="175" from-port="0" to-layer="177" to-port="4"/>
		<edge from-layer="171" from-port="5" to-layer="178" to-port="0"/>
		<edge from-layer="177" from-port="5" to-layer="178" to-port="1"/>
		<edge from-layer="178" from-port="2" to-layer="180" to-port="0"/>
		<edge from-layer="179" from-port="0" to-layer="180" to-port="1"/>
		<edge from-layer="180" from-port="2" to-layer="181" to-port="0"/>
		<edge from-layer="181" from-port="1" to-layer="182" to-port="0"/>
		<edge from-layer="114" from-port="0" to-layer="182" to-port="1"/>
		<edge from-layer="115" from-port="0" to-layer="182" to-port="2"/>
		<edge from-layer="116" from-port="0" to-layer="182" to-port="3"/>
		<edge from-layer="117" from-port="0" to-layer="182" to-port="4"/>
		<edge from-layer="182" from-port="5" to-layer="183" to-port="0"/>
		<edge from-layer="183" from-port="1" to-layer="184" to-port="0"/>
		<edge from-layer="113" from-port="5" to-layer="184" to-port="1"/>
		<edge from-layer="184" from-port="2" to-layer="186" to-port="0"/>
		<edge from-layer="185" from-port="0" to-layer="186" to-port="1"/>
		<edge from-layer="186" from-port="2" to-layer="187" to-port="0"/>
		<edge from-layer="187" from-port="1" to-layer="188" to-port="0"/>
		<edge from-layer="104" from-port="0" to-layer="188" to-port="1"/>
		<edge from-layer="105" from-port="0" to-layer="188" to-port="2"/>
		<edge from-layer="106" from-port="0" to-layer="188" to-port="3"/>
		<edge from-layer="107" from-port="0" to-layer="188" to-port="4"/>
		<edge from-layer="193" from-port="0" to-layer="194" to-port="0"/>
		<edge from-layer="189" from-port="0" to-layer="194" to-port="1"/>
		<edge from-layer="190" from-port="0" to-layer="194" to-port="2"/>
		<edge from-layer="191" from-port="0" to-layer="194" to-port="3"/>
		<edge from-layer="192" from-port="0" to-layer="194" to-port="4"/>
		<edge from-layer="188" from-port="5" to-layer="195" to-port="0"/>
		<edge from-layer="194" from-port="5" to-layer="195" to-port="1"/>
		<edge from-layer="195" from-port="2" to-layer="197" to-port="0"/>
		<edge from-layer="196" from-port="0" to-layer="197" to-port="1"/>
		<edge from-layer="197" from-port="2" to-layer="198" to-port="0"/>
		<edge from-layer="198" from-port="1" to-layer="199" to-port="0"/>
		<edge from-layer="100" from-port="0" to-layer="199" to-port="1"/>
		<edge from-layer="101" from-port="0" to-layer="199" to-port="2"/>
		<edge from-layer="102" from-port="0" to-layer="199" to-port="3"/>
		<edge from-layer="103" from-port="0" to-layer="199" to-port="4"/>
		<edge from-layer="199" from-port="5" to-layer="200" to-port="0"/>
		<edge from-layer="200" from-port="1" to-layer="201" to-port="0"/>
		<edge from-layer="99" from-port="5" to-layer="201" to-port="1"/>
		<edge from-layer="201" from-port="2" to-layer="203" to-port="0"/>
		<edge from-layer="202" from-port="0" to-layer="203" to-port="1"/>
		<edge from-layer="203" from-port="2" to-layer="204" to-port="0"/>
		<edge from-layer="204" from-port="1" to-layer="205" to-port="0"/>
		<edge from-layer="90" from-port="0" to-layer="205" to-port="1"/>
		<edge from-layer="91" from-port="0" to-layer="205" to-port="2"/>
		<edge from-layer="92" from-port="0" to-layer="205" to-port="3"/>
		<edge from-layer="93" from-port="0" to-layer="205" to-port="4"/>
		<edge from-layer="210" from-port="0" to-layer="211" to-port="0"/>
		<edge from-layer="206" from-port="0" to-layer="211" to-port="1"/>
		<edge from-layer="207" from-port="0" to-layer="211" to-port="2"/>
		<edge from-layer="208" from-port="0" to-layer="211" to-port="3"/>
		<edge from-layer="209" from-port="0" to-layer="211" to-port="4"/>
		<edge from-layer="205" from-port="5" to-layer="212" to-port="0"/>
		<edge from-layer="211" from-port="5" to-layer="212" to-port="1"/>
		<edge from-layer="212" from-port="2" to-layer="214" to-port="0"/>
		<edge from-layer="213" from-port="0" to-layer="214" to-port="1"/>
		<edge from-layer="214" from-port="2" to-layer="215" to-port="0"/>
		<edge from-layer="215" from-port="1" to-layer="216" to-port="0"/>
		<edge from-layer="86" from-port="0" to-layer="216" to-port="1"/>
		<edge from-layer="87" from-port="0" to-layer="216" to-port="2"/>
		<edge from-layer="88" from-port="0" to-layer="216" to-port="3"/>
		<edge from-layer="89" from-port="0" to-layer="216" to-port="4"/>
		<edge from-layer="216" from-port="5" to-layer="217" to-port="0"/>
		<edge from-layer="217" from-port="1" to-layer="218" to-port="0"/>
		<edge from-layer="85" from-port="5" to-layer="218" to-port="1"/>
		<edge from-layer="218" from-port="2" to-layer="220" to-port="0"/>
		<edge from-layer="219" from-port="0" to-layer="220" to-port="1"/>
		<edge from-layer="220" from-port="2" to-layer="221" to-port="0"/>
		<edge from-layer="221" from-port="1" to-layer="222" to-port="0"/>
		<edge from-layer="76" from-port="0" to-layer="222" to-port="1"/>
		<edge from-layer="77" from-port="0" to-layer="222" to-port="2"/>
		<edge from-layer="78" from-port="0" to-layer="222" to-port="3"/>
		<edge from-layer="79" from-port="0" to-layer="222" to-port="4"/>
		<edge from-layer="227" from-port="0" to-layer="228" to-port="0"/>
		<edge from-layer="223" from-port="0" to-layer="228" to-port="1"/>
		<edge from-layer="224" from-port="0" to-layer="228" to-port="2"/>
		<edge from-layer="225" from-port="0" to-layer="228" to-port="3"/>
		<edge from-layer="226" from-port="0" to-layer="228" to-port="4"/>
		<edge from-layer="222" from-port="5" to-layer="229" to-port="0"/>
		<edge from-layer="228" from-port="5" to-layer="229" to-port="1"/>
		<edge from-layer="229" from-port="2" to-layer="231" to-port="0"/>
		<edge from-layer="230" from-port="0" to-layer="231" to-port="1"/>
		<edge from-layer="231" from-port="2" to-layer="232" to-port="0"/>
		<edge from-layer="232" from-port="1" to-layer="233" to-port="0"/>
		<edge from-layer="72" from-port="0" to-layer="233" to-port="1"/>
		<edge from-layer="73" from-port="0" to-layer="233" to-port="2"/>
		<edge from-layer="74" from-port="0" to-layer="233" to-port="3"/>
		<edge from-layer="75" from-port="0" to-layer="233" to-port="4"/>
		<edge from-layer="238" from-port="0" to-layer="239" to-port="0"/>
		<edge from-layer="234" from-port="0" to-layer="239" to-port="1"/>
		<edge from-layer="235" from-port="0" to-layer="239" to-port="2"/>
		<edge from-layer="236" from-port="0" to-layer="239" to-port="3"/>
		<edge from-layer="237" from-port="0" to-layer="239" to-port="4"/>
		<edge from-layer="232" from-port="1" to-layer="240" to-port="0"/>
		<edge from-layer="240" from-port="1" to-layer="243" to-port="0"/>
		<edge from-layer="241" from-port="0" to-layer="243" to-port="1"/>
		<edge from-layer="242" from-port="0" to-layer="243" to-port="2"/>
		<edge from-layer="243" from-port="3" to-layer="247" to-port="0"/>
		<edge from-layer="244" from-port="0" to-layer="247" to-port="1"/>
		<edge from-layer="245" from-port="0" to-layer="247" to-port="2"/>
		<edge from-layer="246" from-port="0" to-layer="247" to-port="3"/>
		<edge from-layer="247" from-port="4" to-layer="249" to-port="0"/>
		<edge from-layer="248" from-port="0" to-layer="249" to-port="1"/>
		<edge from-layer="243" from-port="3" to-layer="253" to-port="0"/>
		<edge from-layer="250" from-port="0" to-layer="253" to-port="1"/>
		<edge from-layer="251" from-port="0" to-layer="253" to-port="2"/>
		<edge from-layer="252" from-port="0" to-layer="253" to-port="3"/>
		<edge from-layer="253" from-port="4" to-layer="255" to-port="0"/>
		<edge from-layer="254" from-port="0" to-layer="255" to-port="1"/>
		<edge from-layer="255" from-port="2" to-layer="257" to-port="0"/>
		<edge from-layer="256" from-port="0" to-layer="257" to-port="1"/>
		<edge from-layer="243" from-port="3" to-layer="261" to-port="0"/>
		<edge from-layer="258" from-port="0" to-layer="261" to-port="1"/>
		<edge from-layer="259" from-port="0" to-layer="261" to-port="2"/>
		<edge from-layer="260" from-port="0" to-layer="261" to-port="3"/>
		<edge from-layer="261" from-port="4" to-layer="263" to-port="0"/>
		<edge from-layer="262" from-port="0" to-layer="263" to-port="1"/>
		<edge from-layer="263" from-port="2" to-layer="265" to-port="0"/>
		<edge from-layer="264" from-port="0" to-layer="265" to-port="1"/>
		<edge from-layer="243" from-port="3" to-layer="269" to-port="0"/>
		<edge from-layer="266" from-port="0" to-layer="269" to-port="1"/>
		<edge from-layer="267" from-port="0" to-layer="269" to-port="2"/>
		<edge from-layer="268" from-port="0" to-layer="269" to-port="3"/>
		<edge from-layer="269" from-port="4" to-layer="271" to-port="0"/>
		<edge from-layer="270" from-port="0" to-layer="271" to-port="1"/>
		<edge from-layer="271" from-port="2" to-layer="273" to-port="0"/>
		<edge from-layer="272" from-port="0" to-layer="273" to-port="1"/>
		<edge from-layer="249" from-port="2" to-layer="275" to-port="0"/>
		<edge from-layer="257" from-port="2" to-layer="275" to-port="1"/>
		<edge from-layer="265" from-port="2" to-layer="275" to-port="2"/>
		<edge from-layer="273" from-port="2" to-layer="275" to-port="3"/>
		<edge from-layer="274" from-port="0" to-layer="275" to-port="4"/>
		<edge from-layer="275" from-port="5" to-layer="278" to-port="0"/>
		<edge from-layer="276" from-port="0" to-layer="278" to-port="1"/>
		<edge from-layer="277" from-port="0" to-layer="278" to-port="2"/>
		<edge from-layer="278" from-port="3" to-layer="282" to-port="0"/>
		<edge from-layer="279" from-port="0" to-layer="282" to-port="1"/>
		<edge from-layer="280" from-port="0" to-layer="282" to-port="2"/>
		<edge from-layer="281" from-port="0" to-layer="282" to-port="3"/>
		<edge from-layer="282" from-port="4" to-layer="283" to-port="0"/>
		<edge from-layer="233" from-port="5" to-layer="284" to-port="0"/>
		<edge from-layer="239" from-port="5" to-layer="284" to-port="1"/>
		<edge from-layer="283" from-port="1" to-layer="284" to-port="2"/>
		<edge from-layer="284" from-port="3" to-layer="286" to-port="0"/>
		<edge from-layer="285" from-port="0" to-layer="286" to-port="1"/>
		<edge from-layer="286" from-port="2" to-layer="287" to-port="0"/>
		<edge from-layer="68" from-port="0" to-layer="287" to-port="1"/>
		<edge from-layer="69" from-port="0" to-layer="287" to-port="2"/>
		<edge from-layer="70" from-port="0" to-layer="287" to-port="3"/>
		<edge from-layer="71" from-port="0" to-layer="287" to-port="4"/>
		<edge from-layer="287" from-port="5" to-layer="288" to-port="0"/>
		<edge from-layer="216" from-port="5" to-layer="288" to-port="1"/>
		<edge from-layer="288" from-port="2" to-layer="289" to-port="0"/>
		<edge from-layer="67" from-port="5" to-layer="289" to-port="1"/>
		<edge from-layer="289" from-port="2" to-layer="291" to-port="0"/>
		<edge from-layer="290" from-port="0" to-layer="291" to-port="1"/>
		<edge from-layer="291" from-port="2" to-layer="292" to-port="0"/>
		<edge from-layer="292" from-port="1" to-layer="293" to-port="0"/>
		<edge from-layer="58" from-port="0" to-layer="293" to-port="1"/>
		<edge from-layer="59" from-port="0" to-layer="293" to-port="2"/>
		<edge from-layer="60" from-port="0" to-layer="293" to-port="3"/>
		<edge from-layer="61" from-port="0" to-layer="293" to-port="4"/>
		<edge from-layer="298" from-port="0" to-layer="299" to-port="0"/>
		<edge from-layer="294" from-port="0" to-layer="299" to-port="1"/>
		<edge from-layer="295" from-port="0" to-layer="299" to-port="2"/>
		<edge from-layer="296" from-port="0" to-layer="299" to-port="3"/>
		<edge from-layer="297" from-port="0" to-layer="299" to-port="4"/>
		<edge from-layer="293" from-port="5" to-layer="300" to-port="0"/>
		<edge from-layer="299" from-port="5" to-layer="300" to-port="1"/>
		<edge from-layer="300" from-port="2" to-layer="302" to-port="0"/>
		<edge from-layer="301" from-port="0" to-layer="302" to-port="1"/>
		<edge from-layer="302" from-port="2" to-layer="303" to-port="0"/>
		<edge from-layer="303" from-port="1" to-layer="304" to-port="0"/>
		<edge from-layer="54" from-port="0" to-layer="304" to-port="1"/>
		<edge from-layer="55" from-port="0" to-layer="304" to-port="2"/>
		<edge from-layer="56" from-port="0" to-layer="304" to-port="3"/>
		<edge from-layer="57" from-port="0" to-layer="304" to-port="4"/>
		<edge from-layer="309" from-port="0" to-layer="310" to-port="0"/>
		<edge from-layer="305" from-port="0" to-layer="310" to-port="1"/>
		<edge from-layer="306" from-port="0" to-layer="310" to-port="2"/>
		<edge from-layer="307" from-port="0" to-layer="310" to-port="3"/>
		<edge from-layer="308" from-port="0" to-layer="310" to-port="4"/>
		<edge from-layer="303" from-port="1" to-layer="311" to-port="0"/>
		<edge from-layer="311" from-port="1" to-layer="314" to-port="0"/>
		<edge from-layer="312" from-port="0" to-layer="314" to-port="1"/>
		<edge from-layer="313" from-port="0" to-layer="314" to-port="2"/>
		<edge from-layer="314" from-port="3" to-layer="318" to-port="0"/>
		<edge from-layer="315" from-port="0" to-layer="318" to-port="1"/>
		<edge from-layer="316" from-port="0" to-layer="318" to-port="2"/>
		<edge from-layer="317" from-port="0" to-layer="318" to-port="3"/>
		<edge from-layer="318" from-port="4" to-layer="320" to-port="0"/>
		<edge from-layer="319" from-port="0" to-layer="320" to-port="1"/>
		<edge from-layer="314" from-port="3" to-layer="324" to-port="0"/>
		<edge from-layer="321" from-port="0" to-layer="324" to-port="1"/>
		<edge from-layer="322" from-port="0" to-layer="324" to-port="2"/>
		<edge from-layer="323" from-port="0" to-layer="324" to-port="3"/>
		<edge from-layer="324" from-port="4" to-layer="326" to-port="0"/>
		<edge from-layer="325" from-port="0" to-layer="326" to-port="1"/>
		<edge from-layer="326" from-port="2" to-layer="328" to-port="0"/>
		<edge from-layer="327" from-port="0" to-layer="328" to-port="1"/>
		<edge from-layer="314" from-port="3" to-layer="332" to-port="0"/>
		<edge from-layer="329" from-port="0" to-layer="332" to-port="1"/>
		<edge from-layer="330" from-port="0" to-layer="332" to-port="2"/>
		<edge from-layer="331" from-port="0" to-layer="332" to-port="3"/>
		<edge from-layer="332" from-port="4" to-layer="334" to-port="0"/>
		<edge from-layer="333" from-port="0" to-layer="334" to-port="1"/>
		<edge from-layer="334" from-port="2" to-layer="336" to-port="0"/>
		<edge from-layer="335" from-port="0" to-layer="336" to-port="1"/>
		<edge from-layer="314" from-port="3" to-layer="340" to-port="0"/>
		<edge from-layer="337" from-port="0" to-layer="340" to-port="1"/>
		<edge from-layer="338" from-port="0" to-layer="340" to-port="2"/>
		<edge from-layer="339" from-port="0" to-layer="340" to-port="3"/>
		<edge from-layer="340" from-port="4" to-layer="342" to-port="0"/>
		<edge from-layer="341" from-port="0" to-layer="342" to-port="1"/>
		<edge from-layer="342" from-port="2" to-layer="344" to-port="0"/>
		<edge from-layer="343" from-port="0" to-layer="344" to-port="1"/>
		<edge from-layer="320" from-port="2" to-layer="346" to-port="0"/>
		<edge from-layer="328" from-port="2" to-layer="346" to-port="1"/>
		<edge from-layer="336" from-port="2" to-layer="346" to-port="2"/>
		<edge from-layer="344" from-port="2" to-layer="346" to-port="3"/>
		<edge from-layer="345" from-port="0" to-layer="346" to-port="4"/>
		<edge from-layer="346" from-port="5" to-layer="349" to-port="0"/>
		<edge from-layer="347" from-port="0" to-layer="349" to-port="1"/>
		<edge from-layer="348" from-port="0" to-layer="349" to-port="2"/>
		<edge from-layer="349" from-port="3" to-layer="353" to-port="0"/>
		<edge from-layer="350" from-port="0" to-layer="353" to-port="1"/>
		<edge from-layer="351" from-port="0" to-layer="353" to-port="2"/>
		<edge from-layer="352" from-port="0" to-layer="353" to-port="3"/>
		<edge from-layer="353" from-port="4" to-layer="354" to-port="0"/>
		<edge from-layer="304" from-port="5" to-layer="355" to-port="0"/>
		<edge from-layer="310" from-port="5" to-layer="355" to-port="1"/>
		<edge from-layer="354" from-port="1" to-layer="355" to-port="2"/>
		<edge from-layer="355" from-port="3" to-layer="357" to-port="0"/>
		<edge from-layer="356" from-port="0" to-layer="357" to-port="1"/>
		<edge from-layer="357" from-port="2" to-layer="358" to-port="0"/>
		<edge from-layer="50" from-port="0" to-layer="358" to-port="1"/>
		<edge from-layer="51" from-port="0" to-layer="358" to-port="2"/>
		<edge from-layer="52" from-port="0" to-layer="358" to-port="3"/>
		<edge from-layer="53" from-port="0" to-layer="358" to-port="4"/>
		<edge from-layer="358" from-port="5" to-layer="359" to-port="0"/>
		<edge from-layer="199" from-port="5" to-layer="359" to-port="1"/>
		<edge from-layer="359" from-port="2" to-layer="360" to-port="0"/>
		<edge from-layer="49" from-port="5" to-layer="360" to-port="1"/>
		<edge from-layer="360" from-port="2" to-layer="362" to-port="0"/>
		<edge from-layer="361" from-port="0" to-layer="362" to-port="1"/>
		<edge from-layer="362" from-port="2" to-layer="363" to-port="0"/>
		<edge from-layer="363" from-port="1" to-layer="364" to-port="0"/>
		<edge from-layer="40" from-port="0" to-layer="364" to-port="1"/>
		<edge from-layer="41" from-port="0" to-layer="364" to-port="2"/>
		<edge from-layer="42" from-port="0" to-layer="364" to-port="3"/>
		<edge from-layer="43" from-port="0" to-layer="364" to-port="4"/>
		<edge from-layer="369" from-port="0" to-layer="370" to-port="0"/>
		<edge from-layer="365" from-port="0" to-layer="370" to-port="1"/>
		<edge from-layer="366" from-port="0" to-layer="370" to-port="2"/>
		<edge from-layer="367" from-port="0" to-layer="370" to-port="3"/>
		<edge from-layer="368" from-port="0" to-layer="370" to-port="4"/>
		<edge from-layer="364" from-port="5" to-layer="371" to-port="0"/>
		<edge from-layer="370" from-port="5" to-layer="371" to-port="1"/>
		<edge from-layer="371" from-port="2" to-layer="373" to-port="0"/>
		<edge from-layer="372" from-port="0" to-layer="373" to-port="1"/>
		<edge from-layer="373" from-port="2" to-layer="374" to-port="0"/>
		<edge from-layer="374" from-port="1" to-layer="375" to-port="0"/>
		<edge from-layer="36" from-port="0" to-layer="375" to-port="1"/>
		<edge from-layer="37" from-port="0" to-layer="375" to-port="2"/>
		<edge from-layer="38" from-port="0" to-layer="375" to-port="3"/>
		<edge from-layer="39" from-port="0" to-layer="375" to-port="4"/>
		<edge from-layer="380" from-port="0" to-layer="381" to-port="0"/>
		<edge from-layer="376" from-port="0" to-layer="381" to-port="1"/>
		<edge from-layer="377" from-port="0" to-layer="381" to-port="2"/>
		<edge from-layer="378" from-port="0" to-layer="381" to-port="3"/>
		<edge from-layer="379" from-port="0" to-layer="381" to-port="4"/>
		<edge from-layer="374" from-port="1" to-layer="382" to-port="0"/>
		<edge from-layer="382" from-port="1" to-layer="385" to-port="0"/>
		<edge from-layer="383" from-port="0" to-layer="385" to-port="1"/>
		<edge from-layer="384" from-port="0" to-layer="385" to-port="2"/>
		<edge from-layer="385" from-port="3" to-layer="389" to-port="0"/>
		<edge from-layer="386" from-port="0" to-layer="389" to-port="1"/>
		<edge from-layer="387" from-port="0" to-layer="389" to-port="2"/>
		<edge from-layer="388" from-port="0" to-layer="389" to-port="3"/>
		<edge from-layer="389" from-port="4" to-layer="391" to-port="0"/>
		<edge from-layer="390" from-port="0" to-layer="391" to-port="1"/>
		<edge from-layer="385" from-port="3" to-layer="395" to-port="0"/>
		<edge from-layer="392" from-port="0" to-layer="395" to-port="1"/>
		<edge from-layer="393" from-port="0" to-layer="395" to-port="2"/>
		<edge from-layer="394" from-port="0" to-layer="395" to-port="3"/>
		<edge from-layer="395" from-port="4" to-layer="397" to-port="0"/>
		<edge from-layer="396" from-port="0" to-layer="397" to-port="1"/>
		<edge from-layer="397" from-port="2" to-layer="399" to-port="0"/>
		<edge from-layer="398" from-port="0" to-layer="399" to-port="1"/>
		<edge from-layer="385" from-port="3" to-layer="403" to-port="0"/>
		<edge from-layer="400" from-port="0" to-layer="403" to-port="1"/>
		<edge from-layer="401" from-port="0" to-layer="403" to-port="2"/>
		<edge from-layer="402" from-port="0" to-layer="403" to-port="3"/>
		<edge from-layer="403" from-port="4" to-layer="405" to-port="0"/>
		<edge from-layer="404" from-port="0" to-layer="405" to-port="1"/>
		<edge from-layer="405" from-port="2" to-layer="407" to-port="0"/>
		<edge from-layer="406" from-port="0" to-layer="407" to-port="1"/>
		<edge from-layer="385" from-port="3" to-layer="411" to-port="0"/>
		<edge from-layer="408" from-port="0" to-layer="411" to-port="1"/>
		<edge from-layer="409" from-port="0" to-layer="411" to-port="2"/>
		<edge from-layer="410" from-port="0" to-layer="411" to-port="3"/>
		<edge from-layer="411" from-port="4" to-layer="413" to-port="0"/>
		<edge from-layer="412" from-port="0" to-layer="413" to-port="1"/>
		<edge from-layer="413" from-port="2" to-layer="415" to-port="0"/>
		<edge from-layer="414" from-port="0" to-layer="415" to-port="1"/>
		<edge from-layer="391" from-port="2" to-layer="417" to-port="0"/>
		<edge from-layer="399" from-port="2" to-layer="417" to-port="1"/>
		<edge from-layer="407" from-port="2" to-layer="417" to-port="2"/>
		<edge from-layer="415" from-port="2" to-layer="417" to-port="3"/>
		<edge from-layer="416" from-port="0" to-layer="417" to-port="4"/>
		<edge from-layer="417" from-port="5" to-layer="420" to-port="0"/>
		<edge from-layer="418" from-port="0" to-layer="420" to-port="1"/>
		<edge from-layer="419" from-port="0" to-layer="420" to-port="2"/>
		<edge from-layer="420" from-port="3" to-layer="424" to-port="0"/>
		<edge from-layer="421" from-port="0" to-layer="424" to-port="1"/>
		<edge from-layer="422" from-port="0" to-layer="424" to-port="2"/>
		<edge from-layer="423" from-port="0" to-layer="424" to-port="3"/>
		<edge from-layer="424" from-port="4" to-layer="425" to-port="0"/>
		<edge from-layer="375" from-port="5" to-layer="426" to-port="0"/>
		<edge from-layer="381" from-port="5" to-layer="426" to-port="1"/>
		<edge from-layer="425" from-port="1" to-layer="426" to-port="2"/>
		<edge from-layer="426" from-port="3" to-layer="428" to-port="0"/>
		<edge from-layer="427" from-port="0" to-layer="428" to-port="1"/>
		<edge from-layer="428" from-port="2" to-layer="429" to-port="0"/>
		<edge from-layer="32" from-port="0" to-layer="429" to-port="1"/>
		<edge from-layer="33" from-port="0" to-layer="429" to-port="2"/>
		<edge from-layer="34" from-port="0" to-layer="429" to-port="3"/>
		<edge from-layer="35" from-port="0" to-layer="429" to-port="4"/>
		<edge from-layer="429" from-port="5" to-layer="430" to-port="0"/>
		<edge from-layer="182" from-port="5" to-layer="430" to-port="1"/>
		<edge from-layer="430" from-port="2" to-layer="431" to-port="0"/>
		<edge from-layer="31" from-port="5" to-layer="431" to-port="1"/>
		<edge from-layer="431" from-port="2" to-layer="433" to-port="0"/>
		<edge from-layer="432" from-port="0" to-layer="433" to-port="1"/>
		<edge from-layer="433" from-port="2" to-layer="434" to-port="0"/>
		<edge from-layer="434" from-port="1" to-layer="435" to-port="0"/>
		<edge from-layer="22" from-port="0" to-layer="435" to-port="1"/>
		<edge from-layer="23" from-port="0" to-layer="435" to-port="2"/>
		<edge from-layer="24" from-port="0" to-layer="435" to-port="3"/>
		<edge from-layer="25" from-port="0" to-layer="435" to-port="4"/>
		<edge from-layer="440" from-port="0" to-layer="441" to-port="0"/>
		<edge from-layer="436" from-port="0" to-layer="441" to-port="1"/>
		<edge from-layer="437" from-port="0" to-layer="441" to-port="2"/>
		<edge from-layer="438" from-port="0" to-layer="441" to-port="3"/>
		<edge from-layer="439" from-port="0" to-layer="441" to-port="4"/>
		<edge from-layer="435" from-port="5" to-layer="442" to-port="0"/>
		<edge from-layer="441" from-port="5" to-layer="442" to-port="1"/>
		<edge from-layer="442" from-port="2" to-layer="444" to-port="0"/>
		<edge from-layer="443" from-port="0" to-layer="444" to-port="1"/>
		<edge from-layer="444" from-port="2" to-layer="445" to-port="0"/>
		<edge from-layer="445" from-port="1" to-layer="446" to-port="0"/>
		<edge from-layer="18" from-port="0" to-layer="446" to-port="1"/>
		<edge from-layer="19" from-port="0" to-layer="446" to-port="2"/>
		<edge from-layer="20" from-port="0" to-layer="446" to-port="3"/>
		<edge from-layer="21" from-port="0" to-layer="446" to-port="4"/>
		<edge from-layer="451" from-port="0" to-layer="452" to-port="0"/>
		<edge from-layer="447" from-port="0" to-layer="452" to-port="1"/>
		<edge from-layer="448" from-port="0" to-layer="452" to-port="2"/>
		<edge from-layer="449" from-port="0" to-layer="452" to-port="3"/>
		<edge from-layer="450" from-port="0" to-layer="452" to-port="4"/>
		<edge from-layer="445" from-port="1" to-layer="453" to-port="0"/>
		<edge from-layer="453" from-port="1" to-layer="456" to-port="0"/>
		<edge from-layer="454" from-port="0" to-layer="456" to-port="1"/>
		<edge from-layer="455" from-port="0" to-layer="456" to-port="2"/>
		<edge from-layer="456" from-port="3" to-layer="460" to-port="0"/>
		<edge from-layer="457" from-port="0" to-layer="460" to-port="1"/>
		<edge from-layer="458" from-port="0" to-layer="460" to-port="2"/>
		<edge from-layer="459" from-port="0" to-layer="460" to-port="3"/>
		<edge from-layer="460" from-port="4" to-layer="462" to-port="0"/>
		<edge from-layer="461" from-port="0" to-layer="462" to-port="1"/>
		<edge from-layer="456" from-port="3" to-layer="466" to-port="0"/>
		<edge from-layer="463" from-port="0" to-layer="466" to-port="1"/>
		<edge from-layer="464" from-port="0" to-layer="466" to-port="2"/>
		<edge from-layer="465" from-port="0" to-layer="466" to-port="3"/>
		<edge from-layer="466" from-port="4" to-layer="468" to-port="0"/>
		<edge from-layer="467" from-port="0" to-layer="468" to-port="1"/>
		<edge from-layer="468" from-port="2" to-layer="470" to-port="0"/>
		<edge from-layer="469" from-port="0" to-layer="470" to-port="1"/>
		<edge from-layer="456" from-port="3" to-layer="474" to-port="0"/>
		<edge from-layer="471" from-port="0" to-layer="474" to-port="1"/>
		<edge from-layer="472" from-port="0" to-layer="474" to-port="2"/>
		<edge from-layer="473" from-port="0" to-layer="474" to-port="3"/>
		<edge from-layer="474" from-port="4" to-layer="476" to-port="0"/>
		<edge from-layer="475" from-port="0" to-layer="476" to-port="1"/>
		<edge from-layer="476" from-port="2" to-layer="478" to-port="0"/>
		<edge from-layer="477" from-port="0" to-layer="478" to-port="1"/>
		<edge from-layer="456" from-port="3" to-layer="482" to-port="0"/>
		<edge from-layer="479" from-port="0" to-layer="482" to-port="1"/>
		<edge from-layer="480" from-port="0" to-layer="482" to-port="2"/>
		<edge from-layer="481" from-port="0" to-layer="482" to-port="3"/>
		<edge from-layer="482" from-port="4" to-layer="484" to-port="0"/>
		<edge from-layer="483" from-port="0" to-layer="484" to-port="1"/>
		<edge from-layer="484" from-port="2" to-layer="486" to-port="0"/>
		<edge from-layer="485" from-port="0" to-layer="486" to-port="1"/>
		<edge from-layer="462" from-port="2" to-layer="488" to-port="0"/>
		<edge from-layer="470" from-port="2" to-layer="488" to-port="1"/>
		<edge from-layer="478" from-port="2" to-layer="488" to-port="2"/>
		<edge from-layer="486" from-port="2" to-layer="488" to-port="3"/>
		<edge from-layer="487" from-port="0" to-layer="488" to-port="4"/>
		<edge from-layer="488" from-port="5" to-layer="491" to-port="0"/>
		<edge from-layer="489" from-port="0" to-layer="491" to-port="1"/>
		<edge from-layer="490" from-port="0" to-layer="491" to-port="2"/>
		<edge from-layer="491" from-port="3" to-layer="495" to-port="0"/>
		<edge from-layer="492" from-port="0" to-layer="495" to-port="1"/>
		<edge from-layer="493" from-port="0" to-layer="495" to-port="2"/>
		<edge from-layer="494" from-port="0" to-layer="495" to-port="3"/>
		<edge from-layer="495" from-port="4" to-layer="496" to-port="0"/>
		<edge from-layer="446" from-port="5" to-layer="497" to-port="0"/>
		<edge from-layer="452" from-port="5" to-layer="497" to-port="1"/>
		<edge from-layer="496" from-port="1" to-layer="497" to-port="2"/>
		<edge from-layer="497" from-port="3" to-layer="499" to-port="0"/>
		<edge from-layer="498" from-port="0" to-layer="499" to-port="1"/>
		<edge from-layer="499" from-port="2" to-layer="500" to-port="0"/>
		<edge from-layer="14" from-port="0" to-layer="500" to-port="1"/>
		<edge from-layer="15" from-port="0" to-layer="500" to-port="2"/>
		<edge from-layer="16" from-port="0" to-layer="500" to-port="3"/>
		<edge from-layer="17" from-port="0" to-layer="500" to-port="4"/>
		<edge from-layer="500" from-port="5" to-layer="501" to-port="0"/>
		<edge from-layer="165" from-port="5" to-layer="501" to-port="1"/>
		<edge from-layer="501" from-port="2" to-layer="502" to-port="0"/>
		<edge from-layer="13" from-port="5" to-layer="502" to-port="1"/>
		<edge from-layer="502" from-port="2" to-layer="504" to-port="0"/>
		<edge from-layer="503" from-port="0" to-layer="504" to-port="1"/>
		<edge from-layer="504" from-port="2" to-layer="505" to-port="0"/>
		<edge from-layer="505" from-port="1" to-layer="506" to-port="0"/>
		<edge from-layer="4" from-port="0" to-layer="506" to-port="1"/>
		<edge from-layer="5" from-port="0" to-layer="506" to-port="2"/>
		<edge from-layer="6" from-port="0" to-layer="506" to-port="3"/>
		<edge from-layer="7" from-port="0" to-layer="506" to-port="4"/>
		<edge from-layer="511" from-port="0" to-layer="512" to-port="0"/>
		<edge from-layer="507" from-port="0" to-layer="512" to-port="1"/>
		<edge from-layer="508" from-port="0" to-layer="512" to-port="2"/>
		<edge from-layer="509" from-port="0" to-layer="512" to-port="3"/>
		<edge from-layer="510" from-port="0" to-layer="512" to-port="4"/>
		<edge from-layer="506" from-port="5" to-layer="513" to-port="0"/>
		<edge from-layer="512" from-port="5" to-layer="513" to-port="1"/>
		<edge from-layer="513" from-port="2" to-layer="515" to-port="0"/>
		<edge from-layer="514" from-port="0" to-layer="515" to-port="1"/>
		<edge from-layer="515" from-port="2" to-layer="516" to-port="0"/>
		<edge from-layer="516" from-port="1" to-layer="517" to-port="0"/>
		<edge from-layer="0" from-port="0" to-layer="517" to-port="1"/>
		<edge from-layer="1" from-port="0" to-layer="517" to-port="2"/>
		<edge from-layer="2" from-port="0" to-layer="517" to-port="3"/>
		<edge from-layer="3" from-port="0" to-layer="517" to-port="4"/>
		<edge from-layer="522" from-port="0" to-layer="523" to-port="0"/>
		<edge from-layer="518" from-port="0" to-layer="523" to-port="1"/>
		<edge from-layer="519" from-port="0" to-layer="523" to-port="2"/>
		<edge from-layer="520" from-port="0" to-layer="523" to-port="3"/>
		<edge from-layer="521" from-port="0" to-layer="523" to-port="4"/>
		<edge from-layer="517" from-port="5" to-layer="524" to-port="0"/>
		<edge from-layer="523" from-port="5" to-layer="524" to-port="1"/>
		<edge from-layer="524" from-port="2" to-layer="526" to-port="0"/>
		<edge from-layer="525" from-port="0" to-layer="526" to-port="1"/>
		<edge from-layer="526" from-port="2" to-layer="527" to-port="0"/>
		<edge from-layer="527" from-port="1" to-layer="528" to-port="0"/>
		<edge from-layer="528" from-port="1" to-layer="531" to-port="0"/>
		<edge from-layer="529" from-port="0" to-layer="531" to-port="1"/>
		<edge from-layer="530" from-port="0" to-layer="531" to-port="2"/>
		<edge from-layer="527" from-port="1" to-layer="532" to-port="0"/>
		<edge from-layer="531" from-port="3" to-layer="532" to-port="1"/>
		<edge from-layer="532" from-port="2" to-layer="533" to-port="0"/>
	</edges>
	<meta_data>
		<MO_version value="2022.1.0-7019-cdb9bec7210-releases/2022/1"/>
		<Runtime_version value="2022.1.0-7019-cdb9bec7210-releases/2022/1"/>
		<legacy_path value="True"/>
		<cli_parameters>
			<caffe_parser_path value="DIR"/>
			<compress_fp16 value="False"/>
			<data_type value="FP32"/>
			<disable_nhwc_to_nchw value="False"/>
			<disable_omitting_optional value="False"/>
			<disable_resnet_optimization value="False"/>
			<disable_weights_compression value="False"/>
			<enable_concat_optimization value="False"/>
			<enable_flattening_nested_params value="False"/>
			<enable_ssd_gluoncv value="False"/>
			<extensions value="DIR"/>
			<framework value="tf"/>
			<freeze_placeholder_with_value value="{}"/>
			<input_model_is_text value="False"/>
			<input_shape value="[1,144,144,144,1]"/>
			<k value="DIR/CustomLayersMapping.xml"/>
			<layout value="()"/>
			<layout_values value="{}"/>
			<legacy_mxnet_model value="False"/>
			<log_level value="ERROR"/>
			<mean_scale_values value="{}"/>
			<mean_values value="()"/>
			<model_name value="3d_unet_decathlon_tf_ov_fp32_ir"/>
			<output_dir value="DIR"/>
			<packed_user_shapes value="defaultdict(&lt;class 'list'&gt;, {'mrimages': [{'shape': (1, 144, 144, 144, 1), 'port': None, 'added': True}]})"/>
			<placeholder_data_types value="{}"/>
			<placeholder_shapes value="(1, 144, 144, 144, 1)"/>
			<progress value="False"/>
			<remove_memory value="False"/>
			<remove_output_softmax value="False"/>
			<reverse_input_channels value="False"/>
			<save_params_from_nd value="False"/>
			<saved_model_dir value="DIR"/>
			<scale_values value="()"/>
			<silent value="False"/>
			<source_layout value="()"/>
			<static_shape value="False"/>
			<stream_output value="False"/>
			<target_layout value="()"/>
			<transform value=""/>
			<use_legacy_frontend value="False"/>
			<use_new_frontend value="False"/>
			<unset unset_cli_parameters="batch, counts, disable_fusing, finegrain_fusing, input, input_checkpoint, input_meta_graph, input_model, input_proto, input_symbol, mean_file, mean_file_offsets, nd_prefix_name, output, pretrained_model_name, saved_model_tags, scale, tensorboard_logdir, tensorflow_custom_layer_libraries, tensorflow_custom_operations_config_update, tensorflow_object_detection_api_pipeline_config, tensorflow_use_custom_operations_config, transformations_config"/>
		</cli_parameters>
	</meta_data>
	<quantization_parameters>
		<config/>
		<version value="{}"/>
		<cli_params value="{}"/>
	</quantization_parameters>
</net>
